checkpoints/bpm_regressor.pt (torch, 420042 bytes, 11 tensors)

conv1d.0.weight f4 [64, 1, 3]
00000000: 1ba9 55bf fd55 733f f547 23bf 1706 593f
00000010: 2866 c93e 4a93 9f3d 275f d4bf 35ad 40bf
00000020: 2f09 0a3f b8dd 463f 2552 823f 0469 853f
00000030: aac0 d23e 8480 8dbf 8554 28bf 406f a1bc
00000040: 6072 c93f 6f4c 17bf 95be 78bc 2c54 a73f
00000050: bc11 98be 4fc9 db3f cf84 543e 2603 92bf
00000060: 8c47 91bf fff0 7dbf b338 3bbf 3c1f 863e
00000070: 6ee8 da3e 4f83 25bf 19cf 323f 0af2 6d3e
00000080: d4fe 3abe ccd9 02bf 26b1 4d3d dc02 ec3f
00000090: af86 3bbf f0fb 80be ad4c b73f 0f10 143f
000000a0: 7960 3d3f 7f26 cd3d 2ac0 d73e f962 3abe
000000b0: 9bc5 29be 3302 633e 80cf 663e 88d4 6e3f
000000c0: 7b29 d2bf dfde 12bf 770c 013f d753 653f
000000d0: 2f7e e53f bd91 993e 3cae 17be 366f 04bf
000000e0: 7759 c53e 24b7 08bf 23c2 0b3f 0530 a33e
000000f0: e02c 81bf c4d2 a4bd f869 48bf 8c54 073f
00000100: da56 ff3e 221a 94bf 91e6 4a3c d643 d93e
00000110: d14c c73f c858 323f 417e e03e d848 0fbf
00000120: f0c4 a83f c0b9 c5be 7ad3 bc3e be6f 2cbb
00000130: 3335 9c3f 9701 eb3e 2f3a 5fbf acfe 843f
00000140: 349a ec3d 8212 c93f 9f8b 583d b023 41bf
00000150: 25cd b03d 2585 3abd 4e2a 0abf 10ce 91bf
00000160: 7535 943f 7216 9fbf 7674 9fbf 5767 6cbc
00000170: f235 5a3f 7db6 cdbe eae0 5a3f 82c8 04bf
00000180: fea1 9bbe 403b d0be b56c b1bf d79b ad3e
00000190: 2813 b3be 45b7 8d3f c76a 9bbf 5de3 a93e
000001a0: 9933 5e3f af69 183f 9014 eebe a51a 83bf
000001b0: c8c0 2d3d 1908 80be 22f8 233f a9e9 8b3e
000001c0: c4c3 7fbf e67b ee3e 03c1 0f3f 3cf2 cb3e
000001d0: d7e0 6bbf 33a4 afbe 1887 f3bf 450e db3e
000001e0: b55e 2b3f 366e a43e 2484 edbf 3dec 52bf
000001f0: 3b48 463e ef25 2fbf 4232 7dbf ba5c 7fbf
00000200: b629 f7be 37f5 60bf 68fe aebf 4b79 bcbd
00000210: 1225 f5be 448f a93f acfd 233e f1d7 acbf
00000220: ee32 3dbe f05e 023f 73c9 e83d d715 5fbf
00000230: 1d7f b5bd 4f8d 10bf dc3a fbbe fd5d 113f
00000240: db5b a1be 2181 833d 27ca ea3f fb79 103f
00000250: 925d a93e 55ed 5aba e809 d9bf 1176 aa3f
00000260: 8f07 4dbf df3e 9f3f 0751 4ebf dfaf fbbe
00000270: b93a 38bf 9cea f63e eec7 c83e 9ce7 c6be
00000280: 889b 37bf 091c 8abe 27c6 c03e 6151 083f
00000290: 1973 8ebf 4ff4 a33b 5ff8 93bf a0d8 3f3d
000002a0: 51b4 58bf adb0 b83e 6bdc 92bf ed7f dcbe
000002b0: a390 d83e 680c 5b3e b5ef f1be b5d2 05bf
000002c0: bffe d23f fa1f 2b3f 8845 423c 2080 203f
000002d0: b2c8 9b3f 9d7c 783f b67f 793e 6096 173c
000002e0: 4fa5 83be 4053 16be 3156 293e ca2b adbe
000002f0: a03c 173f cd85 2f3f fcad 1cbf ddd0 6d3f
-0.8346116 0.9505308 -0.6378167 0.8477492 0.39335752 0.07791765 -1.6591538 -0.7526429
0.53920263 0.77682066 1.0181319 1.0422673 0.41162616 -1.1054845 -0.65753967 -0.019706368
1.573803 -0.59101003 -0.015182157 1.3072562 -0.2970103 1.717081 0.20753787 -1.1407211
-1.1349959 -0.99195856 -0.7313339 0.26195705 0.42755455 -0.64653486 0.69847256 0.23236862
-0.18261272 -0.5111358 0.05021777 1.8438373 -0.73252386 -0.25192213 1.4320275 0.57837003
0.7397533 0.10017108 0.42138797 -0.18201818 -0.16579287 0.22168808 0.22540092 0.93293047
-1.6418909 -0.57371324 0.50409645 0.89581054 1.7929133 0.29994002 -0.14812559 -0.51732194
0.3854482 -0.5340445 0.54593104 0.31872573 -1.009182 -0.08048013 -0.78286695 0.52863383
0.4987095 -1.1570475 0.012384073 0.42434567 1.5570318 0.6966672 0.43846324 -0.55970526
1.31851 -0.38618279 0.36880094 -0.002631172 1.2203735 0.4589965 -0.87198156 1.039022
0.115528494 1.5708773 0.052867528 -0.7544508 0.08632878 -0.045537133 -0.539708 -1.139101
1.1578814 -1.2428725 -1.2457416 -0.014428935 0.85238564 -0.4017829 0.8549944 -0.5186845
-0.30397028 -0.40670204 -1.38613 0.3390796 -0.34975553 1.1071554 -1.2141961 0.33181277
0.8679748 0.5953626 -0.46500063 -1.0242506 0.04242018 -0.25006178 0.64050496 0.27326706
-0.9990809 0.46578902 0.5615389 0.39833248 -0.92139953 -0.34304962 -1.9025602 0.42784324
0.66941386 0.32115334 -1.8555951 -0.8239172 0.19363491 -0.6841726 -0.9890481 -0.99750865
-0.4827401 -0.8787417 -1.3671389 -0.09202822 -0.47879845 1.3246846 0.16014737 -1.35034
-0.1847646 0.50926113 0.113665484 -0.871427 -0.088621356 -0.5646562 -0.49068344 0.5678404
-0.31515393 0.06421114 1.8342942 0.5643613 0.330792 -0.0008351405 -1.6956148 1.3317281
-0.8008966 1.2441062 -0.8059239 -0.49157616 -0.71964604 0.48225868 0.39215034 -0.3884858
-0.71721697 -0.26974514 0.37651178 0.53249174 -1.1128875 0.005003489 -1.1560172 0.04683745
-0.8465014 0.36072293 -1.1473516 -0.4306635 0.4229785 0.21391451 -0.47253194 -0.5227464
1.6483992 0.6684567 0.011857398 0.62695503 1.2170622 0.97065145 0.24365124 0.009252161
-0.25712058 -0.14680195 0.16536786 -0.3382247 0.5907688 0.6856354 -0.6120298 0.92896825

conv1d.0.bias f4 [64]
00000000: a845 153e b985 d43d 1c64 fe3d 079d e23d
00000010: 8015 1a3e ce1f bc3d a464 973d 3541 cb3d
00000020: 28a0 493e e977 e23d de00 cb3d 3925 c33d
00000030: 30e9 ba3d a3b8 093e 15e4 f23d 29a7 dc3d
00000040: bd3b d93d f02f 113e 5cd2 1d3e d426 a93d
00000050: 28c0 1c3e c0ad 023e 2106 923d a160 b43d
00000060: acbe 133e 118e e53d 3e8a df3d ca43 993d
00000070: 01a2 053e c8e8 163e 9c13 b83d 8fc0 0a3e
00000080: 0e43 0f3e a292 e73d ab39 ae3d d2e8 e53d
00000090: b73c b83d 0a94 173e 122c 1d3e 1168 053e
000000a0: a79f 113e da30 0d3e 5321 043e aa41 093e
000000b0: c4df bf3d 9f15 083e 0304 3b3e 9e96 e43d
000000c0: e821 983d a4d3 0d3e 8ae7 323e 87b8 bd3d
000000d0: 1bac bd3d adb4 463e 30c0 ce3d 211d 0f3e
000000e0: 2fd1 0f3e 3ce5 b13d 6355 cc3d 8495 eb3d
000000f0: 94b6 113e 700f 123e a4d8 e33d bcff 0f3e
0.14577353 0.10377068 0.12421438 0.11065107 0.15047264 0.09185754 0.073922426 0.09924547
0.19690001 0.11058027 0.09912275 0.09528584 0.09126508 0.1344934 0.118599094 0.10774071
0.10607097 0.14178443 0.15412277 0.08259359 0.15307677 0.12761593 0.07130075 0.08807493
0.14428204 0.11208738 0.109150395 0.07483633 0.13050081 0.14737236 0.08988115 0.13550018
0.13990423 0.11307265 0.08507093 0.112260476 0.089959554 0.14802566 0.15348843 0.1302798
0.14221059 0.13788167 0.12903337 0.13403955 0.09368852 0.13289498 0.18263249 0.111615404
0.07428342 0.13850266 0.17471138 0.092637114 0.09261342 0.1940486 0.100952506 0.13975956
0.14044641 0.08686301 0.09977224 0.11503127 0.14229804 0.14263701 0.11125305 0.14062399

lstm.weight_ih_l0 f4 [512, 64]
00000000: cb42 353e c34a 103e 4a5b 5c3e e254 1d3e
00000010: 3a17 5b3e bb1f 4c3e f9a8 bc3d eed8 3d3e
00000020: 9718 2f3e 9b67 673e 26c5 043e 2d43 073e
00000030: 7dab 103d 1952 d43d bc35 853e 9449 47bc
00000040: 1429 6d3e e523 783d d529 093e 965a 503e
00000050: a576 023e cbf9 103e 7047 5a3d 47cf 313e
00000060: bb4c 213e db48 f13c 23a9 a13d 898c 2d3e
00000070: 46bc 483e aa24 773e c3ad 8e3d 6075 5a3e
00000080: a591 353e eea9 2bbb adc4 0f3e 10cc f83d
00000090: 4915 2d3e 240e 503e 0f79 9c3d d3a9 063e
000000a0: 4522 803e 75f4 6d3e f687 503e e668 233e
000000b0: c66f f83d fa0a d63d 3c4f b03d d058 853e
000000c0: 7ad3 ce3d 2f73 893d ee70 343e 414e 483e
000000d0: 922f 5a3e ddb0 1b3e 793b 0b3e 4ff7 de3d
000000e0: 23e6 b53d 8422 d63d 3cfb 623e 0e93 183e
000000f0: 4000 bf3d 73ba d73d 2143 043e 04df 763d
00000100: e28c 49bd 7439 dcbc a1b5 013c 4f90 223d
00000110: c49e f73c 808d 823d 87ab 863c 43a4 1f3d
00000120: ef64 853d c138 c0bd 9a86 513d 1f53 913d
00000130: e288 00bd 9ec0 b23d 057e b03d 838b 32bd
00000140: ab2e 0e3d 4bf7 1cbb d3e4 523d 2ebc 0ebc
00000150: 87cf 133d c42d a83d db73 73bd d9bc 3bba
00000160: 6f6f 35bd e9ef f13c 4493 c1bc b8db a4bd
00000170: cc75 8dbd 8a0b a83d e525 a73d ab1e 833d
00000180: 8af6 ad3d b485 57bc b2c1 4bbd f389 c8bc
00000190: d819 c33d 7521 153d 0bfd b9bc 616f 2b3c
000001a0: 59a8 9f3d 2eb1 a6bd dd92 a6bd 86a9 8b3c
000001b0: b483 6ebd 86c0 af3d 5421 263d ac5b 583c
000001c0: fec8 243c 6fa5 5fbd b86b 633c 3181 6fbd
000001d0: 29b0 a53d f5dd 923d 61f3 cabd 4d90 e73c
000001e0: cebf ac3d cce1 243d 285b 413d 236c db3d
000001f0: 44ae 6dbd 0448 d03d f2f5 3e3c b8ea 93bc
00000200: dece 033e 2ee2 9dbd e205 e53d 00c4 76bd
00000210: af11 053e 0487 e33d 0227 e03d 5636 203e
00000220: b51f 273e b0fe 083a 2e5a 993d ebc3 34bc
00000230: 7e7e da3d a043 ae3d 8d75 cf3b c397 933c
00000240: 007a 573d a343 4a3d 6d4a 363e 5aaa 783d
00000250: 9cce 4a3d 2f43 f83d 9d53 e43d 556b 41bd
00000260: ae75 b03d 6119 28bb 136c 243e d5e9 773d
00000270: 2efc 1f3e 89aa 233a 7aaa 8d3d 4670 4e3d
00000280: 19bf 083e 05e9 1cbd f6cc 8e3d ed2f 253e
00000290: a735 2dbc 843b 0d3e a889 143e 1a56 8d3d
000002a0: d56e c73c 9bcf e23d 2582 273e fc9d 8d39
000002b0: a969 593d d706 fb3c fa21 3e3e 48b1 333e
000002c0: a61d 5bbd b1ba e13d c1ca f83d b374 3b3d
000002d0: af57 0d3e 9e09 193c 551a 163d 6bb2 013c
000002e0: 45b2 7d3d 857c 1b3e 5628 493d 2c01 d43c
000002f0: 9580 a0bd 6a19 323e c9f5 20bd 2320 cb3d
00000300: 4859 b9bd b34d 08bd a856 703d 834c a63d
00000310: bd39 a3bc 3672 393d 62d4 cbbc 6644 00bd
00000320: 9482 b0bd 5224 a43d 118a 77bd d538 0abd
00000330: 0ceb 553d c31f 91bd 4ed1 c53d 5f10 913d
00000340: be6f 8d3d 0dce 793d b1d7 b13d 2f6a 233c
00000350: c7cb 06bd 81bd db3d 614a 43bd a751 b939
00000360: 831f 91bd 6c2c 063d 8e68 9fbd 5afe 80bd
00000370: 0b19 90bd 88e9 a93d d41d 7e3d d76d 3ebd
00000380: 345c a5bd d8ba 983d a6fa c0bc e213 713d
00000390: 8f48 f7bb 96f7 47bd 2863 be3d 689a 563d
000003a0: dde8 113d a63a 63bd 2ac0 a4bd de77 33bd
000003b0: 59db a8bd 6d56 bf3d 435d bb3d ed1f 993b
000003c0: 37da cc3d 7df7 e6bb 95f8 8e3d f732 003d
000003d0: cbd3 cc3d e9e9 25bd 5157 9fbd 3c21 be3d
000003e0: 6fcf 493d cb0f 51bc f004 7d3c e88c e0bc
000003f0: 7402 103c b5f2 da3d 31e7 8d3d 86b7 a5bd
0.17701261 0.1409102 0.21519199 0.15364411 0.21395579 0.19933979 0.092119165 0.18539783
0.17099224 0.22598116 0.12965831 0.1320922 0.035319794 0.103672214 0.2601756 -0.0121635385
0.23160201 0.060581107 0.13394864 0.20347056 0.12740572 0.14157788 0.053290784 0.17364226
0.15751927 0.029453686 0.078935884 0.16948141 0.1960307 0.2413508 0.06966736 0.21333838
0.1773134 -0.0026193815 0.1403987 0.12148297 0.16902651 0.20317894 0.076402776 0.1315072
0.25026146 0.23237784 0.20364365 0.15957984 0.12130694 0.10451312 0.08608863 0.2604432
0.1009893 0.06711423 0.17621204 0.19561101 0.21307209 0.15204187 0.13596906 0.10887014
0.08881786 0.10455802 0.22166151 0.14899847 0.093262196 0.10533609 0.12916233 0.060271278
-0.049206622 -0.026882865 0.007916839 0.039688405 0.030227073 0.06374645 0.016439212 0.03897501
0.06513392 -0.09385825 0.051153757 0.07095932 -0.03138054 0.08728145 0.08617786 -0.04359008
0.034712475 -0.002395111 0.051487755 -0.008711858 0.036086585 0.08211854 -0.05943666 -0.00071616244
-0.044295724 0.029533343 -0.023629792 -0.080497205 -0.069072336 0.08205326 0.08161525 0.06402334
0.08494289 -0.013154436 -0.04974527 -0.024479842 0.09526414 0.03640886 -0.022703668 0.0104635665
0.07795782 -0.08139263 -0.08133481 0.017048609 -0.05823107 0.08581643 0.040559128 0.01320545
0.010057686 -0.05460113 0.013880663 -0.058472816 0.080902405 0.07171241 -0.09909702 0.02826705
0.08435021 0.0402544 0.047206074 0.10713985 -0.05802752 0.10169986 0.011655318 -0.018056259
0.12871882 -0.07709156 0.11182763 -0.060245514 0.12995027 0.111097366 0.1094494 0.15645728
0.16320689 0.00052259397 0.074879035 -0.011033039 0.10668658 0.08508992 0.006331152 0.018016702
0.052606583 0.04938091 0.17801829 0.060709335 0.049513444 0.12122189 0.111487605 -0.0472215
0.086161956 -0.0025649893 0.16056852 0.060525734 0.15623543 0.0006243368 0.069172814 0.05040004
0.13354148 -0.038308162 0.06972687 0.16131563 -0.010571874 0.13792235 0.14505637 0.06901188
0.024344841 0.11074754 0.1635824 0.00027011323 0.05307928 0.03064291 0.18567649 0.17548096
-0.05349507 0.11021937 0.12148047 0.04576559 0.1380298 0.009340672 0.036646206 0.007916073
0.06193759 0.15184219 0.049110733 0.025879465 -0.07837025 0.17392507 -0.0392969 0.09918239
-0.09050232 -0.033277225 0.05867639 0.08120062 -0.019924993 0.045274936 -0.024881545 -0.03131523
-0.08618656 0.0801474 -0.060434405 -0.033745605 0.05222611 -0.07086136 0.09659062 0.07083201
0.06906079 0.06098752 0.08683718 0.009974047 -0.03290918 0.107295044 -0.047678355 0.00035346785
-0.070860885 0.032757208 -0.07783614 -0.06298514 -0.070360266 0.08296496 0.062040165 -0.04649147
-0.08074227 0.074575126 -0.023557018 0.058856852 -0.0075464915 -0.0488201 0.09296256 0.052393347
0.035622466 -0.055475853 -0.08044465 -0.043815486 -0.08244962 0.09342656 0.09148648 0.0046729953
0.10002559 -0.007048546 0.06981007 0.031298604 0.10001334 -0.040506277 -0.07780326 0.09283683
0.04927009 -0.012760113 0.015443072 -0.02741094 0.008789647 0.10690824 0.06928862 -0.08091645

lstm.weight_hh_l0 f4 [512, 128]
00000000: 5edb c7bd de48 683d f41b 76bd 5220 e83c
00000010: 6184 713d f041 eb3c f894 9b3d 32f6 d5bc
00000020: 634a 34bd 0d20 89bd 3d4d fb3d 7f2d 14bd
00000030: 80fe c63d ea52 3fbc a9a3 013e ba67 afbc
00000040: 4895 6dbc ea56 16bd 0c60 893d 9967 43bd
00000050: cf77 ebbd 5486 513c 4015 13bd 7711 82bd
00000060: 159d 2dbd dbf9 74bd dfc2 02bd 3463 3ebd
00000070: 63b4 d9bc 0741 5bbd cecb 643c 6b6a 863d
00000080: 15a9 e13d aefd 29be 7f6e 32be c54f 123e
00000090: b250 74bc 8f95 103d cb18 7239 c5eb a8bc
000000a0: 88ab 5e3c a64a 0bbd 9059 9e3d 6939 9ebc
000000b0: c320 573d f4cc 993c 8b77 293d 4e7a 143e
000000c0: e713 513c ed9f f4bd d5cd be3d 71de b43d
000000d0: 769a 85bc 2e33 6b3c 0f8a 04bd a932 0c3e
000000e0: 2e46 663d 1cb9 a03d f6a9 1e3e b0ed 5c3d
000000f0: 8c41 9cbd f3d2 33bb e033 63bd e84e f43d
00000100: 9b25 28bd ab9c ebbd 7511 033c 6050 42bd
00000110: b31c 983d cd6b c5bd 437e b8ba 49fb abbc
00000120: eb20 173e 90a2 f2bd d3c7 763d e145 043e
00000130: bd34 213c b9d4 1fbd c5ef 8fbd 69b4 b0bd
00000140: a354 b93d 3efc 133c 40ec 6abc 99ec e13d
00000150: 8035 e13a 4f65 b23d 6966 f93d bb0c 193e
00000160: fd0d 903d 1588 f93d abd5 05be b8ef 163e
00000170: 1755 ef3d 8537 963d cfe1 8f3b a795 af3d
00000180: 7763 34bd 9c34 e63b 5aa1 0b3d 7109 51bc
00000190: 824e a33c 1933 18bc 9fce dabd f6fa 6e3d
000001a0: e68a eebc 25c5 dfbc 515f 253d 8255 b03d
000001b0: a5c8 783a 60ee 223d 2eb1 973d a6d5 f3bc
000001c0: 608e 12be 5477 0bbe 7b23 eabd e7a4 0b3e
000001d0: f881 0dbc b97d 0bbd eda9 9c3d c93f ac3d
000001e0: 38e7 01be 2380 ab3c c898 a4bd c2fc 1abe
000001f0: c615 1cbe 80d0 2bbc 7474 843d 7641 75bd
00000200: df3c a1bd a644 d8bc 371f 16be ab97 e2bd
00000210: 1f3f 403c dff2 05ba 7107 2a3d a434 a33c
00000220: e797 9abd 9893 503c b77f 943d 9e53 bdbd
00000230: 0aaf 973d f0e5 863d 21aa 233d d3f3 653d
00000240: edbf ce3b 9c25 fdbd 8a73 0e3d 63a0 4bbd
00000250: 1a4a f9bd 9025 123d 6d7c 2b3c e904 bcbc
00000260: 0265 00be 95dc 1ebc 8cee d53d 1569 85bd
00000270: 2109 76bd 2f54 71bd 6182 87bd 1014 013e
00000280: eccf b73c b549 c6bd 8f59 cebc fd43 203d
00000290: da4a f6bc 3451 d93c 227a b03c 6d27 5b3c
000002a0: 0553 673d a9cc 473c 0d0c debb d90c f83d
000002b0: 829a 1a3c 02bb b9bc be0a 9d3c 3cfb 93bc
000002c0: 75ed d43d 27b8 07be 19bd f43d e7a6 0d3e
000002d0: ab24 493b b1b6 04be 28e7 1cbd a1f0 903d
000002e0: 1bb5 033d ae32 4d3d e64f 29bc daa4 853c
000002f0: 5765 87bc 4502 42bd 688e 8bbd 4d54 de3d
00000300: e25b f8bd 8676 0abe d567 c039 2a9f 2e3d
00000310: 1239 1b3e 75ba 373c fd0d 49bd 927b 02be
00000320: faba 113d 1470 dabd daac eb3d acc7 853d
00000330: c9ad 823c 7927 81bd d523 483b b96e f0bc
00000340: 9c30 d8bc 9f0f e93c 9893 17be 3b07 1c3e
00000350: 4caa 5d3b f102 0a3e de45 c23d 98af d4bc
00000360: 6295 c23d 7923 1b3e e132 e9bd b253 77bc
00000370: 577a 1bbd 506f 693d c00e 52bd 335b 723d
00000380: 190d 04be 395a b73d 3d07 d43c c1b3 103d
00000390: 6467 183e f2ea eabd ccaa e4bd 1afd 1c3c
000003a0: 8693 c8bd 04b7 f0bd 7dfb 80bc f11b de3d
000003b0: 4533 093b 402c 0b3b 95cb 2f3c 2443 81bd
000003c0: 076e bebc 5792 dbbc e24b 8eb9 17c0 7d3d
000003d0: 1f6d ddbd bf8f dabd 8cc5 433c d8bb c9bc
000003e0: 2df4 ffbc e8c1 2fbb 35ec 29be 637a 23bd
000003f0: c909 6cbd e74c 723d 784d 793d e830 a7bd
-0.09758638 0.056710117 -0.060085252 0.028335724 0.058964137 0.028717965 0.07596773 -0.026118372
-0.044016253 -0.06695566 0.122705914 -0.0361762 0.09716511 -0.011677483 0.12660088 -0.021411765
-0.014500923 -0.03670398 0.067077726 -0.04770622 -0.11497461 0.012788374 -0.035908937 -0.063509874
-0.042386133 -0.059808593 -0.031924125 -0.046481326 -0.026575273 -0.05352881 0.013964606 0.06563266
0.11018578 -0.16600677 -0.17424963 0.14288242 -0.014911817 0.03529888 0.00023088155 -0.020620236
0.013590701 -0.034006737 0.077319264 -0.019314485 0.05252148 0.018774487 0.04137377 0.1449978
0.012761093 -0.11944566 0.09316603 0.0883149 -0.016309004 0.014355464 -0.032358225 0.136912
0.056219272 0.07847807 0.15494522 0.053937614 -0.076296896 -0.0027438968 -0.055469394 0.11929113
-0.04105149 -0.115044914 0.007999768 -0.047439933 0.07427349 -0.09639702 -0.0014075715 -0.020993846
0.14758651 -0.118474126 0.06024916 0.12917282 0.009839234 -0.039021228 -0.07028154 -0.086281605
0.09049346 0.009032307 -0.014338553 0.110314555 0.0017182082 0.08710729 0.12177736 0.14946263
0.07033918 0.12184159 -0.13069789 0.14739883 0.116861515 0.07334808 0.004390932 0.08573466
-0.04404017 0.0070253145 0.034089424 -0.012758599 0.019934896 -0.009289526 -0.10683941 0.058344804
-0.029118966 -0.027315686 0.040374104 0.08610059 0.00094903476 0.039778113 0.07406841 -0.029764961
-0.14312124 -0.13619739 -0.114325486 0.13637124 -0.008636944 -0.034055445 0.07649598 0.084106036
-0.12685859 0.020935124 -0.08036953 -0.15135482 -0.15242681 -0.010486722 0.06467524 -0.05987688
-0.07872938 -0.026399922 -0.14660345 -0.110640846 0.011733799 -0.0005109738 0.041511003 0.019922562
-0.07548504 0.012730502 0.07250922 -0.09244464 0.07406433 0.06586826 0.03995717 0.056140732
0.0063095004 -0.12360689 0.034778155 -0.049713504 -0.12172337 0.035680354 0.010466677 -0.02295156
-0.12538531 -0.009696146 0.1044589 -0.065141834 -0.0600673 -0.058918174 -0.06616665 0.1260531
0.022438012 -0.09682027 -0.02518919 0.03912734 -0.030064989 0.026527978 0.021542612 0.013376099
0.056475658 0.012194791 -0.006776339 0.121118255 0.009436252 -0.02267218 0.019170161 -0.018064134
0.10396854 -0.13253842 0.1195013 0.138332 0.0030692022 -0.12960316 -0.038306385 0.07077146
0.032155138 0.05009716 -0.010333991 0.016313959 -0.016527815 -0.047365446 -0.06814271 0.10855923
-0.121269 -0.13521776 0.00036698455 0.04263226 0.1515849 0.011213888 -0.049085606 -0.12742451
0.035578705 -0.106659085 0.11507578 0.06532225 0.015952008 -0.06306357 0.0030538936 -0.029349672
-0.026390366 0.028449832 -0.14802396 0.15237133 0.0033823429 0.13477685 0.09485982 -0.025962636
0.09501149 0.1515025 -0.113866575 -0.015095638 -0.03795847 0.05699092 -0.051283598 0.059169006
-0.12895621 0.089527555 0.025882358 0.035327677 0.1488319 -0.114705935 -0.111653894 0.0095818285
-0.09793763 -0.117536575 -0.015744919 0.10845173 0.00209351 0.0021236092 0.01072969 -0.06311634
-0.023245825 -0.026803179 -0.00027140888 0.06195077 -0.10811829 -0.10671949 0.011948954 -0.024625704
-0.031244362 -0.0026818458 -0.16594012 -0.03991164 -0.05762652 0.05915537 0.060864896 -0.08163625

lstm.bias_ih_l0 f4 [512]
00000000: b01c 383e fb36 8a3d 89f1 183e 89c8 09bc
00000010: 60d3 293e eb9a 5c3d 9feb 803d 8ffc 033e
00000020: b284 ce3d 0304 383e afdd 033d 47ba 3d3e
00000030: 37f6 e93c 3fd5 543d 4076 283e 4e2d 0c3d
00000040: a8ba 99bc e506 333e 9aa2 fb3d f332 393e
00000050: 95e8 3d3e e139 363e 611f 343d 77a2 3c3e
00000060: 1e75 333e 230d 243d 3245 8f3d 95f5 e73c
00000070: 9fb9 f13c f78a 293e bcf4 413e 0573 113d
00000080: a058 333e 1ed4 3d3e 8529 173d 2237 9a3d
00000090: 150e 0d3e 14f7 1e3e 8b3d 1e3d b2e9 353e
000000a0: 5c59 283d af17 0a3d add2 3f3e fc93 313e
000000b0: 07a8 703d 65a9 113d 43a8 383e dbee d73d
000000c0: c10b 413e a0cf bb3c 50e1 273d 9031 3c3d
000000d0: 9eed 2f3d 3d69 323e 93fe 563d 0874 803d
000000e0: d0ae aa3d bb3b 243e 0c9c 0a3d 010c 483d
000000f0: 55eb 333e 0486 723d 0aae 373d 5720 363e
00000100: 3e28 183d 8221 a33d 961c e03d 679b 283e
00000110: 4d3b 2c3d 7724 3c3e 33de 023e 571d 333e
00000120: d89e 3c3d 7a04 dd3d d79d 233d abbb 323e
00000130: 97b3 553d f68a 743d 4c4c f33c 4593 643d
00000140: 5ffe 1d3e 6cce 7e3d 71ad 103d 9337 413e
00000150: d5b7 9c3d 36ee f23d 3469 393e cee5 173d
00000160: 84f6 483d bcf2 303e cdd8 903c 1bc2 a73c
00000170: 4d31 703d 2f4f 823d 9949 443d dd4d 2a3d
00000180: e3d5 063e 078b 2e3d fef1 313d 294a a93d
00000190: 34f9 c43d 4455 b13d 21c3 3c3d 657a 363e
000001a0: ac64 c63d d1b6 353e 91e8 063d 91cd 713c
000001b0: 0f3c 3c3d 3fb5 f43c fcf8 463e f519 3e3d
000001c0: 6979 da3c 4d84 3d3d e1be 733d c790 203e
000001d0: 9bc0 8d3d 0c9b 8b3d 4ad2 543d 42e3 773d
000001e0: ed18 433e 7d00 883d 3a32 3f3e f40a 893d
000001f0: b26d 1c3d 45f3 1a3e ad90 3d3e a148 6e3d
00000200: d3fd 883d 9320 a03d c5ec 3d3d 4d23 8f3c
00000210: 7957 163d 466d 773d fc01 b33c fde2 f03c
00000220: 0317 913d dc52 8c3d 77b8 213d 2a71 8a3d
00000230: fc4c d43c 46b6 883d 8d8e 493d 81f5 053d
00000240: 9de6 29bc fc36 8e3d 0306 983d e750 863d
00000250: feb0 ac3d c5e1 8e3d 52d5 7b3c 3fd9 973d
00000260: 0b64 863d a107 273d 3ec3 843d 22a8 973d
00000270: c8b0 243d 9563 963d d91b aa3d 56db 3a3d
00000280: a501 9a3d d1ea 9f3d b7e7 563d 99d3 723d
00000290: e5dc 583d d31d 843d e99b ce3c c235 7c3d
000002a0: 6f98 1b3d 88c1 693d a858 a23d 3fdc 3f3d
000002b0: 63ac 283d 7a4d 833d d051 7f3d adca 323d
000002c0: 12ea 8a3d 0db5 773d 8269 943d 9427 473d
000002d0: 3ac7 673d 7c9c 6c3d 780e 4d3d af62 853d
000002e0: 9e51 ae3d c724 ad3d 3e60 cc3c 6762 933d
000002f0: 2662 913d 8a07 8e3d 351c 853d f99b a63d
00000300: 1666 7f3d 5480 a53d 0c33 863d 6243 9a3d
00000310: 5065 703d 1a2a a03d 30a3 3d3d 1b22 803d
00000320: b813 983d f567 883d 2593 8a3d be25 9d3d
00000330: fb3f 3a3d 9be3 8f3d 735c 543d 3e7c 343d
00000340: c17d 203d e764 a53d 315c 6d3d c6ec a33d
00000350: ffc0 483d 8c43 583d 5520 ab3d 2607 953d
00000360: 9480 153d 03d1 463d c06f 4d3d 5664 7b3d
00000370: f038 923d 977a a83d 6d07 893d 2513 673d
00000380: 3176 913d eafb 103d 63f8 443d 776f 883d
00000390: 859f b43d 2182 ad3d 0085 af3d 38b3 9c3d
000003a0: 8681 ae3d 195b 8a3d 0749 fc3c 54f3 903d
000003b0: 0c8f 873d 473b 993c 6e04 b53d 4f0e a73d
000003c0: bf83 153d 1e3f 9a3d feb5 973d 5fa8 503d
000003d0: b47a 653d 7f7d 8d3d 169a 723d 740f 553d
000003e0: c7ab 893d 3a83 923d 4ca4 943d 9160 743d
000003f0: 22ee 8a3d bf88 923d 6a57 af3d 6ca4 143d
0.17979693 0.06748768 0.14935888 -0.008409628 0.1658454 0.05385868 0.06294941 0.12889312
0.10083903 0.1797028 0.032193836 0.1852809 0.028559787 0.05196118 0.16451359 0.034222893
-0.018765762 0.17483099 0.12286873 0.18085842 0.18545754 0.17795517 0.043975238 0.1842135
0.17525145 0.04005159 0.0699562 0.028315345 0.029507456 0.16556917 0.18941015 0.03551008
0.17514277 0.18537948 0.03690483 0.07530047 0.13774903 0.1552394 0.03863291 0.17764929
0.041100845 0.033713993 0.1873271 0.17341608 0.058753993 0.035561938 0.18032937 0.10543605
0.1885214 0.022926152 0.04098636 0.045945704 0.04295122 0.17422958 0.052488875 0.06272131
0.08334124 0.1603841 0.033840224 0.048839573 0.17570241 0.05920984 0.04484371 0.17785774
0.037147753 0.079653755 0.10942952 0.16465531 0.04204874 0.18373285 0.12780075 0.17491661
0.046049923 0.107918695 0.03994545 0.17454402 0.052173223 0.059702836 0.029699467 0.05580451
0.15429066 0.062208578 0.035321657 0.18868856 0.07652251 0.118618414 0.18106538 0.037084393
0.04906322 0.17280096 0.017681504 0.020478299 0.058640767 0.06362759 0.04792175 0.041578162
0.13167529 0.042613056 0.043443672 0.08266098 0.09617844 0.08658841 0.046084527 0.17820127
0.096871704 0.1774552 0.032936636 0.0147584835 0.045955714 0.029871581 0.19430918 0.046411473
0.026669221 0.04626875 0.05950821 0.15680228 0.06921502 0.06816682 0.05195836 0.060519464
0.19052477 0.06640718 0.18671504 0.06691542 0.03819055 0.15131862 0.1851222 0.058174733
0.06689038 0.07818713 0.04636838 0.017472887 0.036704514 0.060406946 0.021851532 0.029405111
0.07084467 0.06851742 0.03948256 0.067598656 0.025915615 0.06675391 0.049208213 0.032704834
-0.010369924 0.06944081 0.07423022 0.065584 0.08432196 0.06976656 0.015370684 0.07414483
0.065620504 0.04077876 0.06482552 0.07405116 0.040207654 0.073432125 0.08306093 0.04561933
0.07519845 0.078084596 0.052467074 0.059283827 0.052945036 0.06451001 0.025220828 0.061574705
0.03798717 0.05706933 0.07927066 0.046840902 0.041180026 0.06411262 0.06233388 0.043650318
0.067829266 0.060475398 0.072466865 0.04862173 0.05658648 0.057766423 0.050062627 0.06512963
0.08511661 0.0845428 0.024948236 0.07196503 0.070987985 0.06935032 0.06499521 0.08135218
0.062353216 0.08081117 0.06552705 0.075323835 0.05869037 0.0782053 0.046298206 0.06256505
0.07425636 0.06660453 0.06766347 0.076732144 0.045471173 0.07025834 0.05184598 0.0440638
0.03918243 0.08075886 0.05794925 0.08004145 0.04901218 0.052798793 0.08355776 0.07276754
0.036499575 0.048539173 0.0501554 0.061374985 0.07139766 0.08226507 0.066908695 0.056414742
0.07102621 0.035396494 0.048088443 0.06661885 0.088194884 0.08472086 0.085702896 0.07651371
0.085207984 0.06755657 0.03079654 0.07077661 0.06619081 0.018705023 0.088387355 0.08157026
0.036502596 0.0753157 0.07407759 0.05094182 0.056025222 0.06908702 0.05922898 0.05201669
0.06722217 0.07153936 0.072579 0.059662405 0.067837015 0.071549885 0.08561595 0.036289617

lstm.bias_hh_l0 f4 [512]
00000000: b01c 383e fb36 8a3d 89f1 183e 89c8 09bc
00000010: 60d3 293e eb9a 5c3d 9feb 803d 8ffc 033e
00000020: b284 ce3d 0304 383e afdd 033d 47ba 3d3e
00000030: 37f6 e93c 3fd5 543d 4076 283e 4e2d 0c3d
00000040: a8ba 99bc e506 333e 9aa2 fb3d f332 393e
00000050: 95e8 3d3e e139 363e 611f 343d 77a2 3c3e
00000060: 1e75 333e 230d 243d 3245 8f3d 95f5 e73c
00000070: 9fb9 f13c f78a 293e bcf4 413e 0573 113d
00000080: a058 333e 1ed4 3d3e 8529 173d 2237 9a3d
00000090: 150e 0d3e 14f7 1e3e 8b3d 1e3d b2e9 353e
000000a0: 5c59 283d af17 0a3d add2 3f3e fc93 313e
000000b0: 07a8 703d 65a9 113d 43a8 383e dbee d73d
000000c0: c10b 413e a0cf bb3c 50e1 273d 9031 3c3d
000000d0: 9eed 2f3d 3d69 323e 93fe 563d 0874 803d
000000e0: d0ae aa3d bb3b 243e 0c9c 0a3d 010c 483d
000000f0: 55eb 333e 0486 723d 0aae 373d 5720 363e
00000100: 3e28 183d 8221 a33d 961c e03d 679b 283e
00000110: 4d3b 2c3d 7724 3c3e 33de 023e 571d 333e
00000120: d89e 3c3d 7a04 dd3d d79d 233d abbb 323e
00000130: 97b3 553d f68a 743d 4c4c f33c 4593 643d
00000140: 5ffe 1d3e 6cce 7e3d 71ad 103d 9337 413e
00000150: d5b7 9c3d 36ee f23d 3469 393e cee5 173d
00000160: 84f6 483d bcf2 303e cdd8 903c 1bc2 a73c
00000170: 4d31 703d 2f4f 823d 9949 443d dd4d 2a3d
00000180: e3d5 063e 078b 2e3d fef1 313d 294a a93d
00000190: 34f9 c43d 4455 b13d 21c3 3c3d 657a 363e
000001a0: ac64 c63d d1b6 353e 91e8 063d 91cd 713c
000001b0: 0f3c 3c3d 3fb5 f43c fcf8 463e f519 3e3d
000001c0: 6979 da3c 4d84 3d3d e1be 733d c790 203e
000001d0: 9bc0 8d3d 0c9b 8b3d 4ad2 543d 42e3 773d
000001e0: ed18 433e 7d00 883d 3a32 3f3e f40a 893d
000001f0: b26d 1c3d 45f3 1a3e ad90 3d3e a148 6e3d
00000200: d3fd 883d 9320 a03d c5ec 3d3d 4d23 8f3c
00000210: 7957 163d 466d 773d fc01 b33c fde2 f03c
00000220: 0317 913d dc52 8c3d 77b8 213d 2a71 8a3d
00000230: fc4c d43c 46b6 883d 8d8e 493d 81f5 053d
00000240: 9de6 29bc fc36 8e3d 0306 983d e750 863d
00000250: feb0 ac3d c5e1 8e3d 52d5 7b3c 3fd9 973d
00000260: 0b64 863d a107 273d 3ec3 843d 22a8 973d
00000270: c8b0 243d 9563 963d d91b aa3d 56db 3a3d
00000280: a501 9a3d d1ea 9f3d b7e7 563d 99d3 723d
00000290: e5dc 583d d31d 843d e99b ce3c c235 7c3d
000002a0: 6f98 1b3d 88c1 693d a858 a23d 3fdc 3f3d
000002b0: 63ac 283d 7a4d 833d d051 7f3d adca 323d
000002c0: 12ea 8a3d 0db5 773d 8269 943d 9427 473d
000002d0: 3ac7 673d 7c9c 6c3d 780e 4d3d af62 853d
000002e0: 9e51 ae3d c724 ad3d 3e60 cc3c 6762 933d
000002f0: 2662 913d 8a07 8e3d 351c 853d f99b a63d
00000300: 1666 7f3d 5480 a53d 0c33 863d 6243 9a3d
00000310: 5065 703d 1a2a a03d 30a3 3d3d 1b22 803d
00000320: b813 983d f567 883d 2593 8a3d be25 9d3d
00000330: fb3f 3a3d 9be3 8f3d 735c 543d 3e7c 343d
00000340: c17d 203d e764 a53d 315c 6d3d c6ec a33d
00000350: ffc0 483d 8c43 583d 5520 ab3d 2607 953d
00000360: 9480 153d 03d1 463d c06f 4d3d 5664 7b3d
00000370: f038 923d 977a a83d 6d07 893d 2513 673d
00000380: 3176 913d eafb 103d 63f8 443d 776f 883d
00000390: 859f b43d 2182 ad3d 0085 af3d 38b3 9c3d
000003a0: 8681 ae3d 195b 8a3d 0749 fc3c 54f3 903d
000003b0: 0c8f 873d 473b 993c 6e04 b53d 4f0e a73d
000003c0: bf83 153d 1e3f 9a3d feb5 973d 5fa8 503d
000003d0: b47a 653d 7f7d 8d3d 169a 723d 740f 553d
000003e0: c7ab 893d 3a83 923d 4ca4 943d 9160 743d
000003f0: 22ee 8a3d bf88 923d 6a57 af3d 6ca4 143d
0.17979693 0.06748768 0.14935888 -0.008409628 0.1658454 0.05385868 0.06294941 0.12889312
0.10083903 0.1797028 0.032193836 0.1852809 0.028559787 0.05196118 0.16451359 0.034222893
-0.018765762 0.17483099 0.12286873 0.18085842 0.18545754 0.17795517 0.043975238 0.1842135
0.17525145 0.04005159 0.0699562 0.028315345 0.029507456 0.16556917 0.18941015 0.03551008
0.17514277 0.18537948 0.03690483 0.07530047 0.13774903 0.1552394 0.03863291 0.17764929
0.041100845 0.033713993 0.1873271 0.17341608 0.058753993 0.035561938 0.18032937 0.10543605
0.1885214 0.022926152 0.04098636 0.045945704 0.04295122 0.17422958 0.052488875 0.06272131
0.08334124 0.1603841 0.033840224 0.048839573 0.17570241 0.05920984 0.04484371 0.17785774
0.037147753 0.079653755 0.10942952 0.16465531 0.04204874 0.18373285 0.12780075 0.17491661
0.046049923 0.107918695 0.03994545 0.17454402 0.052173223 0.059702836 0.029699467 0.05580451
0.15429066 0.062208578 0.035321657 0.18868856 0.07652251 0.118618414 0.18106538 0.037084393
0.04906322 0.17280096 0.017681504 0.020478299 0.058640767 0.06362759 0.04792175 0.041578162
0.13167529 0.042613056 0.043443672 0.08266098 0.09617844 0.08658841 0.046084527 0.17820127
0.096871704 0.1774552 0.032936636 0.0147584835 0.045955714 0.029871581 0.19430918 0.046411473
0.026669221 0.04626875 0.05950821 0.15680228 0.06921502 0.06816682 0.05195836 0.060519464
0.19052477 0.06640718 0.18671504 0.06691542 0.03819055 0.15131862 0.1851222 0.058174733
0.06689038 0.07818713 0.04636838 0.017472887 0.036704514 0.060406946 0.021851532 0.029405111
0.07084467 0.06851742 0.03948256 0.067598656 0.025915615 0.06675391 0.049208213 0.032704834
-0.010369924 0.06944081 0.07423022 0.065584 0.08432196 0.06976656 0.015370684 0.07414483
0.065620504 0.04077876 0.06482552 0.07405116 0.040207654 0.073432125 0.08306093 0.04561933
0.07519845 0.078084596 0.052467074 0.059283827 0.052945036 0.06451001 0.025220828 0.061574705
0.03798717 0.05706933 0.07927066 0.046840902 0.041180026 0.06411262 0.06233388 0.043650318
0.067829266 0.060475398 0.072466865 0.04862173 0.05658648 0.057766423 0.050062627 0.06512963
0.08511661 0.0845428 0.024948236 0.07196503 0.070987985 0.06935032 0.06499521 0.08135218
0.062353216 0.08081117 0.06552705 0.075323835 0.05869037 0.0782053 0.046298206 0.06256505
0.07425636 0.06660453 0.06766347 0.076732144 0.045471173 0.07025834 0.05184598 0.0440638
0.03918243 0.08075886 0.05794925 0.08004145 0.04901218 0.052798793 0.08355776 0.07276754
0.036499575 0.048539173 0.0501554 0.061374985 0.07139766 0.08226507 0.066908695 0.056414742
0.07102621 0.035396494 0.048088443 0.06661885 0.088194884 0.08472086 0.085702896 0.07651371
0.085207984 0.06755657 0.03079654 0.07077661 0.06619081 0.018705023 0.088387355 0.08157026
0.036502596 0.0753157 0.07407759 0.05094182 0.056025222 0.06908702 0.05922898 0.05201669
0.06722217 0.07153936 0.072579 0.059662405 0.067837015 0.071549885 0.08561595 0.036289617

regressor.0.weight f4 [32, 128]
00000000: b6c6 f5bc a4bf 693d 5ed0 79be 4646 37be
00000010: 5621 acbc 4fbf 8a3e f537 623d a513 e73c
00000020: 8e13 cb3d 36bd a2bd f6a8 4f3c dad4 04be
00000030: c208 c33d 303f f9bc d25f ae3d d3f9 92bd
00000040: f1a3 9d3d 9091 18bd 2abd f6bc bb7b eabc
00000050: 232e ce3d a21e d93d 6556 cc3c 5e95 e73d
00000060: ce3a cc3d 9e15 82be c16c 4a3e 4e40 71be
00000070: 30b7 883d 34ad 50be 0e8e 17be 68b6 95bd
00000080: e06b e73d 2d95 43be 2344 27be 4c75 bbbc
00000090: 2c9a b93d 3306 203e e58d 993d d9ca dbbd
000000a0: e2c8 5d3e 238c babd 66f8 95bd ac9e b03d
000000b0: 2947 d0bd 3593 083e dfdb 093e 961b de3c
000000c0: f23e 793e 2957 12be 0463 4f3e a4d6 e63c
000000d0: c91f f43d a332 b53d 50a8 533c de3f 1f3e
000000e0: 6144 873e 69fe 103e a569 9d3c 4839 343e
000000f0: 48f7 473d 0764 6cbe cc71 803c b110 1c3e
00000100: 38c0 83be d38b 99bd c066 d93c 5d0a e83a
00000110: 350e e43d b9a7 89be 61d7 8dbd c167 81be
00000120: fb1c 983d f0e4 8bbe de11 333e 8732 2a3e
00000130: fe29 513e 096a f8bd 6874 0bbd 19de 533d
00000140: 20e7 dabd 6203 603e c97d 8ebe 1069 333e
00000150: 67ea 97bd 2535 073d 1315 d23d b9a2 d7bd
00000160: 821c 353e 89f9 d73c 4a4b 2f3d dd7b f3ba
00000170: 9b0d be3d 8c65 3c3e b400 15bd d5f6 3ebc
00000180: 9a61 59be cccb 243e 4222 493d bdf7 7f3d
00000190: 347a 683e 646c 42be ae98 8cbe 5bc7 1f3d
000001a0: cc56 cdbc 72f9 37be 44c1 68bb 33f9 3f3d
000001b0: 03aa 2cbd 4035 8c3e 43e8 683e cb03 49be
000001c0: 3283 02be d53e 2ebe 2162 26be f026 863d
000001d0: aed7 1cbe d722 88be e343 083e 1898 813b
000001e0: 2fff 5e3d 55a4 293c b4ad 65be 304a f9bc
000001f0: 03fc c03d ad2d 983d 05bf d53b aeec 8abd
00000200: d689 183e 13fd cc3d 6de8 ecbc deaa 2bbe
00000210: 6480 4a3c 52d8 c2bd bd62 48be 367c c53d
00000220: 0167 633d 0c02 a7bd a9dc 0cbe 11fd 07be
00000230: b565 1ebe 453f 823c f4bf 37be 3c31 6c3d
00000240: 8f31 d1bc 4bcc 02be 9e4f a03d 7871 233e
00000250: 76d6 0b3e a033 123c f378 883c 0cc9 35be
00000260: 7663 89bd db44 babd 6681 b9bd 95d7 a03d
00000270: 6bae 33be 7f96 14bc b946 cc3c 52b1 43bd
00000280: 5aba 38be dfb8 2f3e 8aa0 123e ca51 c83d
00000290: c315 ca3c c25c 66bc b09a bb3c 0f60 7a3d
000002a0: f0d3 1d3c e5d9 e83d 9ca0 9dbd f1ea 9b3d
000002b0: 9f2c 39be 5fc9 36be 050c 27bd c910 b8bd
000002c0: 2b5a 9fba e56b a63c 05bb 01b9 90ba 82bd
000002d0: c55c 003e 179a 28be 10f7 b13d b456 84bc
000002e0: f7a0 81bd 56ca 073e 3804 213e fd0a 34be
000002f0: a751 3a3e 7cf6 20be 212e 6d3a 8c6a 22bd
00000300: fa47 7e3c 93a5 7bbd db58 283e a2c0 3c3e
00000310: cfe3 5c3c 2d75 00bb b4ec 1a3d f20c 9b3d
00000320: 227b 293e 9cba f5bd 9325 293e 3955 a1bd
00000330: c113 43be ab58 28be 137c c93d fc84 4b3e
00000340: 841b 313e e5ba 273e 0849 483d b889 e4bd
00000350: 2542 c13c 408d 183e 2d83 183e 2366 183e
00000360: 43d0 0a3d 3567 d03c 27fe 94bd 0564 39be
00000370: e013 17bd df3d 3cbe dfdf 13be a639 933d
00000380: 22bc 3f3e 6322 213e 8358 303e 7091 9f3c
00000390: be4e a23c 77c3 003b 9246 cc3c b938 993c
000003a0: 2b49 8e3d 1562 fe3d e2c3 c43d eda7 983d
000003b0: 4868 4f3e 730f cbbc fbd3 0ebe ce0b a13c
000003c0: 33f6 aebd c404 afbd e642 093e 38c2 d4bc
000003d0: 0b1d ddbd 1621 253d 0df0 f9bc 48b7 d7bd
000003e0: 09b1 063e cc3b ec3d 185f 35be f4b7 1dbe
000003f0: 4bdb 22be f34d 44be 515f e2bd fced 87bd
-0.03000198 0.05706753 -0.24395892 -0.17897901 -0.02101199 0.27099082 0.055229146 0.02820761
0.09915839 -0.07946245 0.012674561 -0.12971821 0.09523155 -0.030425638 0.0851437 -0.071765564
0.07697285 -0.037248194 -0.030119497 -0.028623452 0.10067394 0.10601546 0.02494354 0.113077864
0.099721536 -0.25407118 0.19768049 -0.23559687 0.06675565 -0.20378572 -0.14800283 -0.07310182
0.112998724 -0.19099875 -0.16334586 -0.02288308 0.09062609 0.15627365 0.07497767 -0.107320495
0.21658662 -0.0910876 -0.07322769 0.08624014 -0.10169823 0.13337405 0.1346278 0.027112763
0.24340418 -0.14291061 0.20252615 0.02817852 0.11920125 0.08847549 0.012918547 0.15551707
0.26419356 0.1415955 0.019215414 0.17599976 0.04881981 -0.23085032 0.015679263 0.15240742
-0.2573259 -0.074973725 0.026538253 0.0017703284 0.11135522 -0.26885775 -0.06925846 -0.2527447
0.074274026 -0.27323103 0.17487285 0.16620837 0.20426175 -0.121295996 -0.03404656 0.05172548
-0.10688615 0.2187629 -0.2783034 0.17520547 -0.074177556 0.033009667 0.10257926 -0.10529084
0.17686656 0.026364105 0.04279641 -0.0018576343 0.09279939 0.18398112 -0.036377624 -0.011655529
-0.21228638 0.16093367 0.049104936 0.06249212 0.22702867 -0.1898666 -0.27460235 0.03900848
-0.025065802 -0.1796625 -0.0035515586 0.046868514 -0.042154323 0.27384377 0.22744851 -0.19630353
-0.1274536 -0.17016156 -0.1624837 0.065503955 -0.1531665 -0.2658908 0.13307147 0.0039548986
0.05444258 0.010354121 -0.22429544 -0.030430883 0.094230674 0.07430587 0.0065230154 -0.06783424
0.1489633 0.100092076 -0.028919423 -0.167644 0.012359712 -0.09513916 -0.19568916 0.09642832
0.055518154 -0.08154687 -0.1375605 -0.13280131 -0.15468486 0.01589931 -0.17944318 0.05766414
-0.025536327 -0.12773244 0.07827686 0.15961254 0.13656029 0.008923441 0.016659236 -0.17752475
-0.06708424 -0.090951644 -0.09057884 0.07853619 -0.17547004 -0.009069084 0.024936067 -0.047776528
-0.18039837 0.17160366 0.14319053 0.09781225 0.02466858 -0.014060201 0.02290091 0.061126765
0.009633049 0.11369685 -0.076966494 0.07613171 -0.18083428 -0.17850254 -0.040782947 -0.089875765
-0.001215761 0.02031512 -0.00012372069 -0.0638324 0.12535389 -0.1646503 0.086897016 -0.016154625
-0.0632953 0.13260779 0.15724266 -0.17582317 0.1819521 -0.15719026 0.0009047706 -0.039652392
0.01552009 -0.0614372 0.16440146 0.18432859 0.013482048 -0.0019601092 0.037823394 0.075708285
0.16550878 -0.119984835 0.1651824 -0.07877583 -0.19050504 -0.16440074 0.098381184 0.19874948
0.17295653 0.16379888 0.048897773 -0.1115908 0.02359111 0.14897633 0.1489379 0.14882712
0.03389002 0.025439838 -0.07275038 -0.1810456 -0.03688419 -0.18382977 -0.14440869 0.0718873
0.1872411 0.15735774 0.17221265 0.01947853 0.019812938 0.0019647756 0.024935994 0.018703805
0.069475494 0.124210514 0.09607674 0.07453904 0.20254624 -0.02478764 -0.13948052 0.01965895
-0.085430525 -0.08545831 0.13404426 -0.025971517 -0.10796555 0.040314756 -0.030509973 -0.10533005
0.13153471 0.11534843 -0.17712057 -0.15402204 -0.15903966 -0.1917036 -0.110533364 -0.06637189

regressor.0.bias f4 [32]
00000000: deaa b03d 8de0 d4bb 137d 963d eac3 f93d
00000010: a3df f0bb 0000 0000 feb7 e0bb f749 19bb
00000020: 8f2e e9bb a98a 103b 0000 0000 1cfa 623d
00000030: a818 ab3d 0000 0000 b463 363a 15b2 c2bc
00000040: daa3 c8ba 2bd2 afba 99be e3bb 4ded a23d
00000050: 9a26 a33d a7ee 263e 7f29 0c3a 4325 6d3d
00000060: 21ce 6cbc e879 fc3d 485b 3ebc 5c9e c1ba
00000070: 95d0 10bc 774b 5fbb 6fd4 b43d 3956 81bb
0.0862634 -0.006496495 0.07348075 0.12195571 -0.0073508783 0.0 -0.006857871 -0.0023390034
-0.007116146 0.0022055304 0.0 0.055414304 0.08354312 0.0 0.0006957606 -0.023766557
-0.0015307621 -0.0013414075 -0.0069502112 0.07955418 0.07966347 0.16301976 0.00053467596 0.057896864
-0.014453442 0.12327939 -0.011618443 -0.0014771926 -0.008838792 -0.003407208 0.08829581 -0.003947046

regressor.3.weight f4 [8, 32]
00000000: 41b4 01be a211 b3bd 66d4 7e3e 67a5 03bd
00000010: 71d6 4cbe 017b 83be 5e0a adbe ed4d 18be
00000020: a110 c4be 73f5 823e 5861 02be 8ce8 7f3c
00000030: 3bcc 5e3e b9b4 6fbe d118 8ebe d423 ebbd
00000040: e482 f63c 02b9 04be a49b 55be 7462 d73e
00000050: b591 d93e 20c8 563e c87f fc3d a4dd 043d
00000060: 8fcb 25bd 8442 ee3e cd87 87bd 6f90 523e
00000070: 0ae7 2ebe 590c 0abe 4e42 aa3e c1ad 39be
00000080: 6a67 dd3e 5621 1ebe ce86 573d c507 543e
00000090: e562 363d 9071 8abe 9602 c33e a6f1 aebe
000000a0: 9990 a0be 00a7 91be f0cc de3d 49eb b03e
000000b0: 4f1c 0fbe 8613 b63e 33b0 503e 1f65 91be
000000c0: 9c0d 16be 1779 543e a45f 263e 9418 40be
000000d0: 5113 c13e a247 973d 6641 bf3e 6150 d13e
000000e0: f6a3 e8bd 7542 b63e e7f4 8dbe 5de2 523b
000000f0: db37 4cbe 3746 34bd cbfa 353e 6da8 3f3e
00000100: b804 c8bc 536c 42be dcf1 9e3e ebec 4c3e
00000110: ac14 853e cec6 a63e 1cb6 abbd 26ee a43e
00000120: c7e5 77be 39d9 a83d f055 9c3e 6d5d ca3e
00000130: 2829 fe3e 6c7f 94bd ab9b c63e 9f15 6b3b
00000140: 66f7 04be 722d 2fba ea32 81bd 3154 053f
00000150: 7a98 0cbe 21e7 da3d 6f04 993e 1ee2 d73e
00000160: c9e7 b4be f608 20be 5913 443e 4ec4 0b3c
00000170: be33 77be c650 293d a832 1ebe 97f8 b1be
00000180: c46f 053d bc3d 2fbe 8b0f eb3e c675 a73e
00000190: 79a7 bdbe 80db 12bc 7656 b8be b5ad 87bc
000001a0: e576 80be cc6b 7bbe 9a81 bebe de04 d13e
000001b0: e845 8cbd 9cc7 613e 19e3 34be 4ad4 a1be
000001c0: 4117 fb3d e4bf 243c 0c50 f1bd c176 0b3e
000001d0: b63b c13e 7453 873e e0e0 c33e 70b1 8cbd
000001e0: 44e3 b2be 3c3f 40bd 65ea 9cbe 4ad6 e53d
000001f0: 772a 7f3e ad8a 64be f64a a33d 8096 8bbc
00000200: 4628 f53e 6c96 9b3d cd03 50bd 8c5f 30be
00000210: 688a 243e a360 b7be e760 683e f2de 66be
00000220: b45c 003e d25d c03e 00b0 c038 4bc2 e03e
00000230: d60f dc3d 1a98 ad3e c73d 25be 843d a3be
00000240: 4790 74be 6f85 b33e a2d4 bbbe c2e3 203c
00000250: 3edc a3be 0725 87be 9c2e 97be 617c 183e
00000260: 9fbe 813c 52fa 86be 7f0b 703d a325 d7bd
00000270: 2b01 a3be 15d7 56bd 3e13 ad3e 1bf5 f6bd
00000280: a1c2 10be 78e6 abbe 5128 cbbd 548f db3e
00000290: f255 9cbe 90b4 a73e b3e9 a03e 5616 973e
000002a0: b1c9 bfbe 8316 72be 04ac 09be 4499 0b3e
000002b0: 070d d23d 3492 8e3d 30ed 9abe b01c 653e
000002c0: 7f42 6f3c d985 243e ad88 94be 2d7c 4fbe
000002d0: 979e d23d 1e70 983e 5df0 07be a638 943e
000002e0: b714 243e 71a5 2f3e 6cb6 833e 4ed9 e5bc
000002f0: 4071 873e 922e d33d e79a 29bd b00e 083e
00000300: fc73 a83e 48c5 aabc ee0b 56bc a30a 0abe
00000310: d626 dbbd d52a 8abe d93f 873d f2ec 7fbe
00000320: fa14 bcbe a981 c2be 9067 1c3e 5143 74be
00000330: 4303 da3d 8c7f 6b3e 95e9 4b3e 1c4e 40be
00000340: 4782 a63e 848d 8a3d c91a 9d3e 895e b43e
00000350: 8200 8f3e 0e30 003e f06d af3e bad1 8e3d
00000360: 8ab0 733e cd9d d03e e6fc 4dbe cdd8 bb3e
00000370: b002 86bd db99 86be f2b5 e43e eb05 0f3e
00000380: 698c c03e e386 91be a7c1 bf3e 6238 853e
00000390: e93d 473e a056 6d3e 6ad2 89bd 3c17 393e
000003a0: 375e 5ebe f050 bd3b 3a5c c43e a508 a73e
000003b0: 10a0 f03e 78fe 643e f001 253e 650f c53e
000003c0: cbcb 80be e2c2 243e dc69 3e3e 446a f93d
000003d0: b3e7 1a3e 5165 c43c 73d7 54be b902 d03e
000003e0: b866 433e 22ad c8bd c6a2 9abe f0ff 5cbe
000003f0: f40a 353e de9c 49be bff5 d9bd 22d3 85be
-0.12666418 -0.087435976 0.24885711 -0.03214016 -0.20003678 -0.25679782 -0.33796972 -0.14873476
-0.38293937 0.25577888 -0.12732446 0.015619408 0.21757595 -0.23408784 -0.27753308 -0.11481443
0.03009171 -0.129612 -0.20860153 0.420673 0.42493978 0.20974779 0.1232906 0.032437935
-0.04047733 0.46535122 -0.06617699 0.2056291 -0.17080322 -0.13481273 0.3325371 -0.18132688
0.4324296 -0.15442404 0.052618794 0.20706089 0.044527907 -0.27039766 0.3808791 -0.34168738
-0.3136032 -0.28447723 0.108789325 0.34554508 -0.13975643 0.3556177 0.20379715 -0.28397462
-0.14653629 0.20749317 0.16247422 -0.18759376 0.3771005 0.0738671 0.37354583 0.40881637
-0.11359398 0.35597578 -0.27725908 0.003217838 -0.19943182 -0.044012275 0.17771451 0.18716593
-0.024416313 -0.18986635 0.310439 0.20012252 0.25992334 0.3257355 -0.08384344 0.32212943
-0.24208747 0.08244557 0.30534315 0.39524403 0.49640775 -0.07250866 0.3879064 0.0035871041
-0.12985 -0.0006682492 -0.06308539 0.5208159 -0.1373004 0.106886156 0.29886195 0.421647
-0.35333088 -0.15628418 0.19148006 0.008530689 -0.24140832 0.041336797 -0.15449011 -0.34759971
0.03257729 -0.17113394 0.45910296 0.32707042 -0.37041834 -0.008963466 -0.36003464 -0.016562322
-0.2509071 -0.2455284 -0.37208253 0.40824026 -0.06849271 0.22048801 -0.17664756 -0.31607276
0.12260295 0.010055516 -0.11782846 0.1361952 0.37740868 0.26430857 0.38257504 -0.06869781
-0.34939015 -0.046935305 -0.3064758 0.11222513 0.24918543 -0.22318526 0.07973282 -0.017039537
0.4788229 0.0759705 -0.050784875 -0.17223948 0.16068423 -0.35815915 0.22693215 -0.22545984
0.12535363 0.3757158 9.188056e-05 0.43898234 0.10745208 0.33905107 -0.16136847 -0.3188287
-0.23883162 0.3506274 -0.36685663 0.009819927 -0.3200397 -0.26395437 -0.29527748 0.14891197
0.015837966 -0.26362854 0.058604714 -0.105052255 -0.3183683 -0.052451212 0.33803743 -0.12058469
-0.14136745 -0.3357427 -0.09919799 0.42882788 -0.3053432 0.32754946 0.31428298 0.29509228
-0.37458566 -0.236414 -0.13444525 0.13632685 0.10256391 0.0696148 -0.30259085 0.22374225
0.014603256 0.16066684 -0.29010525 -0.20262213 0.10284155 0.2977304 -0.13275285 0.2894947
0.16023527 0.17152955 0.25725114 -0.02805772 0.2645359 0.10311617 -0.041407492 0.13286853
0.3290099 -0.020846024 -0.013064368 -0.1348062 -0.10700767 -0.26985803 0.06603975 -0.24992731
-0.36734754 -0.37989548 0.15273881 -0.23853804 0.106451534 0.22997874 0.19913323 -0.18779796
0.3252127 0.06765273 0.30684498 0.35228375 0.27930075 0.12518331 0.34263563 0.06973596
0.23797813 0.40745392 -0.20116004 0.36688843 -0.06543481 -0.26289257 0.44670063 0.13967101
0.37607124 -0.28423223 0.37452433 0.2601958 0.1945721 0.23177576 -0.067295864 0.1807527
-0.21715628 0.005777471 0.38351613 0.32623783 0.46997118 0.22362697 0.1611402 0.38488308
-0.25155482 0.16089967 0.1859507 0.12178472 0.15127449 0.023974093 -0.20785312 0.40627077
0.19082153 -0.097986475 -0.3020231 -0.21582007 0.1767996 -0.19688746 -0.106425755 -0.26137644

regressor.3.bias f4 [8]
00000000: 1cb1 563e 3072 873e 4059 903e c529 8b3e
00000010: 4187 893e 15cd 9a3e b155 853e 7d71 823e
0.20966 0.26454306 0.28193092 0.27180305 0.26861003 0.3023459 0.2604194 0.2547721

regressor.6.weight f4 [1, 8]
00000000: 9af8 dc3e e71e f03e 170a d33e 2398 de3e
00000010: f44e c13f fc24 223f 8794 143f b5e6 d03e
0.43158418 0.46898577 0.41218635 0.43475446 1.510222 0.63337684 0.58039135 0.40801015
