checkpoints/bpm_regressor.pt (torch, 954447 bytes, 17 tensors)

conv1d.0.weight f4 [64, 7, 3]
0.7363516 0.16528538 -0.11510433 -0.02901498 0.035192233 0.17376289 -0.46096644 -0.051950783
0.05419341 -0.31134003 -0.023262357 -0.06650619 -0.3064567 0.3545349 -0.4973238 -0.0066687795
0.39038476 0.3615697 -0.4072259 -0.09514419 -0.1467122 -0.13758065 0.15862271 0.27643588
0.047639832 -0.07462214 0.48626024 -0.16248412 -0.5591752 -0.46566522 -0.33980647 0.14160496
-0.4233741 -0.45493057 -0.17764929 -0.59372455 -0.08162526 0.14573033 -0.17317232 0.45707664
0.18376961 0.24592479 0.18486929 0.30123547 0.07133915 -0.41421372 0.23796012 -0.055402774
0.0058051078 -0.32513884 -0.022784188 0.303082 -0.11984481 -0.18325794 0.106972866 0.020278668
-0.011271164 -0.15570314 -0.28039283 -0.0046437085 -0.1366287 0.37670252 0.15921995 0.31241024
-0.04160087 0.041748833 -0.2111636 -0.4001497 0.09851865 -0.40007922 0.20812872 -0.0822319
-0.37115434 -0.27494434 0.10928956 -0.6840493 -0.09914471 -0.21926174 -0.09713909 -0.41077074
-0.057390198 -0.29664093 -0.03750528 -0.28008398 0.039588314 -0.5602935 0.27734974 -0.2480353
-0.40770435 -0.23024563 -0.100510724 0.002650186 0.14912252 -0.1733712 -0.3897944 0.65410775
-0.12147057 0.47017163 -0.021006698 0.07569092 0.16194715 -0.92221344 0.021607496 -0.10132845
0.4291601 -0.064634964 -0.2329427 0.14121968 0.11341623 -0.4381173 -0.61019444 0.011858774
-0.011022457 -0.13470499 0.1220675 -0.1997734 0.013449612 0.00928929 -0.2953754 -0.08203441
0.38329217 -0.26142898 0.44697163 0.22540928 -0.2883068 0.6602714 0.19627047 -0.25357527
-0.0887616 0.14050862 0.2307844 0.051906794 0.38398042 -0.29084888 0.044147108 0.010059538
0.056499906 0.102730095 -0.05435752 -0.8830753 -0.15028802 -0.1796452 -0.43233746 0.36131385
0.31041613 0.006074317 -0.44448018 0.32403323 -0.122313246 -0.2851468 -0.013012774 0.1036933
0.31574124 -0.06123401 0.048532683 0.067212895 -0.14945135 0.039064817 -0.04491255 -0.19476403
0.39683458 0.09699395 -0.19971101 0.34627587 0.15081161 0.009876102 -0.5174411 -0.1446592
0.19262373 0.753946 -0.6824259 -0.36757898 0.041119806 0.035682127 0.06181495 -0.427569
-0.09192434 -0.30388 0.4159063 0.06478931 0.14173563 -0.40584973 -0.063160256 0.22190464
-0.16005951 0.11342529 -0.7819516 -0.024478583 0.69653535 -0.017091498 -0.13535222 -0.047119636
-0.6191206 0.7061024 0.2818146 0.4080195 0.24011324 0.24762248 -0.54667014 0.1643095
0.1908123 0.47448206 0.34793058 0.2279839 -0.31436414 0.3584805 0.10824011 0.3080305
0.55190086 -0.17382543 0.46927807 -0.1554486 0.030405203 -0.11805524 0.6656183 -0.32835194
0.060492676 0.294776 0.31828654 -0.14730787 0.26766846 0.11682219 0.10532352 -0.15179668
0.2433644 0.08746113 -0.12814704 -0.53323966 -0.3153332 0.06158673 -0.060804587 0.17567442
0.04131765 -0.0051610824 0.46739656 -0.30919382 0.28062618 -0.13004452 -0.25054765 0.23204048
-0.019502943 0.13326533 0.19273156 0.40757754 0.264136 0.3196944 -0.07769995 -0.106611356
0.008361673 0.14167747 -0.2591521 -0.65736824 -0.45991865 0.5313118 0.050528955 0.22205797
00000000: 8a81 3c3f 9240 293e d2bb ebbd d3b0 edbc
00000010: bb25 103d e6ee 313e cb03 ecbe 58ca 54bd
00000020: e9f9 5d3d f667 9fbe b390 bebc 6634 88bd
00000030: e5e7 9cbe 9985 b53e 3aa1 febe c785 dabb
00000040: 83e0 c73e aa1f b93e ea7f d0be f5da c2bd
00000050: b93b 16be f1e1 0cbe fe6d 223e 0189 8d3e
00000060: fc21 433d 7ed3 98bd 1af7 f83e 3d62 26be
00000070: 1b26 0fbf ac6b eebe 1dfb adbe e400 113e
00000080: 7dc4 d8be a9ec e8be b2e9 35be 55fe 17bf
00000090: 252b a7bd 553a 153e 1654 31be f305 ea3e
000000a0: 1a2e 3c3e b5d3 7b3e 604e 3d3e 893b 9a3e
000000b0: 431a 923d d213 d4be d1ab 733e 05ee 62bd
000000c0: c638 be3b 9978 a6be e8a5 babc 902d 9b3e
000000d0: 3271 f5bd f8a7 3bbe 9714 db3d 731f a63c
000000e0: b0aa 38bc a570 1fbe a68f 8fbe 402a 98bb
000000f0: 65e8 0bbe 27df c03e 8e0a 233e 3cf4 9f3e
00000100: ad65 2abd d300 2b3d 453b 58be 6ce0 ccbe
00000110: 25c4 c93d 2fd7 ccbe b21f 553e 3369 a8bd
00000120: f107 bebe 81c5 8cbe 34d3 df3d db1d 2fbf
00000130: 620c cbbd 2686 60be dcf0 c6bd 8b50 d2be
00000140: fc11 6bbd 52e1 97be 239f 19bd 2b67 8fbe
00000150: 5b27 223d 656f 0fbf c900 8e3e f7fc 7dbe
00000160: a0be d0be 83c5 6bbe 91d8 cdbd beae 2d3b
00000170: 93b3 183e 3888 31be 2293 c7be 9b73 273f
00000180: 90c5 f8bd 56ba f03e 3d16 acbc d703 9b3d
00000190: 79d5 253e 2e16 6cbf 3402 b13c 4a85 cfbd
000001a0: dfba db3e 565f 84bd 8888 6ebe e49b 103e
000001b0: c546 e83d e950 e0be b435 1cbf 4e4b 423c
000001c0: 8997 34bc 1bf0 09be 87fe f93d 6691 4cbe
000001d0: c35b 5c3c 1b32 183c 723b 97be a801 a8bd
000001e0: df3e c43e 05da 85be 77d9 e43e b1d1 663e
000001f0: f39c 93be 8c07 293f 20fb 483e 9ed4 81be
00000200: a4c8 b5bd 7ee1 0f3e bf52 6c3e 389c 543d
00000210: 1599 c43e 25ea 94be 99d3 343d c3d0 243c
00000220: 726c 673d 2864 d23d fea5 5ebd 3911 62bf
00000230: 1ae5 19be e9f4 37be 565b ddbe 21fe b83e
00000240: ddee 9e3e 100b c73b e892 e3be afe7 a53e
00000250: 5e7f fabd c3fe 91be 8833 55bc 275d d43d
00000260: d6a8 a13e 83d0 7abd 35ca 463d eaa6 893d
00000270: c609 19be 6e02 203d 39f6 37bd 3970 47be
00000280: e72d cb3e c4a4 c63d 0b81 4cbe 124b b13e
00000290: 5c6e 1a3e 60cf 213c 0577 04bf 8b21 14be
000002a0: 283f 453e 9b02 413f 77b3 2ebf 5033 bcbe
000002b0: 3e6d 283d 6c27 123d ac31 7d3d 53ea dabe
000002c0: d442 bcbd 2996 9bbe acf1 d43e 42b0 843d
000002d0: 2523 113e 89cb cfbe 2a5a 81bd f83a 633e
000002e0: a4e6 23be 854b e83d fb2d 48bf 4f87 c8bc
000002f0: 2450 323f 7803 8cbc c699 0abe 8500 41bd
00000300: b07e 1ebf 20c3 343f 014a 903e efe7 d03e
00000310: 3fe0 753e bf90 7d3e 93f2 0bbf c040 283e
00000320: 4d64 433e 50ef f23e f523 b23e 9d74 693e
00000330: 56f4 a0be c28a b73e feac dd3d 2cb6 9d3e
00000340: 6049 0d3f 4bff 31be 3745 f03e eb2d 1fbe
00000350: 5514 f93c f2c6 f1bd f665 2a3f bf1d a8be
00000360: 2bc7 773d e1ec 963e 74f6 a23e e0d7 16be
00000370: d70b 893e 7940 ef3d dcb3 d73d 9770 1bbe
00000380: 8434 793e d21e b33d fa38 03be 6582 08bf
00000390: 5a73 a1be 5e42 7c3d 3b0e 79bd ffe3 333e
000003a0: b23c 293d 4c1e a9bb 9a4e ef3e a74e 9ebe
000003b0: 3cae 8f3e 642a 05be c847 80be 059c 6d3e
000003c0: a3c4 9fbc b576 083e 6c5b 453e 01ae d03e
000003d0: d53c 873e fcae a33e 2721 9fbd 0e57 dabd
000003e0: 66ff 083c e613 113e 96af 84be 4949 28bf
000003f0: 757a ebbe 0d04 083f 73f7 4e3d 2a63 633e

conv1d.0.bias f4 [64]
0.0024186461 -0.034172073 0.008723189 -0.016719565 0.000716712 0.013484351 0.007584982 0.021477645
-0.009431617 -0.00066914276 -0.010897691 -0.012723249 -0.0095746 0.0123925945 -0.021345375 -0.003564288
-0.013794661 0.001535758 0.017895466 -0.013322514 -0.00054734014 -0.019690672 0.019835975 0.006264404
0.015588831 0.0046242834 0.051698945 -0.011430777 -0.031003127 0.017488964 -0.0071608913 0.013541273
-0.007046944 -0.011397892 -0.0074780127 -0.0011849424 -0.008056406 0.0020370437 -0.0055014454 -0.0057221567
0.032331914 0.0070910626 0.0015324774 -0.0005630698 -0.016210224 0.002657096 0.012851157 0.025995383
-0.02320405 0.0075424365 -0.023871168 -0.03818669 -0.0036029513 0.004114714 0.008351004 0.00088764296
-0.00083961483 0.014740289 -0.006801144 -0.014873254 -0.033691738 0.0017017061 -0.0011341788 0.020047145
00000000: 2682 1e3b 04f8 0bbd b5eb 0e3c 78f7 88bc
00000010: bae1 3b3a 78ed 5c3c 718b f83b e3f1 af3c
00000020: 1287 1abc 6969 2fba 3b8c 32bc 2d75 50bc
00000030: c8de 1cbc 4f0a 4b3c 7fdc aebc d496 69bb
00000040: 0003 62bc 7d4b c93a 8399 923c ac46 5abc
00000050: 607b 0fba 554e a1bc 0e7f a23c a145 cd3b
00000060: 4c68 7f3c 4d87 973b 46c2 533d 2748 3bbc
00000070: 45fa fdbc 0445 8f3c e9a5 eabb 37dc 5d3c
00000080: 0dea e6bb 39be 3abc 1e0a f5bb 1250 9bba
00000090: 04ff 03bc ec7f 053b 7845 b4bb ee80 bbbb
000000a0: 786e 043d 255c e83b 69dd c83a fa9a 13ba
000000b0: 4ecb 84bc ac22 2e3b a98d 523c 45f4 d43c
000000c0: 6b16 bebc 8b26 f73b 788d c3bc a669 1cbd
000000d0: 7e1f 6cbb b9d4 863b a6d2 083c b6b0 683a
000000e0: 9919 5cba 4181 713c 22dc debb f3ae 73bc
000000f0: 5900 0abd c80b df3a baa8 94ba e939 a43c

conv1d.4.weight f4 [64]
1.0051148 1.0077673 1.0039966 0.9977979 1.0172749 1.0130676 1.0189708 1.0031381
1.0161378 1.010712 0.9986797 1.007452 1.0056471 0.9968904 1.002824 1.0101564
1.0161115 1.01079 1.0062438 1.0036995 1.0092074 1.0057191 1.012783 1.0073769
1.0035188 1.0049176 1.0025549 1.002161 1.0026073 1.0139136 1.0232877 1.0126753
0.99905723 1.0038264 1.0100917 1.013527 1.0002877 1.011097 1.0055021 1.0154209
1.0111679 1.015602 1.0014836 1.034043 1.0100473 1.0058532 0.99866503 1.0050174
1.0116143 1.0039191 1.0068791 1.0109831 1.0109494 1.0084925 1.0213122 1.0236349
1.0078115 1.008556 0.9928236 1.0086718 0.9950052 1.004679 1.0142373 1.0016966
00000000: 9aa7 803f 85fe 803f f682 803f af6f 7f3f
00000010: 1036 823f 33ac 813f a36d 823f d466 803f
00000020: ce10 823f 035f 813f 79a9 7f3f 30f4 803f
00000030: 0bb9 803f 3634 7f3f 895c 803f ce4c 813f
00000040: f10f 823f 9161 813f 99cc 803f 3a79 803f
00000050: b52d 813f 67bb 803f e0a2 813f baf1 803f
00000060: 4e73 803f 24a1 803f b853 803f d046 803f
00000070: 7055 803f ecc7 813f 17fb 823f 589f 813f
00000080: 37c2 7f3f 627d 803f af4a 813f 41bb 813f
00000090: 6d09 803f a06b 813f 4bb4 803f 50f9 813f
000000a0: f36d 813f 3fff 813f 9d30 803f 855b 843f
000000b0: 3b49 813f ccbf 803f 83a8 7f3f 69a4 803f
000000c0: 947c 813f 6c80 803f 6ae1 803f e567 813f
000000d0: ca66 813f 4816 813f 5cba 823f 7806 833f
000000e0: f8ff 803f 5d18 813f b029 7e3f 281c 813f
000000f0: a9b8 7e3f 5299 803f 87d2 813f 9837 803f

conv1d.4.bias f4 [64]
-0.004856451 -0.006131139 0.0017176617 0.0011812808 0.0061263223 -0.004734811 -0.004187621 -0.0031774677
-0.0051830527 -0.00712754 0.0042602783 -0.0025680538 -0.004427159 0.0017226444 -0.0014217658 -0.008718735
-0.0063611595 0.0056891916 -0.0033464874 0.0042134426 0.008805391 -0.004917736 -0.010400977 -0.0034230088
-0.0026891264 -0.0014456982 -0.00064082054 -0.0049102665 0.0007811331 0.008526047 -0.0017797485 0.0029464827
0.002598088 -0.005590337 -0.00938954 0.008018438 -0.0002697738 0.004856928 -0.0036784774 0.0026020934
-0.007200299 0.0040625455 -0.0021604123 -0.0068256324 -0.008352576 -0.0001226918 0.0017957739 -0.0037613928
0.0012204822 0.005700681 -0.0056208004 -0.010805144 0.007083007 0.0027599246 0.011495286 0.0030451473
-0.007390676 0.0069285245 -0.007343879 0.002775622 0.0015441999 -0.0056802924 0.0020310597 0.0053123753
00000000: dd22 9fbb b9e7 c8bb 2a23 e13a 35d5 9a3a
00000010: 51bf c83b 7926 9bbb 5038 89bb 103d 50bb
00000020: 99d6 a9bb 248e e9bb ce99 8b3b cb4c 28bb
00000030: b411 91bb 5bca e13a 8b5a baba 06d9 0ebc
00000040: 4671 d0bb 666c ba3b be50 5bbb eb10 8a3b
00000050: 7d44 103c f624 a1bb dc68 2abc 8f54 60bb
00000060: 0e3c 30bb 957d bdba bdfc 27ba 4de6 a0bb
00000070: f4c4 4c3a d5b0 0b3c 7346 e9ba c719 413b
00000080: af44 2a3b 252f b7bb 96d6 19bc c45f 033c
00000090: 6d70 8db9 dd26 9f3b 9c12 71bb e287 2a3b
000000a0: 7cf0 ebbb 1a1f 853b b495 0dbb 8ea9 dfbb
000000b0: 3ed9 08bc d4a6 00b9 2c60 eb3a b381 76bb
000000c0: 96f8 9f3a c7cc ba3b b12e b8bb 0f08 31bc
000000d0: 9218 e83b dadf 343b b956 3c3c 1891 473b
000000e0: 7c2d f2bb ad08 e33b eca4 f0bb 36e7 353b
000000f0: c066 ca3a bf21 babb 871b 053b 6f13 ae3b

lstm.weight_ih_l0 f4 [512, 64]
0.018178519 0.047079757 -0.0006883094 -0.08420984 0.08813313 -0.02996205 0.0040704273 -0.009109957
0.05706578 0.048435442 0.10676124 0.03788537 -0.063464135 -0.02081306 -0.02985061 0.08452654
-0.10725317 0.057347585 -0.030077988 0.061957162 -0.01880587 -0.041756418 0.0054560453 -0.08466819
0.019973045 0.010625144 -0.07783122 -0.07225441 -0.040924296 0.07310397 -0.0878772 0.037368793
-0.024531327 -0.013748513 0.00028880933 0.06970167 -0.105800934 -0.03997051 0.0005950194 -0.10743636
0.022190407 0.006491391 -0.029837323 0.020437796 -0.03653969 0.04576772 -0.004493814 -0.042016268
-0.100127764 -0.04996156 0.003561701 -0.025528988 -0.0788539 0.049428955 -0.016056104 0.037560273
-0.094362356 0.05012719 0.03460577 0.013210596 -0.060768213 0.09197657 -0.044348232 0.083333924
0.037964057 -0.016108928 0.09157566 0.066115126 0.0150674805 -0.03628544 -0.03388847 -0.085241236
-0.08672781 -0.0034182093 0.006864326 0.09138776 0.060001526 -0.07849566 -0.010973125 -0.02945243
-0.020120729 0.08171689 -0.054146323 0.1008951 -0.0740944 0.06198284 -0.015910674 0.07410416
0.009366478 -0.036505442 0.0832065 0.08809521 0.023225557 0.04682917 0.07306636 -0.065205224
0.08755184 -0.04847655 -0.073195346 -0.0912197 0.066462606 0.022426972 0.0366654 0.024347316
-0.039133362 -0.01689898 -0.0031128388 -0.0698403 -0.030678965 0.05064996 0.09740809 0.055122573
0.0013063506 0.10008807 0.058676258 -0.078057975 -0.04126812 -0.03240276 -0.053283453 0.046895247
0.037666414 -0.08941633 -0.013105575 0.03889338 0.017412582 -0.044723436 0.08754543 -0.02385287
0.011169367 0.0011955164 -0.098358355 -0.026362175 0.0829567 -0.051024023 -0.08608594 -0.0883414
0.004926476 0.020342289 0.063586876 0.08908894 0.05904221 0.08702399 0.015372688 -0.025767729
0.050163183 0.0791226 -0.014406393 0.086960495 -0.011479054 -0.09380878 0.02813716 -0.028439254
-0.024981601 -0.029621024 -0.0048144385 0.0040336726 0.06661929 0.06400053 -0.055303715 0.025245091
-0.05163855 -0.018591084 -0.087869376 -0.067979895 -0.07104126 0.09597249 0.00087594934 0.07217524
-0.055003792 -0.06591738 0.028104495 -0.0061832946 0.04028223 0.008700568 0.094383135 0.07996419
0.0014455795 -0.0037521943 0.06419873 0.025878748 -0.045415644 0.026511839 -0.06679196 0.010482077
-0.08610132 -0.005658054 -0.06212531 0.082030065 0.093814865 -0.07952707 0.025389915 0.072553955
-0.050230566 0.05007137 0.09168316 -0.10691641 -0.037277438 -0.026212309 0.0562709 -0.07333562
0.06478246 -0.09071295 0.023236861 0.09821981 0.0086414395 0.0046141213 0.07311824 -0.010080118
0.08148911 0.037226796 -0.077244535 -0.06291057 0.0042575975 0.020439168 -0.047355648 -0.05803773
-0.029134156 0.062612295 -0.021385303 0.05519348 -0.023034183 -0.0832506 -0.048997283 0.08085761
0.0427134 -0.099158436 0.013676655 -0.016367594 0.0021894323 -0.066641636 0.018561441 0.03777219
-0.06787051 0.05008039 -0.005886782 0.06887637 -0.0996418 -0.00466502 0.032807518 0.028694946
-0.074190184 -0.037190482 0.057442766 -0.018839736 -0.012497278 0.060277484 -0.080490746 -0.0026123335
0.09344825 0.0011748631 0.04253541 0.038326647 -0.048609715 -0.08987952 0.008115914 -0.036289673
00000000: 1eeb 943c b4d6 403d a96f 34ba 3576 acbd
00000010: 247f b43d f972 f5bc 3861 853b ee41 15bc
00000020: cfbd 693d 3e64 463d a3a5 da3d b12d 1b3d
00000030: 7cf9 81bd 2780 aabc 4489 f4bc 401c ad3d
00000040: 8da7 dbbd 4de5 6a3d 1d66 f6bc cbc6 7d3d
00000050: c50e 9abc c708 2bbd a0c8 b23b 8466 adbd
00000060: 839e a33c 1515 2e3c fa65 9fbd 1ffa 93bd
00000070: 3ca0 27bd 89b7 953d f6f8 b3bd 0510 193d
00000080: ecf5 c8bc 7141 61bc 556b 9739 c0bf 8e3d
00000090: 29ae d8bd 1eb8 23bd 13fb 1b3a 9807 dcbd
000000a0: a8c8 b53c bcb5 d43b 676d f4bc 2a6d a73c
000000b0: a4aa 15bd ef76 3b3d d840 93bb 4019 2cbd
000000c0: c90f cdbd 7ea4 4cbd 6d6b 693b 2b22 d1bc
000000d0: 277e a1bd 0476 4a3d 1788 83bc cdd8 193d
000000e0: 0d41 c1bd 2b52 4d3d c8be 0d3d 4171 583c
000000f0: 17e8 78bd 365e bc3d 7ea6 35bd faaa aa3d
00000100: 3380 1b3d dff6 83bc 058c bb3d 5e67 873d
00000110: 98dd 763c 0ba0 14bd a3ce 0abd f592 aebd
00000120: 5a9e b1bd 0904 60bb 24ee e03b 8229 bb3d
00000130: 29c4 753d 55c2 a0bd 9fc8 33bc 3946 f1bc
00000140: 3ad4 a4bc 2f5b a73d 89c8 5dbd 17a2 ce3d
00000150: cebe 97bd b8e1 7d3d 1a57 82bc ecc3 973d
00000160: db75 193c bb86 15bd 2b68 aa3d 436b b43d
00000170: 8643 be3c f2cf 3f3d d1a3 953d 518a 85bd
00000180: 614e b33d 598f 46bd 71e7 95bd 65d1 babd
00000190: 8c1d 883d c5b8 b73c 752e 163d 0674 c73c
000001a0: 4e4a 20bd bb6f 8abc c500 4cbb 6e08 8fbd
000001b0: 7452 fbbc 5576 4f3d e57d c73d 35c8 613d
000001c0: da39 ab3a f9fa cc3d 8456 703d dcdc 9fbd
000001d0: c308 29bd c2b8 04bd c03f 5abd 3b15 403d
000001e0: 1948 1a3d e91f b7bd c4b8 56bc aa4e 1f3d
000001f0: d5a4 8e3c ec2f 37bd 054b b33d 1867 c3bc
00000200: b8ff 363c e0b2 9c3a 1b70 c9bd 7df5 d7bc
00000210: 34e5 a93d 91fe 50bd d34d b0bd 56ec b4bd
00000220: 476e a13b dfa4 a63c d639 823d 4374 b63d
00000230: 3fd6 713d a239 b23d badd 7b3c d816 d3bc
00000240: e977 4d3d 080b a23d cb08 6cbc 5818 b23d
00000250: a412 3cbc d11e c0bd e77f e63c 70f9 e8bc
00000260: 37a6 ccbc caa7 f2bc 70c2 9dbb e62c 843b
00000270: b26f 883d b612 833d 2686 62bd cbce ce3c
00000280: f282 53bd 544c 98bc dcf4 b3bd 0b39 8bbd
00000290: 157e 91bd 3a8d c43d f79f 653a 9dd0 933d
000002a0: a84b 61bd b1ff 86bd 663b e63c 3c9d cabb
000002b0: fbfe 243d d48c 0e3c f24b c13d 44c4 a33d
000002c0: 9979 bd3a 60e7 75bb a07a 833d abff d33c
000002d0: c105 3abd 5b2f d93c 39ca 88bd 04bd 2b3c
000002e0: e455 b0bd 3267 b9bb 1c77 7ebd 61ff a73d
000002f0: 0222 c03d 17df a2bd 83fe cf3c 2b97 943d
00000300: 91be 4dbd a317 4d3d 61c4 bb3d fef6 dabd
00000310: 3ab0 18bd 32bb d6bc 517c 663d fc30 96bd
00000320: abac 843d b6c7 b9bd 3b5b be3c 7827 c93d
00000330: d394 0d3c 0e32 973b 04bf 953d 1427 25bc
00000340: c3e3 a63d 207b 183d 6232 9ebd 42d7 80bd
00000350: 5183 8b3b 0b70 a73c fff7 41bd f9b8 6dbd
00000360: c1aa eebc e03a 803d 3b30 afbc 8f12 623d
00000370: 2fb2 bcbc 4a7f aabd 60b1 48bd ad98 a53d
00000380: 3ff4 2e3d 9413 cbbd 0c14 603c 5515 86bc
00000390: 947c 0f3b 697b 88bd 2a0e 983c 03b7 1a3d
000003a0: b2ff 8abd 1821 4d3d e8e5 c0bb 0e0f 8d3d
000003b0: 0011 ccbd 06dd 98bb 2d61 063d aa11 eb3c
000003c0: 06f1 97bd 0c55 18bd 1b49 6b3d ca55 9abc
000003d0: 62c1 4cbc 86e5 763d 55d8 a4bd af33 2bbb
000003e0: cc61 bf3d ddfd 993a 9c39 2e3d 67fc 1c3d
000003f0: fb1a 47bd c112 b8bd 9cf8 043c 7ba4 14bd

lstm.weight_hh_l0 f4 [512, 128]
0.034717612 0.0021527875 -0.08268866 -0.050755076 -0.014095506 0.089467004 0.011074415 0.09312063
-0.028697776 0.053816915 -0.01898878 0.083866514 -0.062309712 0.061456647 -0.07493412 -0.08784271
0.050977305 -0.047797203 0.067819886 -0.05328293 -0.031780217 0.07953073 0.089268744 -0.071466945
-0.0928054 0.04117882 -0.035192546 -0.07294527 0.08640752 -0.003026273 -0.052348733 0.045404498
-0.029317403 0.00080269185 -0.05700985 0.012126066 -0.052211247 0.0034769098 -0.082336456 0.049250726
-0.029101325 -0.018442344 0.0064149257 -0.015249119 0.10330899 0.01757056 -0.018680263 -0.06966216
-0.08832568 -0.06340604 -0.00823013 -0.04357981 -0.023791226 -0.0752658 -0.07095708 -0.06104509
0.0004454237 0.029866446 0.10177307 0.064467385 0.016309999 -0.020096935 -0.058682527 0.029293016
-0.05025377 -0.03943128 0.057984684 0.06524811 0.0539726 -0.06925356 -0.053105872 -0.0741136
0.079775505 -0.057212494 -0.0816824 -0.08970303 0.04616976 0.055303235 0.041998148 -0.0007259994
-0.05395221 0.013145252 0.06460674 -0.010233207 -0.0056808563 0.022489002 0.052030638 -0.035525758
-0.029579105 -0.09440306 0.03090691 -0.053036258 -0.00028706182 -0.013446791 -0.08293747 -0.03398826
0.03590678 0.04720492 0.070541985 -0.068781 0.048396204 0.08751207 0.031779464 -0.059260264
0.04480586 -0.07515302 -0.01334641 0.0053327233 -0.09444575 0.062111367 -0.024956223 -0.02978662
0.04190276 -0.018934108 -0.040716033 0.06937567 -0.0642422 0.048679136 0.05733364 -0.022127105
0.06974315 0.03240025 0.06299935 0.07749129 0.08633289 -0.006351287 0.06866777 0.000483066
-0.050463766 -0.049022302 -0.060845815 0.047135264 -0.009782462 -0.02151241 -0.05851413 -0.049796138
-0.011781436 -0.0022072918 0.0053703757 -0.02088952 -0.08606298 0.06564645 -0.02231206 -0.005791559
0.055989742 0.08987715 0.10006694 -0.08887123 -0.009788954 0.06522253 0.074582316 0.062954925
0.056954417 0.03403371 0.07767526 -0.09300181 -0.042266984 0.024664141 -0.06771221 0.094952546
-0.06786739 0.024672957 0.09224082 0.039934482 -0.017305288 0.042811118 0.069772184 0.07682183
-0.04629023 -0.0028517344 0.026724735 -0.032836653 0.100920044 0.049359094 -0.02275116 0.035328027
0.09487844 -0.033656973 0.08072469 0.08936175 -0.08315979 0.019545438 -0.0728409 0.08121682
-0.043591794 -0.02302833 -0.048478052 0.04988854 -0.08161841 0.088557735 -0.032026164 -0.047714684
0.017719783 -0.02790383 0.07696908 0.032093707 -0.008079706 0.06338394 -0.023125703 -0.037522506
-0.09524072 -0.05350186 -0.033058293 -0.006914802 0.011463794 0.035805687 -0.08234436 0.07112371
-0.061198954 0.011444239 0.0011746594 -0.07239097 -0.060169723 -0.07476292 0.05425489 0.053034242
-0.026415639 0.10292645 0.032563098 -0.08301043 0.010508586 -0.08161799 0.07471889 0.0011083446
-0.035156485 -0.07951827 -0.07333379 -0.054265004 -0.024620008 0.035918728 -0.032875452 0.0015231642
-0.068710715 0.083673686 -0.030898333 0.0057976576 -0.09939887 -0.06648404 -0.07087351 0.010398461
0.004143236 0.054864284 0.1002438 -0.04826323 0.13349663 0.0064433413 -0.05670016 0.04505727
0.034359396 -0.07298797 0.09585344 -0.0071323756 0.08636635 0.01705988 -0.016274482 0.060248073
00000000: 0e34 0e3d c815 0d3b ac58 a9bd 8ee4 4fbd
00000010: d6f0 66bc 7a3a b73d 7771 353c 07b6 be3d
00000020: 9917 ebbc 206f 5c3d 5c8e 9bbc 35c2 ab3d
00000030: 7838 7fbd f7b9 7b3d 0f77 99bd e1e6 b3bd
00000040: 94cd 503d 00c7 43bd 27e5 8a3d 343f 5abd
00000050: f92b 02bd 02e1 a23d 88d2 b63d 435d 92bd
00000060: c210 bebd 1fab 283d 0f26 10bd 5464 95bd
00000070: 6df6 b03d 7054 46bb a06b 56bd 11fa 393d
00000080: 0d2b f0bc bd6b 523a 2983 69bd 68ac 463c
00000090: 76db 55bd dedc 633b 04a0 a8bd 21bb 493d
000000a0: e765 eebc 6614 97bc 4c34 d23b 71d7 79bc
000000b0: aa93 d33d 23f0 8f3c 5a07 99bc 09ab 8ebd
000000c0: 18e4 b4bd 07db 81bd abd7 06bc be80 32bd
000000d0: d1e5 c2bc f524 9abd f251 91bd 6b0a 7abd
000000e0: c287 e939 7aaa f43c 666e d03d 7a07 843d
000000f0: 8c9c 853c 54a2 a4bc 175d 70bd e8f7 ef3c
00000100: e6d6 4dbd b282 21bd 5981 6d3d cda0 853d
00000110: 5f12 5d3d cfd4 8dbd 8b85 59bd dfc8 97bd
00000120: 5761 a33d a657 6abd 1a49 a7bd 39b6 b7bd
00000130: 811c 3d3d a585 623d 4006 2c3d ff50 3eba
00000140: fefc 5cbd 2f5f 573c 8a50 843d 2ea9 27bc
00000150: 7a26 babb db3a b83c 141e 553d 7583 11bd
00000160: e14f f2bc 6456 c1bd 7d30 fd3c 8c3c 59bd
00000170: c980 96b9 ee4f 5cbc 1fdb a9bd 4637 0bbd
00000180: fd12 133d f259 413d 5178 903d 0edd 8cbd
00000190: 193b 463d 8739 b33d 2f2b 023d e4ba 72bd
000001a0: 5986 373d d4e9 99bd e7aa 5abc 20be ae3b
000001b0: c66c c1bd 7d68 7e3d fe70 ccbc 1203 f4bc
000001c0: 3aa2 2b3d b41b 9bbc dbc5 26bd d514 8e3d
000001d0: 6a91 83bd c663 473d aed6 6a3d e743 b5bc
000001e0: 7fd5 8e3d 20b6 043d ce05 813d c1b3 9e3d
000001f0: 4ccf b03d 751e d0bb b0a1 8c3d 0544 fd39
00000200: 18b3 4ebd 9ccb 48bd 7639 79bd e810 413d
00000210: 9f46 20bc cb3a b0bc 83ac 6fbd 09f7 4bbd
00000220: ed06 41bc 36a8 10bb faf9 af3b 8020 abbc
00000230: ca41 b0bd a571 863d c8c7 b6bc 1ec7 bdbb
00000240: 8055 653d 8311 b83d e5ef cc3d 1f02 b6bd
00000250: d961 20bc 6493 853d 9dbe 983d 83ee 803d
00000260: 0949 693d ee66 0b3d 3514 9f3d bc77 bebd
00000270: 2520 2dbd 740c ca3c b3ac 8abd 7b76 c23d
00000280: 0ffe 8abd f11e ca3c c1e8 bc3d 5792 233d
00000290: d2c3 8dbc b65a 2f3d b8e4 8e3d c354 9d3d
000002a0: d39a 3dbd 2ae4 3abb d5ed da3c ba7f 06bd
000002b0: 2baf ce3d c32c 4a3d a460 babc 1fb4 103d
000002c0: a14f c23d e5db 09bd fc52 a53d 4b03 b73d
000002d0: ae4f aabd c11d a03c 9c2d 95bd 0155 a63d
000002e0: 4f8d 32bd e9a5 bcbc ec90 46bd ed57 4c3d
000002f0: 8e27 a7bd c25d b53d de2d 03bd 7970 43bd
00000300: 1429 913c 9396 e4bc f7a1 9d3d b174 033d
00000310: be60 04bc 70cf 813d 1d72 bdbc 33b1 19bd
00000320: 910d c3bd c424 5bbd 2268 07bd 9095 e2bb
00000330: a3d2 3b3c fca8 123d 29a4 a8bd 4fa9 913d
00000340: c1ab 7abd 9e80 3b3c 07f7 993a b841 94bd
00000350: 8774 76bd 4d1d 99bd 603a 5e3d 6f3a 593d
00000360: 9c65 d8bc 1acb d23d e260 053d 5f01 aabd
00000370: 342c 2c3c 5527 a7bd 3806 993d e045 913a
00000380: 3f00 10bd 7ada a2bd 0730 96bd fb44 5ebd
00000390: e6af c9bc 841f 133d 69a8 06bd e9a4 c73a
000003a0: 34b8 8cbd 1c5d ab3d 801e fdbc 47fa bd3b
000003b0: a291 cbbd c928 88bd 2126 91bd 4e5e 2a3c
000003c0: fcc3 873b 5fb9 603d 9f4c cd3d aaaf 45bd
000003d0: 57b3 083e aa22 d33b 6d3e 68bd f98d 383d
000003e0: 70bc 0c3d b87a 95bd cf4e c43d b4b6 e9bb
000003f0: d7e0 b03d 29c1 8b3c 1052 85bc afc6 763d

lstm.bias_ih_l0 f4 [512]
0.004310932 0.0026640336 0.008983142 0.0063891443 0.009101589 0.0050863614 0.0064247972 0.012607376
0.010870825 0.005576726 0.024229737 0.007308262 0.020204509 0.0037959893 0.0021532925 0.004084298
0.0077008717 0.0026509638 0.002793424 0.00247865 0.0062778136 0.00040177017 0.008874283 0.0046051415
0.0031783304 0.006918797 0.0052711777 0.0039496864 -0.0015827684 0.0037244975 0.008787354 0.00010761812
-0.0037017316 0.0036870202 0.0063322634 0.027709546 -0.00218226 0.0038854694 0.0050882758 0.007209714
0.0077415686 0.0031104495 0.0026931376 0.0047035883 0.015617511 0.0011457123 0.007133857 0.0066239634
0.0058345855 0.0037984827 0.001719713 0.0044381684 -0.0023876193 0.0040457323 0.008955759 0.00680953
0.00017390207 0.004273921 0.0014292924 0.006916062 0.0032422643 0.008328928 0.009801533 0.007875069
0.005701433 0.002652874 0.0017492783 0.014954164 0.0047790273 0.018204544 0.0059363684 0.001981822
0.015637225 0.0013765941 0.005100299 0.0048334384 -0.00013649098 0.0021758068 0.007185372 0.025493175
0.021311589 0.0069230357 0.006418114 0.014575343 -0.0005417011 0.007311348 0.0068618334 0.00667685
0.001471535 0.011135261 0.0057218475 0.005494095 -0.00011592318 0.020230904 0.0074418006 0.0026556149
0.000548476 0.0059289937 0.00531241 0.008134733 0.022874162 0.009869006 0.0014430374 0.005515655
0.009393949 0.001497911 0.005628073 0.008374159 0.0071397824 0.004159006 0.0042802584 0.0051273415
0.040111106 0.0021546152 0.0100838775 0.0071200486 0.03161622 -0.0026824041 0.008194766 0.0071968473
0.005056727 0.024657398 0.007155858 0.009781563 0.005837795 0.0044191717 0.00619965 0.0068861535
0.0045051374 0.0050761774 0.007752091 0.0076424587 0.013998279 0.0041061165 0.0075659347 0.015805293
0.0026939302 0.0060890946 0.020034483 0.013231154 0.022455823 0.0019437008 0.0027272743 0.005677379
0.018340858 0.0063028703 0.0035281193 0.0049895574 0.010360889 0.00031944297 0.009690745 0.0072449106
0.004930893 0.0064262664 0.004734313 0.005535326 0.0040934593 0.0074092317 0.014614329 0.002278281
-0.0026601756 0.0019412552 0.006542339 0.004388786 -0.004058325 0.006066704 0.005661478 0.00639108
0.0075034443 0.0052186796 0.0016335766 0.0036841189 0.015302335 0.0014017074 0.00769381 0.005403814
0.0043795006 0.0041454984 0.0021677571 0.0071892818 -0.0033087872 0.0027321647 0.012145107 0.006854124
-0.00041065484 0.0049439897 0.00029105102 0.009491424 0.0012784844 0.009450596 0.008052656 0.0060702576
0.008124432 0.0023882196 0.0032956265 0.0072021056 0.006801095 0.013668379 0.006224024 0.0040776287
0.015787017 0.0021346363 0.0048163566 0.007518001 0.003604244 0.007310164 0.008153164 0.019662743
0.013921631 0.007413139 0.0061456547 0.015047817 0.0029488085 0.008366406 0.00836855 0.0065842755
0.0029214486 0.0149095 0.0014720862 0.006848875 -0.00043765805 0.018649917 0.002031071 0.0020188289
0.0036375825 0.0059197973 0.006488338 0.0077580637 0.017177446 0.008122368 0.002342751 0.008852389
0.008725723 0.002597512 0.009310676 0.0067023374 0.008401216 0.004099061 0.0045092227 0.0064255823
0.032376852 0.0014816307 0.0034250803 0.008760221 0.023990218 0.00011106955 0.009464466 0.012405865
0.00626852 0.022811081 0.00843853 0.012035137 0.006343034 0.0035276476 0.004970829 0.008353073
00000000: b842 8d3b 1197 2e3b 072e 133c 075c d13b
00000010: d51e 153c 7eab a63b 1b87 d23b 2b8f 4e3c
00000020: 8b1b 323c f8bc b63b 717d c63c 257a ef3b
00000030: ed83 a53c 22c6 783b 411e 0d3b 93d5 853b
00000040: 9857 fc3b cbbb 2d3b e111 373b d970 223b
00000050: 1eb6 cd3b aea4 d239 7165 113c bae6 963b
00000060: 894b 503b 13b7 e23b d8b9 ac3b 5f6c 813b
00000070: e574 cfba b316 743b d6f8 0f3c 0ab1 e138
00000080: c098 72bb efa1 713b e07e cf3b 21ff e23c
00000090: 3f04 0fbb 5ca3 7e3b 8dbb a63b 773f ec3b
000000a0: fcac fd3b afd8 4b3b 5a7f 303b 8f20 9a3b
000000b0: 97e0 7f3c ba2b 963a 21c3 e93b d50d d93b
000000c0: 0d30 bf3b f7ef 783b fe67 e13a 0e6e 913b
000000d0: 9b79 1cbb 1092 843b 2dbb 123c 7a22 df3b
000000e0: 7b59 3639 3f0c 8c3b 1857 bb3a 22a0 e23b
000000f0: 2b7c 543b 0e76 083c 9c96 203c 6f06 013c
00000100: 16d3 ba3b d7db 2d3b 0a48 e53a 4f02 753c
00000110: 6399 9c3b b221 953c de85 c23b 75e1 013b
00000120: a319 803c d56e b43a 6920 a73b d261 9e3b
00000130: 051f 0fb9 fb97 0e3b 4573 eb3b 10d7 d03c
00000140: a495 ae3c a2da e23b 0b4f d23b 6bcd 6e3c
00000150: f200 0eba 0894 ef3b 3bd9 e03b 7ac9 da3b
00000160: 85e0 c03a ab70 363c 567e bb3b cf07 b43b
00000170: c91b f3b8 48bb a53c 59da f33b d309 2e3b
00000180: 9ac7 0f3a 0148 c23b ba13 ae3b 8b47 053c
00000190: 9862 bb3c 9db1 213c 4d24 bd3a abbc b43b
000001a0: 14e9 193c 8e55 c43a b36b b83b c533 093c
000001b0: d6f4 e93b 4548 883b 6941 8c3b 4203 a83b
000001c0: 8b4b 243d 7234 0d3b d936 253c 4c4f e93b
000001d0: 0280 013d 46cb 2fbb 5743 063c 88d3 eb3b
000001e0: e7b2 a53b 50fe c93c b07b ea3b d942 203c
000001f0: f94a bf3b b3ce 903b 6f26 cb3b 3ea5 e13b
00000200: d59f 933b 1056 a63b 4105 fe3b 976d fa3b
00000210: 0a59 653c 9a8c 863b a9eb f73b 1a7a 813c
00000220: a68c 303b 0787 c73b 5b1f a43c 7bc7 583c
00000230: 46f5 b73c c7c3 fe3a 12bc 323b 4f09 ba3b
00000240: 913f 963c 4f88 ce3b 0538 673b 717f a33b
00000250: b8c0 293c e97a a739 eec5 1e3c b766 ed3b
00000260: 5493 a13b 6e93 d23b 4c22 9b3b ae61 b53b
00000270: 6d22 863b 24c9 f23b f070 6f3c 364f 153b
00000280: 5756 2ebb b771 fe3a 1e61 d63b cecf 8f3b
00000290: b3fb 84bb 34cb c63b eb83 b93b 446c d13b
000002a0: 74df f53b 7501 ab3b bc1d d63a 4271 713b
000002b0: a5b6 7a3c 7fb9 b73a 5b1c fc3b 7a12 b13b
000002c0: ea81 8f3b f6d6 873b ee10 0e3b 1194 eb3b
000002d0: 3dd8 58bb 1e0e 333b 45fc 463c 8f98 e03b
000002e0: 294d d7b9 3101 a23b 3598 9839 eb81 1b3c
000002f0: d192 a73a acd6 1a3c 4aef 033c 03e9 c63b
00000300: 561c 053c ad83 1c3b 70fb 573b a4ff eb3b
00000310: b8db de3b 56f1 5f3c e6f2 cb3b a19d 853b
00000320: c653 813c 41e5 0b3b 87d2 9d3b 9059 f63b
00000330: 2e35 6c3b 1a8a ef3b d994 053c c313 a13c
00000340: 8d17 643c ebe9 f23b 7d61 c93b 1e8b 763c
00000350: cc40 413b 4013 093c 3e1c 093c e8c0 d73b
00000360: c675 3f3b fa46 743c 04f3 c03a 876c e03b
00000370: 7875 e5b9 b6c7 983c b81b 053b 544e 043b
00000380: 8264 6e3b dcfa c13b 209c d43b 5b37 fe3b
00000390: b7b7 8c3c ae13 053c d788 193b 9c09 113c
000003a0: 56f6 0e3c 053b 2a3b ce8b 183c 489f db3b
000003b0: 41a5 093c 6a51 863b 1ac2 933b b18d d23b
000003c0: 979d 043d 4733 c23a 5077 603b 0887 0f3c
000003d0: 2287 c43c 03ee e838 d910 1b3c f841 4b3c
000003e0: 2868 cd3b 4ede ba3c c341 0a3c 062f 453c
000003f0: 3ad9 cf3b 1b30 673b 56e2 a23b 54db 083c

lstm.bias_hh_l0 f4 [512]
0.004310932 0.0026640336 0.008983142 0.0063891443 0.009101589 0.0050863614 0.0064247972 0.012607376
0.010870825 0.005576726 0.024229737 0.007308262 0.020204509 0.0037959893 0.0021532925 0.004084298
0.0077008717 0.0026509638 0.002793424 0.00247865 0.0062778136 0.00040177017 0.008874283 0.0046051415
0.0031783304 0.006918797 0.0052711777 0.0039496864 -0.0015827684 0.0037244975 0.008787354 0.00010761812
-0.0037017316 0.0036870202 0.0063322634 0.027709546 -0.00218226 0.0038854694 0.0050882758 0.007209714
0.0077415686 0.0031104495 0.0026931376 0.0047035883 0.015617511 0.0011457123 0.007133857 0.0066239634
0.0058345855 0.0037984827 0.001719713 0.0044381684 -0.0023876193 0.0040457323 0.008955759 0.00680953
0.00017390207 0.004273921 0.0014292924 0.006916062 0.0032422643 0.008328928 0.009801533 0.007875069
0.005701433 0.002652874 0.0017492783 0.014954164 0.0047790273 0.018204544 0.0059363684 0.001981822
0.015637225 0.0013765941 0.005100299 0.0048334384 -0.00013649098 0.0021758068 0.007185372 0.025493175
0.021311589 0.0069230357 0.006418114 0.014575343 -0.0005417011 0.007311348 0.0068618334 0.00667685
0.001471535 0.011135261 0.0057218475 0.005494095 -0.00011592318 0.020230904 0.0074418006 0.0026556149
0.000548476 0.0059289937 0.00531241 0.008134733 0.022874162 0.009869006 0.0014430374 0.005515655
0.009393949 0.001497911 0.005628073 0.008374159 0.0071397824 0.004159006 0.0042802584 0.0051273415
0.040111106 0.0021546152 0.0100838775 0.0071200486 0.03161622 -0.0026824041 0.008194766 0.0071968473
0.005056727 0.024657398 0.007155858 0.009781563 0.005837795 0.0044191717 0.00619965 0.0068861535
0.0045051374 0.0050761774 0.007752091 0.0076424587 0.013998279 0.0041061165 0.0075659347 0.015805293
0.0026939302 0.0060890946 0.020034483 0.013231154 0.022455823 0.0019437008 0.0027272743 0.005677379
0.018340858 0.0063028703 0.0035281193 0.0049895574 0.010360889 0.00031944297 0.009690745 0.0072449106
0.004930893 0.0064262664 0.004734313 0.005535326 0.0040934593 0.0074092317 0.014614329 0.002278281
-0.0026601756 0.0019412552 0.006542339 0.004388786 -0.004058325 0.006066704 0.005661478 0.00639108
0.0075034443 0.0052186796 0.0016335766 0.0036841189 0.015302335 0.0014017074 0.00769381 0.005403814
0.0043795006 0.0041454984 0.0021677571 0.0071892818 -0.0033087872 0.0027321647 0.012145107 0.006854124
-0.00041065484 0.0049439897 0.00029105102 0.009491424 0.0012784844 0.009450596 0.008052656 0.0060702576
0.008124432 0.0023882196 0.0032956265 0.0072021056 0.006801095 0.013668379 0.006224024 0.0040776287
0.015787017 0.0021346363 0.0048163566 0.007518001 0.003604244 0.007310164 0.008153164 0.019662743
0.013921631 0.007413139 0.0061456547 0.015047817 0.0029488085 0.008366406 0.00836855 0.0065842755
0.0029214486 0.0149095 0.0014720862 0.006848875 -0.00043765805 0.018649917 0.002031071 0.0020188289
0.0036375825 0.0059197973 0.006488338 0.0077580637 0.017177446 0.008122368 0.002342751 0.008852389
0.008725723 0.002597512 0.009310676 0.0067023374 0.008401216 0.004099061 0.0045092227 0.0064255823
0.032376852 0.0014816307 0.0034250803 0.008760221 0.023990218 0.00011106955 0.009464466 0.012405865
0.00626852 0.022811081 0.00843853 0.012035137 0.006343034 0.0035276476 0.004970829 0.008353073
00000000: b842 8d3b 1197 2e3b 072e 133c 075c d13b
00000010: d51e 153c 7eab a63b 1b87 d23b 2b8f 4e3c
00000020: 8b1b 323c f8bc b63b 717d c63c 257a ef3b
00000030: ed83 a53c 22c6 783b 411e 0d3b 93d5 853b
00000040: 9857 fc3b cbbb 2d3b e111 373b d970 223b
00000050: 1eb6 cd3b aea4 d239 7165 113c bae6 963b
00000060: 894b 503b 13b7 e23b d8b9 ac3b 5f6c 813b
00000070: e574 cfba b316 743b d6f8 0f3c 0ab1 e138
00000080: c098 72bb efa1 713b e07e cf3b 21ff e23c
00000090: 3f04 0fbb 5ca3 7e3b 8dbb a63b 773f ec3b
000000a0: fcac fd3b afd8 4b3b 5a7f 303b 8f20 9a3b
000000b0: 97e0 7f3c ba2b 963a 21c3 e93b d50d d93b
000000c0: 0d30 bf3b f7ef 783b fe67 e13a 0e6e 913b
000000d0: 9b79 1cbb 1092 843b 2dbb 123c 7a22 df3b
000000e0: 7b59 3639 3f0c 8c3b 1857 bb3a 22a0 e23b
000000f0: 2b7c 543b 0e76 083c 9c96 203c 6f06 013c
00000100: 16d3 ba3b d7db 2d3b 0a48 e53a 4f02 753c
00000110: 6399 9c3b b221 953c de85 c23b 75e1 013b
00000120: a319 803c d56e b43a 6920 a73b d261 9e3b
00000130: 051f 0fb9 fb97 0e3b 4573 eb3b 10d7 d03c
00000140: a495 ae3c a2da e23b 0b4f d23b 6bcd 6e3c
00000150: f200 0eba 0894 ef3b 3bd9 e03b 7ac9 da3b
00000160: 85e0 c03a ab70 363c 567e bb3b cf07 b43b
00000170: c91b f3b8 48bb a53c 59da f33b d309 2e3b
00000180: 9ac7 0f3a 0148 c23b ba13 ae3b 8b47 053c
00000190: 9862 bb3c 9db1 213c 4d24 bd3a abbc b43b
000001a0: 14e9 193c 8e55 c43a b36b b83b c533 093c
000001b0: d6f4 e93b 4548 883b 6941 8c3b 4203 a83b
000001c0: 8b4b 243d 7234 0d3b d936 253c 4c4f e93b
000001d0: 0280 013d 46cb 2fbb 5743 063c 88d3 eb3b
000001e0: e7b2 a53b 50fe c93c b07b ea3b d942 203c
000001f0: f94a bf3b b3ce 903b 6f26 cb3b 3ea5 e13b
00000200: d59f 933b 1056 a63b 4105 fe3b 976d fa3b
00000210: 0a59 653c 9a8c 863b a9eb f73b 1a7a 813c
00000220: a68c 303b 0787 c73b 5b1f a43c 7bc7 583c
00000230: 46f5 b73c c7c3 fe3a 12bc 323b 4f09 ba3b
00000240: 913f 963c 4f88 ce3b 0538 673b 717f a33b
00000250: b8c0 293c e97a a739 eec5 1e3c b766 ed3b
00000260: 5493 a13b 6e93 d23b 4c22 9b3b ae61 b53b
00000270: 6d22 863b 24c9 f23b f070 6f3c 364f 153b
00000280: 5756 2ebb b771 fe3a 1e61 d63b cecf 8f3b
00000290: b3fb 84bb 34cb c63b eb83 b93b 446c d13b
000002a0: 74df f53b 7501 ab3b bc1d d63a 4271 713b
000002b0: a5b6 7a3c 7fb9 b73a 5b1c fc3b 7a12 b13b
000002c0: ea81 8f3b f6d6 873b ee10 0e3b 1194 eb3b
000002d0: 3dd8 58bb 1e0e 333b 45fc 463c 8f98 e03b
000002e0: 294d d7b9 3101 a23b 3598 9839 eb81 1b3c
000002f0: d192 a73a acd6 1a3c 4aef 033c 03e9 c63b
00000300: 561c 053c ad83 1c3b 70fb 573b a4ff eb3b
00000310: b8db de3b 56f1 5f3c e6f2 cb3b a19d 853b
00000320: c653 813c 41e5 0b3b 87d2 9d3b 9059 f63b
00000330: 2e35 6c3b 1a8a ef3b d994 053c c313 a13c
00000340: 8d17 643c ebe9 f23b 7d61 c93b 1e8b 763c
00000350: cc40 413b 4013 093c 3e1c 093c e8c0 d73b
00000360: c675 3f3b fa46 743c 04f3 c03a 876c e03b
00000370: 7875 e5b9 b6c7 983c b81b 053b 544e 043b
00000380: 8264 6e3b dcfa c13b 209c d43b 5b37 fe3b
00000390: b7b7 8c3c ae13 053c d788 193b 9c09 113c
000003a0: 56f6 0e3c 053b 2a3b ce8b 183c 489f db3b
000003b0: 41a5 093c 6a51 863b 1ac2 933b b18d d23b
000003c0: 979d 043d 4733 c23a 5077 603b 0887 0f3c
000003d0: 2287 c43c 03ee e838 d910 1b3c f841 4b3c
000003e0: 2868 cd3b 4ede ba3c c341 0a3c 062f 453c
000003f0: 3ad9 cf3b 1b30 673b 56e2 a23b 54db 083c

lstm.weight_ih_l1 f4 [512, 128]
-0.009962272 0.07060206 -0.08966771 0.061210256 0.06325421 -0.097632244 -0.021383572 -0.050519563
-0.030904535 0.046793483 -0.059436698 0.03066207 -0.11967036 -0.046653435 -0.0073953746 -0.034142334
-0.03242536 -0.025525134 -0.024375215 -0.027463757 -0.028547091 0.07573988 -0.055745695 -0.034909297
0.09436143 0.068616025 -0.085415125 -0.042202797 -0.061951518 -0.0767955 -0.0143874595 -0.048636064
0.04538985 0.06286573 -0.08213385 0.040796623 0.08447616 -0.09374191 0.031385455 0.06849975
0.083817266 -0.05913032 -0.09879915 0.0027593074 -0.04647717 -0.09317709 0.054628618 -0.04873525
-0.042210586 -0.105860375 0.058328856 0.0058809915 0.0677339 0.055056766 0.035866227 -0.100252934
-0.04755457 0.034785032 0.010159712 -0.0027774703 0.04379579 -0.015835503 0.044815503 0.0055725956
0.039893914 -0.07266546 -0.04965549 0.021232147 -0.10407409 -0.10068999 0.068032384 -0.06365083
0.07524859 0.04077636 0.017643413 -0.040121846 -0.06498642 0.071471475 -0.019268291 0.04211093
-0.09083347 -0.06450906 -0.048551176 0.05784295 -0.06754798 -0.055392522 0.03966834 -0.077385955
0.049377237 0.085100174 0.03423708 0.10537801 -0.05563962 0.037560616 -0.10963964 0.073041596
0.020071859 -0.021364108 -0.009209407 0.018224409 0.0070369686 -0.04875487 -0.047191415 0.10332746
-0.041573033 -0.025627758 -0.0067728213 -0.023233986 0.009166274 0.031015284 -0.052818786 0.10443849
-0.12647854 0.089187145 -0.08520942 -0.015113682 -0.0014354072 0.035839427 0.0014652082 0.0013421093
-0.08851931 -0.050646055 -0.018182851 0.07585089 -0.06822199 -0.010241353 0.045536462 -0.09815384
-0.023672646 0.057835873 0.04948083 0.0437042 -0.05573449 -0.092469186 -0.053211633 0.034133572
0.018713832 -0.04887893 0.06892293 0.015207549 -0.007828303 -0.04360667 -0.031475272 0.011672952
0.07053176 0.037062008 0.07408042 0.019392163 0.04626689 -0.08998442 0.037625037 0.08431749
-0.067823105 0.068996646 -0.030989446 0.028070047 0.05510331 0.066150695 0.07743966 0.052181724
-0.07718976 0.035508376 -0.053718805 -0.022483204 0.087760866 -0.028444355 0.04881915 -0.0845015
-0.040316254 -0.0049067554 0.008621284 0.07174526 0.027042033 -0.0697329 -0.08582358 -0.085598975
-0.0874973 -0.019063381 -0.05962254 -0.079980426 -0.028836401 0.042522267 0.021348203 -0.052749917
0.08606796 -0.025621122 -0.02582732 0.017626699 0.0590533 -0.07744251 0.011133548 0.05969733
0.0577506 0.0072778664 -0.04870312 -0.09102805 -0.022900831 0.027460795 0.04962849 0.0480205
-0.116681986 0.012952632 -0.06401838 -0.009713815 0.0062689637 -0.0661855 0.052281365 0.052796938
0.046835285 -0.09161437 0.068633795 -0.060629692 0.084644675 -0.09577506 0.0881124 -0.021237357
-0.07079639 -0.012997805 0.026778102 0.040624928 0.033160966 0.09248736 0.0548005 -0.027258137
0.012278441 -0.08853844 -0.08201271 -0.02674447 0.09504464 0.025401255 0.07572822 0.06725357
-0.031164432 -0.08271997 0.02617884 0.056609377 -0.03887555 -0.066313125 -0.038493965 -0.051010158
0.033199023 -0.06369058 0.042862177 -0.09291883 0.020022353 0.064780116 -0.04170252 0.060547553
0.053263403 0.097193636 -0.06659957 0.096497096 -0.042380985 -0.042508293 -0.06109947 -0.0955329
00000000: cc38 23bc d097 903d b4a3 b7bd 9bb7 7a3d
00000010: 6c8b 813d 6af3 c7bd 9a2c afbc 9aed 4ebd
00000020: 822b fdbc 86aa 3f3d e573 73bd 052f fb3c
00000030: bc15 f5bd ac17 3fbd e654 f2bb d5d8 0bbd
00000040: 74d0 04bd 161a d1bc 88ae c7bc acfb e0bc
00000050: 97db e9bc 831d 9b3d 9955 64bd 0dfd 0ebd
00000060: 9140 c13d 8f86 8c3d 20ee aebd d7dc 2cbd
00000070: e0c0 7dbd f646 9dbd 61b9 6bbc 9c36 47bd
00000080: b5ea 393d bfbf 803d cb35 a8bd 5c1a 273d
00000090: d601 ad3d c2fb bfbd 098e 003d 9949 8c3d
000000a0: 63a8 ab3d a232 72bd 3557 cabd 7fd5 343b
000000b0: d85e 3ebd a1d3 bebd 42c2 5f3d 9d9e 47bd
000000c0: 02e5 2cbd 53cd d8bd 3dea 6e3d 55b5 c03b
000000d0: 12b8 8a3d 3483 613d 77e8 123d 6951 cdbd
000000e0: 95c8 42bd c07a 0e3d ec74 263c 3806 36bb
000000f0: 3763 333d 75b9 81bc 7690 373d 529a b63b
00000100: cd67 233d a1d1 94bd 8e63 4bbd 0aef ad3c
00000110: cc24 d5bd 8e36 cebd 9054 8b3d 5e5b 82bd
00000120: ef1b 9a3d 1d05 273d eb88 903c ce56 24bd
00000130: 9a17 85bd a35f 923d 89d8 9dbc 837c 2c3d
00000140: e606 babd 531d 84bd 99dd 46bd bbec 6c3d
00000150: 9856 8abd 45e3 62bd 457b 223d 877c 9ebd
00000160: c93f 4a3d 0049 ae3d 2e3c 0c3d 6dd0 d73d
00000170: 5fe6 63bd 29d9 193d bf8a e0bd d596 953d
00000180: bd6d a43c c803 afbc 0de3 16bc 5b4b 953c
00000190: 5f96 e63b 30b3 47bd c94b 41bd 599d d33d
000001a0: 7c48 2abd 4ef1 d1bc 8bee ddbb 3355 bebc
000001b0: 242e 163c c413 fe3c 8358 58bd d9e3 d53d
000001c0: 9783 01be c0a7 b63d 4782 aebd 609f 77bc
000001d0: 4624 bcba 5dcc 123d 3b0c c03a b7e9 af3a
000001e0: 9d49 b5bd 3d72 4fbd 34f4 94bc b657 9b3d
000001f0: f8b7 8bbd 59cb 27bc 7184 3a3d e104 c9bd
00000200: 23ed c1bc 4fe5 6c3d 69ac 4a3d 2d03 333d
00000210: d949 64bd 7c60 bdbd 71f4 59bd a5cf 0b3d
00000220: c04d 993c 4635 48bd 7727 8d3d 1529 793c
00000230: 4842 00bc e89c 32bd 37ec 00bd e93f 3f3c
00000240: f572 903d 55ce 173d 7ab7 973d 50dc 9e3c
00000250: 5a82 3d3d c049 b8bd b61c 1a3d a6ae ac3d
00000260: d7e6 8abd 1d4e 8d3d 94dd fdbc 28f3 e53c
00000270: 02b4 613d 047a 873d af98 9e3d 81bc 553d
00000280: aa15 9ebd 3b71 113d 4008 5cbd b22e b8bc
00000290: f8bb b33d 2304 e9bc 97f6 473d 1f0f adbd
000002a0: a822 25bd d9c8 a0bb 4940 0d3c 2eef 923d
000002b0: 4187 dd3c 1fd0 8ebd 46c4 afbd 844e afbd
000002c0: c931 b3bd cf2a 9cbc c436 74bd c7cc a3bd
000002d0: 513a ecbc d42b 2e3d 6de2 ae3c 4c10 58bd
000002e0: 6644 b03d 63e3 d1bc d193 d3bc de65 903c
000002f0: e0e1 713d 2e9a 9ebd 7c69 363c 3085 743d
00000300: e58b 6c3d 2b7b ee3b ec7c 47bd ea6c babd
00000310: 869a bbbc 76f5 e03c 3e47 4b3d 25b1 443d
00000320: f7f6 eebd 4737 543c 121c 83bd b126 1fbc
00000330: e16b cd3b 438c 87bd fc24 563d 9a41 583d
00000340: 5bd6 3f3d 51a0 bbbd e08f 8c3d d756 78bd
00000350: 305a ad3d b725 c4bd 4674 b43d f7f9 adbc
00000360: b3fd 90bd bff4 54bc c05d db3c 5366 263d
00000370: cbd3 073d 036a bd3d 7d76 603d 754c dfbc
00000380: 842b 493c a453 b5bd 48f6 a7bd 3817 dbbc
00000390: c4a6 c23d 4b16 d03c 6617 9b3d 3dbc 893d
000003a0: 8d4c ffbc 1669 a9bd 0275 d63c 3cdf 673d
000003b0: f83b 1fbd 2dcf 87bd d9ab 1dbd 07f0 50bd
000003c0: b3fb 073d 3570 82bd 4090 2f3d 3a4c bebd
000003d0: eb05 a43c 70ab 843d 43d0 2abd b600 783d
000003e0: ba2a 5a3d 750d c73d 5b65 88bd 45a0 c53d
000003f0: af97 2dbd 2d1d 2ebd 7043 7abd c1a6 c3bd

lstm.weight_hh_l1 f4 [512, 128]
-0.030990563 -0.05202748 -0.06769238 0.08349225 0.08838474 0.09718412 -0.0057570217 -0.007881946
0.023220621 -0.003732109 -0.05225813 0.023732597 0.09157034 -0.033886533 0.09862817 0.008700497
-0.0066668713 -0.014409128 -0.07397935 -0.06172929 0.033601668 -0.0045181387 0.062338248 -0.07078127
-0.0821238 -0.0044656578 -0.07052538 0.013004691 -0.06353537 -0.09529439 -0.027778246 -0.032689784
0.07793829 0.038431972 0.07204827 -0.056673177 0.01058886 0.009964183 0.042874366 0.06858098
0.043077074 0.008350681 0.01787643 0.032720704 -0.014865242 0.01466148 0.02702586 0.01929679
0.0023059603 -0.031133525 -0.11310876 -0.06242472 0.08402115 0.06740103 -0.023651263 -0.03500961
0.06461985 0.01357437 -0.058553662 0.02843847 -0.03925092 -0.008553151 0.030105606 0.013040096
-0.05812279 -0.11247204 0.028845128 -0.015298589 -0.0120373415 -0.07246959 0.0204918 0.02968023
-0.019623797 0.067292504 -0.019755764 0.032831315 0.013869742 -0.022357496 -0.056377366 -0.08306703
0.0075921766 -0.06168419 0.07172249 0.020042328 -0.07931167 -0.03292219 0.026761143 0.045891307
-0.108916216 -0.06521201 -0.08364757 -0.028789286 -0.037269115 -0.0537471 -0.036751483 -0.02140012
0.07317759 -0.1021685 0.07565789 -0.02383172 0.034728654 -0.0075783413 -0.06905399 0.04423187
0.0406762 -0.00072008686 0.08074952 0.0397357 -0.01511882 -0.02242302 0.063184306 -0.10683847
-0.04112625 -0.022665434 -0.06985413 -0.024574813 0.026172921 -0.044666745 -0.015672449 -0.07219024
0.019055882 0.05162185 0.08001972 0.09810762 0.0029327187 -0.05340884 0.028840778 -0.016154652
-0.07292889 0.0028992146 0.02323838 0.012223901 0.008804845 0.047265682 0.048489057 0.04016344
-0.023764526 0.02399932 0.017834466 0.062335085 0.053495638 0.07469342 0.06398317 0.05944813
-0.047492504 0.050797407 0.03949179 0.066619255 0.02145119 -0.04866167 -0.05982975 -0.087137915
0.07015408 -0.09569198 -0.086496636 -0.07111965 0.06426732 -0.03645739 0.09852007 -0.01817801
0.06850427 -0.033753008 0.014559673 -0.07050818 0.093369156 0.08311775 -0.057964906 -0.02788325
0.030501986 -0.07849758 -0.01197027 0.039518718 -0.043987215 0.02058196 -0.05344282 -0.054026287
0.08644655 0.024116497 0.066614605 -0.081870876 0.015002268 0.08069279 -0.104566686 0.023248974
0.011558449 -0.013795129 -0.06504264 0.07224161 0.10087295 0.06461137 -0.08392361 -0.002464386
0.014234122 0.09672818 0.07883023 -0.088032365 -0.092052884 -0.024987798 -0.081096336 -0.012472673
0.039229225 -0.044772584 0.08833402 -0.10333115 0.028319437 0.081899144 -0.032864958 0.07089458
0.060241114 0.05678282 -0.06339045 0.07139887 0.055839058 0.013653301 -0.04940019 0.023701338
-0.0320839 0.076345526 -0.08832945 -0.07774195 0.06913507 0.014960979 0.04019742 -0.04978535
-0.04730697 0.05175293 0.033166498 0.074979216 0.010896651 -0.04939923 0.026446551 -0.048935812
0.07973122 -0.055247363 0.106360435 -0.08393101 0.033229787 -0.0035841838 0.04102339 0.044756718
-0.06608797 0.01925513 0.05200341 0.091911145 -0.009573036 0.04157448 -0.04275 0.05438466
-0.042633705 -0.12793453 -0.019386211 0.057682276 0.05233935 -0.03650191 0.015986307 0.07650717
00000000: ecdf fdbc c41a 55bd 4da2 8abd fcfd aa3d
00000010: 0f03 b53d 7808 c73d 66a5 bcbb 4723 01bc
00000020: 2c39 be3c 6696 74bb 9f0c 56bd dd6a c23c
00000030: 3b89 bb3d 9bcc 0abd 91fd c93d 888c 0e3c
00000040: c575 dabb 4314 6cbc 7c82 97bd dad7 7cbd
00000050: e7a1 093d e50c 94bb 6456 7f3d c5f5 90bd
00000060: 8630 a8bd a754 92bb 9c6f 90bd a111 553c
00000070: d51e 82bd b529 c3bd 348f e3bc b9e5 05bd
00000080: 1c9e 9f3d d86a 1d3d 0b8e 933d 2222 68bd
00000090: e67c 2d3c d040 233c 089d 2f3d 2f74 8c3d
000000a0: 9671 303d 4bd1 083c 9771 923c 2506 063d
000000b0: 588d 73bc b436 703c 5665 dd3c 4d14 9e3c
000000c0: 981f 173b bc0b ffbc 91a5 e7bd 10b1 7fbd
000000d0: 4813 ac3d 8d09 8a3d 4bc0 c1bc 3d66 0fbd
000000e0: 6957 843d 0967 5e3c f7d5 6fbd cbf7 e83c
000000f0: 93c5 20bd 8422 0cbc 08a0 f63c 20a6 553c
00000100: 2a12 6ebd be57 e6bd 9e4c ec3c efa6 7abc
00000110: 4538 45bc f06a 94bd 6bde a73c f423 f33c
00000120: 16c2 a0bc a7d0 893d d7d6 a1bc 217a 063d
00000130: ea3d 633c 1127 b7bc f4eb 66bd 0c1f aabd
00000140: cbc7 f83b 90a8 7cbd 3ee3 923d cf2f a43c
00000150: 286e a2bd 6bd9 06bd 2f3a db3c 86f8 3b3d
00000160: 770f dfbd e08d 85bd 6b4f abbd 82d7 ebbc
00000170: 80a7 18bd eb25 5cbd b988 16bd 4e4f afbc
00000180: 22de 953d b83d d1bd 86f2 9a3d bd3a c3bc
00000190: a23f 0e3d bc53 f8bb 2e6c 8dbd 7a2c 353d
000001a0: 169c 263d 36c4 3cba 0160 a53d e7c1 223d
000001b0: edb4 77bc 7bb0 b7bc c666 813d 21ce dabd
000001c0: 0074 28bd dcac b9bc af0f 8fbd 1e51 c9bc
000001d0: 9868 d63c 7af4 36bd 8263 80bc 7ad8 93bd
000001e0: 151b 9c3c 6f71 533d 61e1 a33d a6ec c83d
000001f0: db32 403b 3ac3 5abd 7f43 ec3c c356 84bc
00000200: be5b 95bd c000 3e3b 6a5e be3c c246 483c
00000210: 3242 103c a999 413d 769c 463d 6b82 243d
00000220: d3ad c2bc 399a c43c 9619 923c 1353 7f3d
00000230: 3e1e 5b3d ddf8 983d 9c09 833d e27f 733d
00000240: 8087 42bd f110 503d 25c2 213d ad6f 883d
00000250: 68ba af3c 7651 47bd 0a10 75bd 5d75 b2bd
00000260: f1ac 8f3d 28fa c3bd 2625 b1bd 2ea7 91bd
00000270: 969e 833d 5854 15bd e4c4 c93d 0dea 94bc
00000280: f74b 8c3d 9840 0abd b28b 6e3c 9866 90bd
00000290: 5438 bf3d a439 aa3d 9c6c 6dbd 6a6b e4bc
000002a0: 4ddf f93c 57c3 a0bd f41e 44bc 61de 213d
000002b0: f02b 34bd 809b a83c dce6 5abd ab4a 5dbd
000002c0: e40a b13d f68f c53c 3d6d 883d ebab a7bd
000002d0: 13cc 753c 4342 a53d 0f27 d6bd a274 be3c
000002e0: a65f 3d3c f704 62bc 1335 85bd 69f3 933d
000002f0: 7a96 ce3d f752 843d 24e0 abbd 8981 21bb
00000300: 3c36 693c 6d19 c63d be71 a13d 504a b4bd
00000310: 3986 bcbd 36b3 ccbc d615 a6bd 2f5a 4cbc
00000320: d3ae 203d 7563 37bd 77e8 b43d 489f d3bd
00000330: 2afe e73c bdba a73d 689d 06bd 2d31 913d
00000340: 63bf 763d 1a95 683d dad2 81bd 9239 923d
00000350: 7fb7 643d 18b2 5f3c db57 4abd 4f29 c23c
00000360: 686a 03bd 0b5b 9c3d 12e6 b4bd 2c37 9fbd
00000370: b096 8d3d e51e 753c 0da6 243d b9eb 4bbd
00000380: f4c4 41bd e1fa 533d 98d9 073d b48e 993d
00000390: de87 323c d956 4abd 70a6 d83c eb70 48bd
000003a0: 1f4a a33d 0f4b 62bd 80d3 d93d 05e4 abbd
000003b0: f51b 083d a0e4 6abb 2408 283d d252 373d
000003c0: 2159 87bd efbc 9d3c 8701 553d e93b bc3d
000003d0: 39d8 1cbc 004a 2a3d a01a 2fbd 73c2 5e3d
000003e0: aea0 2ebd 4501 03be d5cf 9ebc 4044 6c3d
000003f0: c961 563d 0783 15bd b7f5 823c cbaf 9c3d
