checkpoints/bpm_regressor.pt (torch, 978383 bytes, 17 tensors)

conv1d.0.weight f4 [64, 7, 3]
0	0xbccbd071	-0.024879666
1	0x3e08b5f8	0.13350666
2	0xbf120248	-0.5703473
3	0x3dae4e02	0.085109726
4	0x3e8c18f1	0.2736278
5	0xbd8e30d3	-0.06942906
6	0xbf0f7f45	-0.5605357
7	0xbe86599a	-0.26240236
8	0xbec4b692	-0.3842054
9	0x3ea0ba82	0.31392294
10	0xbd9dbd55	-0.07702128
11	0x3ec55718	0.3854301
12	0x3e1eaef1	0.15496422
13	0x3e8cbfea	0.2749017
14	0x3efa011e	0.48828977
15	0x3e743008	0.23846447
16	0x3e888163	0.26661214
17	0x3ea97762	0.33098894
18	0x3e308fa3	0.17242293
19	0x3eea00c3	0.45703706
20	0x3c686648	0.014184542
21	0x3e93d22d	0.2887129
22	0x3c4a4822	0.012346299
23	0xbe026bd3	-0.12736444
24	0x3ee85000	0.45373535
25	0x3dc917ee	0.09819017
26	0x3dd258bd	0.10270832
27	0xbf13816a	-0.57619345
28	0x3e2aac16	0.16667208
29	0xbc777942	-0.015104594
30	0x3e4828cd	0.19546814
31	0x3ee21739	0.44158342
32	0x3d45c063	0.048279177
33	0x3ebf83c6	0.37405223
34	0x3e7d876b	0.24758689
35	0x3edb5cad	0.42844144
36	0xbd0fd2e7	-0.03511324
37	0xbe22584c	-0.15853995
38	0xbc02fe19	-0.007995152
39	0xbd128cda	-0.035778858
40	0xbe712f30	-0.23553157
41	0x3ed92e61	0.42418197
42	0x3f0bbefe	0.54588306
43	0x3eb10ce2	0.3458014
44	0xbe030697	-0.12795483
45	0xbf070d80	-0.52754974
46	0x3e188418	0.1489414
47	0x3d86839f	0.065680735
48	0x3d672565	0.056432147
49	0xbdadad1d	-0.08480284
50	0x3e572191	0.21008898
51	0xbd9e8c22	-0.07741572
52	0x3ddac34a	0.1068178
53	0x3dc29c49	0.09502465
54	0xbdfbb7db	-0.12290927
55	0x3d1c90d1	0.038224045
56	0x3eb38e81	0.3506966
57	0xbe962413	-0.29324397
58	0x3eaf22cc	0.34206235
59	0xbdde0941	-0.10841609
60	0xbea49cd5	-0.32150903
61	0x3e694f95	0.22784264
62	0xbe141046	-0.14459333
63	0x3edde7fb	0.4334105
64	0xbe10106c	-0.14068764
65	0x3dacb328	0.08432609
66	0x3ed9a57c	0.42509067
67	0x3df9b9a8	0.12193614
68	0xbd2f409e	-0.042786233
69	0x3e8161b7	0.25269863
70	0xbf01c5f6	-0.5069269
71	0xbe8a35a9	-0.26994064
72	0x3e8db59b	0.27677616
73	0x3ed03a1f	0.40669343
74	0xbe7f94d9	-0.24959125
75	0x3f252b8d	0.6451958
76	0x3dd53e8a	0.10412319
77	0x3eb9008c	0.3613323
78	0x3e4f311f	0.20233582
79	0xbc54e997	-0.012995145
80	0xbdf9bb3f	-0.121939175
81	0xbdde0249	-0.108402796
82	0x3daac8c9	0.08339078
83	0xbc76191e	-0.015020637
84	0xbf0ef265	-0.55838615
85	0x3ea80917	0.32819435
86	0xbf0ca456	-0.54938257
87	0xbe606991	-0.2191527
88	0x3ecb08ee	0.3965525
89	0x3eff3f9f	0.49853227
90	0x3f3e7edf	0.7441234
91	0xbeccaa06	-0.39973468
92	0xbecced45	-0.40024772
93	0xbe34c2ca	-0.17652431
94	0x3eb277da	0.34857064
95	0xbe86ef85	-0.26354614
96	0xbe6fb7bb	-0.23409931
97	0xbe810952	-0.25202423
98	0x3ebf0a86	0.37312716
99	0xbf0c432c	-0.54789996
100	0x3e26adc8	0.1627723
101	0x3db02bca	0.08602102
102	0x3d7c12f4	0.061541513
103	0xbe1f2315	-0.15540726
104	0x3d0cf0f1	0.034409467
105	0xbe381c78	-0.1797961
106	0xbea84690	-0.32866335
107	0x3eac24dc	0.3362187
108	0x3f29357f	0.66097254
109	0xbe79b511	-0.24385478
110	0xbe864211	-0.2622228
111	0xbf1a10ec	-0.6018207
112	0xbf358c8e	-0.70917594
113	0xbe9592e5	-0.29213634
114	0xbebb4db3	-0.36582717
115	0xbeb63aa5	-0.35591617
116	0xbe1ef867	-0.15524445
117	0xbe5f1666	-0.21785888
118	0xbe2a93fe	-0.16658017
119	0xbe6f3dc8	-0.23363411
120	0x3d8a4990	0.06752312
121	0x3ea5b1e3	0.3236228
122	0x3e14a5a2	0.14516309
123	0xbdf9b05e	-0.121918425
124	0xbee7570c	-0.451836
125	0x3de87318	0.113500774
126	0xbeb8d663	-0.36101064
127	0xbda5fe2d	-0.08105121
128	0x3f1dcf15	0.6164411
129	0xbe741df0	-0.23839545
130	0x3e3b6b07	0.18302546
131	0x3e2af9ef	0.16696905
132	0xbe49644e	-0.1966717
133	0x3e5d4778	0.21609294
134	0x3e801eb2	0.2502342
135	0x3e0b9c22	0.13633779
136	0x3d7c41cc	0.061586186
137	0xbe3740d5	-0.17895825
138	0x3f1a8208	0.6035466
139	0xbe1c24e5	-0.15248449
140	0xbe38232c	-0.17982167
141	0x3de1df15	0.11028878
142	0xbe448162	-0.1918998
143	0xbd4741a7	-0.048646595
144	0xbe3590a5	-0.17730959
145	0xbdbd3948	-0.09239441
146	0xbe453e70	-0.192621
147	0x3dd270cf	0.10275423
148	0x3c6f1c31	0.014594124
149	0xbe81b688	-0.25334573
150	0x3e10f2eb	0.14155166
151	0xbd191b57	-0.03737959
152	0x3d1f4106	0.03888037
153	0x3ecada20	0.3961954
154	0xbecdab7a	-0.4016989
155	0x3dbb1b1c	0.0913603
156	0x3e031f20	0.12804842
157	0x3ebcecd8	0.36899447
158	0x3ed953c6	0.42446727
159	0x3e20d629	0.15706696
160	0xbda27f34	-0.07934418
161	0x3eae1bfb	0.34005722
162	0xbf1aca34	-0.6046479
163	0x3e18e239	0.14930047
164	0xbee22704	-0.44170392
165	0xbec1cc69	-0.37851265
166	0xbf1679b7	-0.5877947
167	0x3ef111dc	0.47083938
168	0x3ef7d613	0.48405513
169	0x3e6b5e25	0.22985132
170	0x3ec6f2e3	0.38857183
171	0xbf391b8d	-0.72307664
172	0x3e15b8c9	0.14621271
173	0xbd845f35	-0.06463472
174	0xbd935530	-0.071939826
175	0xbef92362	-0.48659807
176	0x3e8e1ebd	0.27757826
177	0x3e2ef548	0.17085755
178	0xbeefc4a9	-0.46829727
179	0x3e93a127	0.28833887
180	0xbdadacff	-0.08480262
181	0x3eb6224e	0.35573047
182	0x3eac999d	0.33710948
183	0x3d8dafe3	0.06918313
184	0x3daf7bc3	0.085685275
185	0xbeda976b	-0.42693648
186	0xbd8f93fd	-0.070106484
187	0xbe49d1a0	-0.19708872
188	0xbea83956	-0.32856244
189	0x3e732d4f	0.23747753
190	0x3ea0a466	0.31375426
191	0xbe255eef	-0.16149496
192	0x3e61b87a	0.22043028
193	0x3d3f30ee	0.046677522
194	0xbf102873	-0.5631172
195	0x3f0e6bae	0.55633056
196	0x3f45e680	0.7730484
197	0xbe00d740	-0.12582111
198	0xbf18225c	-0.5942743
199	0x3ed1c9e5	0.40974346
200	0x3e81b917	0.25336525
201	0x3eb1a75a	0.34697992
202	0x3e535d03	0.2064095
203	0xbc37d3c3	-0.0112199215
204	0xbeab8b81	-0.3350487
205	0x3ec4ecc0	0.38461876
206	0x3e65275d	0.22378297
207	0xbd58801a	-0.052856542
208	0x3d7fef96	0.062484346
209	0xbf0bb029	-0.54565674
210	0x3e7bfe46	0.24608716
211	0xbeede93e	-0.46467012
212	0x3f1b06ff	0.6055755
213	0xbea6c211	-0.32569936
214	0x3ece3a6c	0.40278947
215	0xbec424cb	-0.3830932
216	0x3e66e145	0.22546871
217	0x3dba901c	0.09109518
218	0x3f01b191	0.5066157
219	0x3ea9b59e	0.33146375
220	0x3e54771b	0.2074856
221	0xbe82551c	-0.25455558
222	0x3ea11900	0.31464386
223	0x3daf0f69	0.08547861
224	0xbba8b619	-0.005148661
225	0x3f15016c	0.58205295
226	0x3e3388a3	0.17532592
227	0xbe417631	-0.18892743
228	0x3e994b91	0.29940465
229	0xbe2e3dbe	-0.1701574
230	0xbdb08e52	-0.086208954
231	0xbe991400	-0.2989807
232	0x3cf83fd3	0.030303871
233	0x3ed453b6	0.41470116
234	0xbe86a76c	-0.26299608
235	0x3ed093d0	0.40737772
236	0x3e6aa5a8	0.22914755
237	0x3d4c5e35	0.04989453
238	0xbe90f937	-0.28315136
239	0xbeb4a753	-0.35283908
240	0xbedda102	-0.43286902
241	0x3db4dec5	0.088315524
242	0x3e8ff0e0	0.2811346
243	0xbd604f48	-0.05476311
244	0x3e9bc261	0.30421737
245	0xbe75cca2	-0.24003842
246	0xbe1ae712	-0.15127209
247	0x3ed168c5	0.40900245
248	0x3ca55e5d	0.020186597
249	0x3ed23b0a	0.41060668
250	0xbe53e45d	-0.20692582
251	0xbf0cbeeb	-0.5497882
252	0xbb3f416c	-0.0029183282
253	0x3f5ac493	0.854562
254	0x3dbc26f2	0.09187116
255	0x3dbde234	0.092716604

conv1d.0.bias f4 [64]
0	0x3b55d94f	0.0032630747
1	0x3b5c1494	0.0033581601
2	0x3bcf76a4	0.0063312817
3	0xbbeed6fe	-0.0072888127
4	0xbba3de30	-0.005000852
5	0x3bf0c3c7	0.007347557
6	0x3bcb042e	0.0061955666
7	0xbc8eef28	-0.017448023
8	0x3c488001	0.01223755
9	0x3b019326	0.0019771545
10	0x3c007912	0.007841365
11	0xbba7067d	-0.005097209
12	0x3c139a43	0.009008947
13	0xbb9a8414	-0.004715452
14	0xba36deec	-0.0006975967
15	0x3b3176d1	0.0027078877
16	0x3bbbff3c	0.0057372134
17	0xbc16881b	-0.0091877235
18	0xbc874510	-0.016512424
19	0x3c1d406e	0.009597881
20	0xbc255f24	-0.010093484
21	0xbccb2861	-0.024799528
22	0x3cf2996e	0.029614177
23	0xbc858c45	-0.016302237
24	0x3be076ff	0.006850123
25	0x3be001f8	0.006836172
26	0xbbd02112	-0.0063515985
27	0x39c5b0bd	0.00037706448
28	0x3babd22f	0.0052435617
29	0xbc7c6b7a	-0.015406484
30	0xbc0aa396	-0.0084618535
31	0x3bd0b9f5	0.006369824
32	0x3b187d75	0.0023268138
33	0x3d070fa8	0.032973915
34	0x3c0e1eaa	0.008674303
35	0x3ad5f95c	0.0016324925
36	0xbc950e23	-0.018195217
37	0x3bcadc3f	0.006190806
38	0x3b866bc8	0.004102204
39	0x3c79b349	0.015240499
40	0x3c0194f3	0.007909047
41	0xbac329c3	-0.0014889765
42	0x3bd0af77	0.0063685733
43	0x3c01ceb2	0.007922815
44	0x3b7fb236	0.0039016134
45	0xbbddd292	-0.0067694867
46	0x3a075629	0.000516268
47	0xbaf63170	-0.0018783044
48	0x3be2a8c0	0.006917089
49	0xbc5e0e69	-0.01355324
50	0xbb81b893	-0.0039587705
51	0xbb425a5a	-0.0029655905
52	0x3c3b091b	0.011415745
53	0xbc13b9ee	-0.009016497
54	0x3c080407	0.008301741
55	0x3c344607	0.011003024
56	0xbc36606f	-0.01113139
57	0xbc2076a4	-0.009793911
58	0x3c86f29b	0.016473105
59	0xbb5951fa	-0.0033160434
60	0xbc2de597	-0.0106138205
61	0x3cb28204	0.021790512
62	0x3b4decfa	0.0031421767
63	0x3bcc6fac	0.0062388983

conv1d.4.weight f4 [64]
0	0x3f808112	1.0039389
1	0x3f807c8b	1.0038007
2	0x3f7efc44	0.99603677
3	0x3f7f482c	0.997195
4	0x3f7f213b	0.9966008
5	0x3f807f07	1.0038766
6	0x3f8068fb	1.0032037
7	0x3f7e00bb	0.99219865
8	0x3f80df5d	1.0068165
9	0x3f8108b6	1.0080783
10	0x3f80a818	1.0051298
11	0x3f80ace3	1.0052761
12	0x3f822361	1.0167047
13	0x3f830a24	1.023747
14	0x3f80d0a1	1.0063668
15	0x3f80920d	1.0044571
16	0x3f800bc5	1.0003592
17	0x3f807014	1.0034204
18	0x3f7fe366	0.9995636
19	0x3f808854	1.0041604
20	0x3f80f207	1.0073861
21	0x3f7e50c3	0.9934198
22	0x3f80f059	1.0073348
23	0x3f7f89ae	0.9981946
24	0x3f806608	1.0031137
25	0x3f8037d4	1.0017037
26	0x3f802c4d	1.001352
27	0x3f8167d8	1.0109816
28	0x3f7ffba1	0.9999333
29	0x3f7d7411	0.9900523
30	0x3f8dd33b	1.1080087
31	0x3f80d21d	1.0064121
32	0x3f7e7e10	0.99411106
33	0x3f7ec715	0.99522525
34	0x3f806a2a	1.0032399
35	0x3f801895	1.0007502
36	0x3f7e57bb	0.99352616
37	0x3f7feccd	0.99970704
38	0x3f801a74	1.0008073
39	0x3f7f0d93	0.9963009
40	0x3f80770e	1.0036333
41	0x3f818999	1.0120116
42	0x3f7ffb18	0.99992514
43	0x3f803d61	1.0018731
44	0x3f80c04a	1.0058682
45	0x3f8043e0	1.0020714
46	0x3f7f5dc5	0.99752456
47	0x3f81732a	1.011327
48	0x3f8235a5	1.0172621
49	0x3f7ee029	0.9956079
50	0x3f7f6b6e	0.997733
51	0x3f80bae6	1.0057037
52	0x3f7fabb3	0.9987137
53	0x3f805269	1.002515
54	0x3f809f43	1.0048603
55	0x3f7f9573	0.99837416
56	0x3f7efa86	0.9960102
57	0x3f82155f	1.0162772
58	0x3f7e81d2	0.9941684
59	0x3f816bfd	1.011108
60	0x3f814521	1.0099221
61	0x3f7ed02e	0.99536407
62	0x3f803974	1.0017533
63	0x3f80c275	1.0059344

conv1d.4.bias f4 [64]
0	0x3a54d85b	0.00081193977
1	0x3a45a65c	0.0007539743
2	0x3c090e32	0.008365201
3	0xbc23bdb7	-0.009993962
4	0x3b0f542d	0.002187024
5	0xbb4c73bb	-0.003119691
6	0xba04a774	-0.0005060353
7	0xbb93c21b	-0.004509223
8	0xb91eafc3	-0.0001513353
9	0xb9db2e6f	-0.0004180553
10	0x3b1c7611	0.0023874084
11	0xbb9f12ad	-0.0048545212
12	0x3a6841a1	0.0008859877
13	0x3b1d8bac	0.002403955
14	0xbb404aa2	-0.002934136
15	0x3aee090f	0.0018160659
16	0x3b3d6048	0.00288965
17	0x3b9dc856	0.0048151417
18	0x38ae0b62	8.299087e-05
19	0xbb5509e9	-0.0032507128
20	0xbc10f6d9	-0.008847916
21	0x3b6e1fe4	0.0036334926
22	0xbbeb61fd	-0.007183312
23	0x3ab4bc37	0.0013789003
24	0xbb19fccf	-0.0023496633
25	0xbb024339	-0.0019876494
26	0xbb0f3430	-0.0021851175
27	0xba1f8df8	-0.00060865236
28	0x3a0c790c	0.00053586136
29	0xbc1b6aa7	-0.009485877
30	0xbb2609d9	-0.002533546
31	0x3a996b14	0.0011704885
32	0x3ba2a635	0.004963661
33	0x3bb91eac	0.0056494083
34	0xbaf55368	-0.0018716874
35	0xb802a088	-3.114392e-05
36	0xbc0b1f28	-0.008491315
37	0x3b7fb418	0.0039017256
38	0xbb1b8715	-0.0023731638
39	0x3b9c81f0	0.004776232
40	0xbb0d1c83	-0.0021531887
41	0x3bb932e0	0.0056518167
42	0x3a80baa1	0.0009821245
43	0xbad7db45	-0.0016468546
44	0x3b5e52a1	0.0033923762
45	0xbaa4790b	-0.0012548281
46	0xbac608b7	-0.0015108798
47	0x3b6035f2	0.0034211841
48	0x39a1efcf	0.00030886984
49	0xbb839c18	-0.0040164106
50	0xbafcc045	-0.0019283375
51	0x3b9fc78d	0.004876083
52	0x3b5492c6	0.0032436117
53	0xb8e726f2	-0.000110221925
54	0x3b73c7f0	0.003719803
55	0x3b5959ab	0.0033165019
56	0xbbc8a171	-0.006122761
57	0xbb4c0e85	-0.0031136584
58	0x3c1fce90	0.009753838
59	0x3aa30e79	0.0012440226
60	0xbbdcfa22	-0.0067436853
61	0x3be9fb99	0.0071405885
62	0xb9c5875f	-0.00037675627
63	0xbb8ac5bd	-0.004234998

lstm.weight_ih_l0 f4 [512, 64]
0	0xbd9f829f	-0.07788586
1	0xbd320504	-0.043461815
2	0xbd2d0089	-0.04223684
3	0xbd965cd6	-0.07341926
4	0xbce21f55	-0.02760283
5	0xbcb5997b	-0.022167912
6	0x3ce3b224	0.027794905
7	0x3de407b6	0.11134283
8	0xbd2950eb	-0.041336935
9	0x3d17b0bd	0.037033785
10	0xbcf2045c	-0.029543094
11	0xbd42c49b	-0.04755078
12	0x3d9a2f2b	0.07528528
13	0x3d0daf06	0.034590743
14	0xbcbc5f8e	-0.022994783
15	0xbda57f64	-0.080809385
16	0xbc44f323	-0.012020859
17	0x3d88eca1	0.066857584
18	0xbd9820b4	-0.074281126
19	0xbdd231df	-0.102634184
20	0xbc6af471	-0.014340506
21	0x3cc60c14	0.024175681
22	0x3d8289e9	0.063739605
23	0x3d86d521	0.0658362
24	0x3d724db1	0.059156124
25	0xbd5ff2cc	-0.05467491
26	0x3c8af789	0.016963737
27	0xbd1d2aaf	-0.038370784
28	0xbd630e30	-0.055433452
29	0xbd358ade	-0.044321887
30	0xbd30b589	-0.043141875
31	0x3d947903	0.07249644
32	0xbce592a2	-0.028024022
33	0x3d4a64bb	0.04941247
34	0xbdd410b5	-0.10354749
35	0xbd49033d	-0.049075354
36	0xbd404391	-0.046939436
37	0xbd11c604	-0.035589233
38	0xbd1dfad7	-0.038569298
39	0xbd1c54be	-0.038166754
40	0x3d23f9dc	0.040033206
41	0x3cfef056	0.03112046
42	0xbcd86674	-0.026416041
43	0x3d967046	0.07345633
44	0xbddb30f7	-0.10702699
45	0xbdce488b	-0.1007243
46	0x3d166c6d	0.036724497
47	0xbd381782	-0.044944294
48	0xbda24d11	-0.079248555
49	0xbd995d7a	-0.07488532
50	0x3d2bb345	0.04191901
51	0xbcfcdb6b	-0.030866345
52	0xbdbfbc20	-0.09362054
53	0xbd052ab2	-0.03251142
54	0x3d2edda1	0.04269183
55	0xbcb3a966	-0.021931361
56	0x3d764819	0.06012735
57	0xbd859530	-0.06522596
58	0xbc62408c	-0.0138093345
59	0xbcaf6014	-0.021408118
60	0xbc3c5e2e	-0.011497064
61	0x3ca6f114	0.020378627
62	0xbd515096	-0.051102243
63	0x3d942263	0.07233121
64	0xbdc3f45d	-0.09568093
65	0xbc2efedb	-0.0106808795
66	0x3bc7e5d7	0.006100397
67	0xbba45c09	-0.0050158543
68	0x3db88014	0.09008804
69	0x3d3ab0f9	0.04557893
70	0x3d58e140	0.05294919
71	0x3b298660	0.0025867447
72	0x3cc4890e	0.023991134
73	0x3c2bc2af	0.010483428
74	0x3c148942	0.009065928
75	0x3d65c1fa	0.056093194
76	0x3d387ea7	0.04504266
77	0x3cd73342	0.026269559
78	0x3d0d0682	0.034430034
79	0xbbfa8478	-0.007645186
80	0xbd96afac	-0.073577255
81	0x3d97a065	0.0740364
82	0x3d490f58	0.0490869
83	0x3cd0d21e	0.025490817
84	0x3ccdfc86	0.025144827
85	0x3dc8983b	0.09794661
86	0x3d93fffc	0.072265595
87	0x3d85331b	0.06503888
88	0x3db43109	0.08798415
89	0x3d8c317a	0.068453744
90	0xbdbcda20	-0.092212915
91	0x3db9b98f	0.090685956
92	0x3d89e662	0.06733395
93	0x3da8a3c3	0.0823436
94	0xbdc1b9c2	-0.094592586
95	0xbaf5b40b	-0.0018745674
96	0x3c358230	0.011078402
97	0xbca8d0b8	-0.020607337
98	0xbd829023	-0.06375148
99	0x3d0c1d1a	0.03420744
100	0xbdb08170	-0.08618438
101	0x3d8fa05e	0.070130095
102	0x3db1b01c	0.08676168
103	0x3d3c5a72	0.045984693
104	0x3d8fa451	0.07013763
105	0xbd3128d1	-0.043251816
106	0xbdcf501d	-0.10122702
107	0x3ba7867b	0.005112467
108	0x3cb81860	0.02247256
109	0x3d4b09f8	0.049570054
110	0x3da3a352	0.07990135
111	0xbc818c7e	-0.015814062
112	0x3c91b91e	0.017788466
113	0x3d95edf9	0.0732078
114	0xbd842ec9	-0.06454236
115	0x3c756d25	0.014979635
116	0x3d16f499	0.03685436
117	0x3dcaf189	0.099093504
118	0x3db114aa	0.086465195
119	0x3da3ff52	0.08007683
120	0xbc671b31	-0.014105604
121	0x3c749598	0.014928244
122	0xbdd99093	-0.106232785
123	0xbd752dd1	-0.059858147
124	0x3d297e40	0.041380167
125	0x3d6d71ee	0.05796998
126	0xbdbab4a6	-0.09116487
127	0xbd7fb07d	-0.06242417
128	0x3c62cc79	0.013842695
129	0xbd324277	-0.043520417
130	0x3d33e6c6	0.043921255
131	0xbd5b7f8c	-0.053588435
132	0xbd945ea3	-0.07244613
133	0x3d88ed36	0.066858694
134	0xbde961d2	-0.11395611
135	0x3daeb861	0.08531261
136	0xbdd2b0f3	-0.10287657
137	0x3d1eae87	0.03874066
138	0x3d86474c	0.065565675
139	0x3d8dbba1	0.06920553
140	0x3d96142a	0.07328065
141	0x3d5b0ef7	0.05348107
142	0x3d8b0b62	0.067892805
143	0xbd8a4833	-0.06752052
144	0x3dd4a8c5	0.10383753
145	0x3ab15c4f	0.0013531538
146	0xbcc4a004	-0.024002083
147	0x3d3c99d7	0.04604515
148	0xbd954d9d	-0.07290194
149	0x3d79002d	0.060791183
150	0xbd88a70f	-0.06672489
151	0x3db03313	0.08603492
152	0x3d9e3c18	0.07726306
153	0x3db80418	0.08985156
154	0xbd8feaa7	-0.07027178
155	0x3d7b2f91	0.06132466
156	0x3dd3b464	0.10337141
157	0x3d43f96e	0.047845297
158	0xbc994193	-0.018708026
159	0xbdb30f2c	-0.08743128
160	0x3d11439c	0.035464868
161	0xbda11050	-0.078644395
162	0x3d5b07c0	0.053474188
163	0x3d7e884c	0.0621417
164	0xbc1b4e82	-0.009479167
165	0xbd9acc88	-0.075585425
166	0x3d9fa7bd	0.077956654
167	0x3d5a5738	0.053305835
168	0xbd0ff5cd	-0.035146523
169	0x3da8b48f	0.08237564
170	0xbc6fb34d	-0.014630151
171	0xbd52e475	-0.051487405
172	0x3c2bcdd8	0.010486089
173	0x3da06483	0.07831671
174	0x3de08b5a	0.10964079
175	0xbdb5b361	-0.088721044
176	0x3d8b02a2	0.067876115
177	0x3cfc95f7	0.030833228
178	0x3d8e089e	0.06935237
179	0x3dfc8ffa	0.12332149
180	0x3da86b1a	0.08223553
181	0x3d8194a4	0.06327179
182	0xbcd16f81	-0.025565865
183	0x3cd86942	0.026417378
184	0xbda14aad	-0.078755714
185	0xbdc391f4	-0.09549323
186	0x3cfca2f6	0.030839425
187	0x3db709ef	0.089374416
188	0xbd95f40e	-0.0732194
189	0xbdbcdbd5	-0.09221617
190	0xbbcd5ccf	-0.006267167
191	0x3d4b8581	0.049687866
192	0xbb2e38a9	-0.0026584065
193	0x3daa17d0	0.08305323
194	0x3db4fbd3	0.08837094
195	0xbd56f711	-0.052481715
196	0x3d131ba2	0.035915025
197	0x3a9defd9	0.001204963
198	0x3c9d7b0a	0.019223709
199	0xbd52a2ce	-0.051424794
200	0xbd8271cf	-0.063693635
201	0x3da7a61b	0.08185979
202	0x3d4647b2	0.048408218
203	0x3d3d3a33	0.04619808
204	0xbc052b1e	-0.008127956
205	0xbce20a16	-0.0275927
206	0x3d8b6b46	0.0680757
207	0xbcf5c2ac	-0.030000053
208	0xbcfbf011	-0.030754121
209	0xbd0b8e8e	-0.034071498
210	0x3ba24455	0.0049519935
211	0xbd170600	-0.036870956
212	0xbdc0612e	-0.093935356
213	0xbd900864	-0.070328504
214	0x3ccaa1c4	0.024735339
215	0x3c6c59d4	0.014425714
216	0x3d6ce5b7	0.05783626
217	0x3dcf797b	0.101305924
218	0xbd378d1a	-0.0448123
219	0xbbc0062f	-0.005860112
220	0xbcef8877	-0.029239876
221	0x3d1a367a	0.03764961
222	0xbdcbe4d4	-0.09955755
223	0xbd8d74b9	-0.06907029
224	0x3d021886	0.03176167
225	0x3dadf27b	0.08493515
226	0x3cfc72f1	0.030816527
227	0x3c57375d	0.013135758
228	0x3ba792a0	0.0051139146
229	0x3d9c8419	0.07642383
230	0x3d983c81	0.07433415
231	0xbb4876f3	-0.0030588477
232	0xbd8ad90d	-0.067796804
233	0x3d9e160e	0.0771905
234	0x3cf2cc17	0.029638333
235	0x3d8f4336	0.06995241
236	0x3dc13c2f	0.09435307
237	0xbd820860	-0.06349254
238	0xbc093992	-0.008375542
239	0x3b3a3bc6	0.0028416975
240	0x3dcaee03	0.099086784
241	0xbd61ee1c	-0.05515872
242	0x3d86b4b3	0.065774344
243	0x3dcdb848	0.100449145
244	0x3c820a8a	0.015874166
245	0xbdaa7588	-0.083231986
246	0x3d854910	0.06508076
247	0xbd885460	-0.06656718
248	0xbce8d7a0	-0.02842313
249	0xbde03d87	-0.109492354
250	0xbdbaeb09	-0.09126861
251	0x3da795c5	0.08182863
252	0xbcbf087b	-0.023319473
253	0xbc6b63ed	-0.014367086
254	0xbdb4ea27	-0.088337235
255	0x3c154c2a	0.009112397

lstm.weight_hh_l0 f4 [512, 128]
0	0xbd852557	-0.06501263
1	0x3db7c346	0.08972792
2	0x3dd28960	0.102801085
3	0x3d4f5ed2	0.050627537
4	0x3d893971	0.06700409
5	0xbd39a371	-0.045321885
6	0x3c33279e	0.010934738
7	0xbd860577	-0.06544011
8	0xbd8dbf73	-0.06921282
9	0x3db3f3f9	0.087867685
10	0x3d64271e	0.055701368
11	0xbc342210	-0.010994449
12	0x3d8e1d35	0.069391645
13	0xbd755cb8	-0.059902877
14	0x3dca8c1e	0.098900065
15	0xbddf6204	-0.10907367
16	0x3d625d85	0.05526497
17	0xbccda29a	-0.025101949
18	0xbd91acb3	-0.07113018
19	0xbd995382	-0.07486631
20	0xbdbb239e	-0.09137653
21	0x3d9f5d71	0.077814944
22	0xbce7097e	-0.028202768
23	0x3d0399d8	0.03212914
24	0xbceaeda5	-0.02867777
25	0x3d5d9a6a	0.05410234
26	0x3cd6f736	0.026240926
27	0xbc190d5c	-0.009341564
28	0x3d64d1b7	0.055864062
29	0x3d6f58f0	0.058434427
30	0x3d7883af	0.06067246
31	0x3d46159f	0.048360463
32	0xbd4f03e8	-0.050540835
33	0xbd9c2bb8	-0.07625526
34	0xbd3ca255	-0.04605325
35	0x3da08dce	0.07839547
36	0xbd501353	-0.05079968
37	0x3d357e1c	0.04430972
38	0xbd234c1b	-0.0398675
39	0xbd29ce62	-0.041456588
40	0xbd8da09a	-0.06915398
41	0xbd933716	-0.07188241
42	0xbd63f975	-0.055657823
43	0x3d4d489b	0.05011807
44	0x3d320785	0.043464202
45	0xbdce71cb	-0.10080298
46	0xbdca4d73	-0.098780535
47	0x3d88faae	0.06688438
48	0xbd759ed3	-0.05996592
49	0xbc958c97	-0.018255515
50	0x3bb755fe	0.005594968
51	0xbd904a82	-0.07045461
52	0x3d962341	0.07330943
53	0xbd188a49	-0.037241254
54	0xbd538be1	-0.05164707
55	0xbbc67d68	-0.00605743
56	0xbda537b4	-0.08067265
57	0x3d6fb58b	0.058522742
58	0xbcf5b960	-0.02999562
59	0xbd1f8cd6	-0.03895267
60	0x3c62e2d5	0.013848026
61	0x3da85cba	0.08220811
62	0x3d9a5a2d	0.07536731
63	0xbd20b48b	-0.03923468
64	0xbd75a75b	-0.059974056
65	0xbcf27b60	-0.029599845
66	0xbd50d237	-0.050981726
67	0x3d1d45d6	0.03839668
68	0x3be42712	0.0069626654
69	0xbd6f464b	-0.058416646
70	0x3ba76b4f	0.0051092277
71	0xbc45a7fa	-0.0120639745
72	0x3da7625d	0.08173058
73	0x3d144eba	0.036207892
74	0xbc8acd0b	-0.016943475
75	0xbd3cbeff	-0.046080586
76	0xbd2672cb	-0.04063682
77	0x3a66d6e8	0.0008805827
78	0xbdb03da7	-0.08605509
79	0x3d944dfc	0.07241437
80	0x3d8cf1f5	0.06882087
81	0x3da47304	0.0802975
82	0xbd8d6bff	-0.06905364
83	0x3d8b40cb	0.06799468
84	0xbcdcfbbf	-0.02697551
85	0xbdbbe56f	-0.0917462
86	0x3dc24fce	0.09487878
87	0xbc828547	-0.015932692
88	0xbd9c61f9	-0.07635874
89	0xbd80e62e	-0.06293903
90	0x3d8c0168	0.06836206
91	0x3d3c8dde	0.046033733
92	0x3d4f7b07	0.050654437
93	0xbc333db7	-0.010940007
94	0xbd995517	-0.07486933
95	0xbd866db1	-0.06563891
96	0xbda7d1e2	-0.08194329
97	0x3da6e1d8	0.08148545
98	0x3d1ad0c9	0.03779677
99	0xbd6bc8ec	-0.05756466
100	0x3da3e987	0.08003526
101	0xbd5cb534	-0.053883746
102	0xbcb56e97	-0.02214746
103	0xbd6330fc	-0.055466637
104	0x3d747bdb	0.05968843
105	0x3d45ae81	0.048262123
106	0xbd36ec2d	-0.04465883
107	0x3db72ff9	0.08944697
108	0xbd9c2e5e	-0.07626031
109	0x3c268679	0.010163897
110	0xbd8f7c3f	-0.0700612
111	0xbd9a88db	-0.07545634
112	0x3db4a3ce	0.08820306
113	0x3c81f6c7	0.015864743
114	0xbd722cc9	-0.05912474
115	0xbdc21e8f	-0.09478485
116	0x3da90571	0.08252991
117	0x3d2b706b	0.041855257
118	0x3d0a6b77	0.033793893
119	0xbd54d3c4	-0.051959768
120	0xbd7780c6	-0.060425542
121	0xbca27251	-0.019829901
122	0x3d177e7d	0.036985863
123	0xbdba189e	-0.090867266
124	0xbd645b64	-0.05575122
125	0x3db33102	0.08749582
126	0x3dbce710	0.09223759
127	0xbc481739	-0.012212568
128	0xbda1b4d5	-0.07895819
129	0xbcd39b00	-0.025830746
130	0x3d9fbf51	0.078001626
131	0x3dc597c5	0.09648088
132	0x3d8825b8	0.06647819
133	0x3d84e599	0.06489105
134	0x3dbbbdd3	0.091670655
135	0xbdcc7bf7	-0.09984582
136	0x3d9098e1	0.07060409
137	0x3b42e6fa	0.0029739724
138	0x3b4228d4	0.0029626386
139	0x3d1b11e0	0.037858844
140	0x3d5dfc98	0.05419597
141	0xbd1848f0	-0.037178934
142	0xbd9160fb	-0.07098576
143	0x3d1e2e5a	0.038618423
144	0xbae12762	-0.0017177875
145	0xbd91004c	-0.07080135
146	0xbd27ec51	-0.040996853
147	0xbc98d1fb	-0.018654814
148	0x3b4c3825	0.0031161394
149	0x3d5e2d54	0.054242447
150	0x3c02ef1a	0.007991577
151	0xbd855043	-0.06509449
152	0x3dad6473	0.08466425
153	0xbd46592d	-0.04842489
154	0xbd8e8fe2	-0.06961037
155	0x3c41b250	0.011822298
156	0xbcc166b7	-0.023608549
157	0x3d18b1df	0.037279006
158	0xbd35ccc4	-0.044384733
159	0x3c585070	0.013202772
160	0x3da1cdd0	0.07900584
161	0x3dc0269e	0.09382366
162	0xbd730f05	-0.059340496
163	0xbb9ddb3e	-0.0048173955
164	0xbd926b1f	-0.07149338
165	0x3d50b906	0.050957702
166	0xbdcc7532	-0.09983291
167	0xbc16ecd6	-0.0092117395
168	0xbc301423	-0.0107469885
169	0xbd50112b	-0.050797623
170	0xbd0c6bd5	-0.034282524
171	0xbcd2d270	-0.02573511
172	0xbd936e5b	-0.07198783
173	0xbbf91900	-0.007601857
174	0x3c25abb6	0.01011174
175	0xbd6d2bd6	-0.057903133
176	0xbd076315	-0.033053476
177	0x3ba399b2	0.004992687
178	0x3da01def	0.078182094
179	0xbd16bf71	-0.036803667
180	0xbdc42cba	-0.095788434
181	0x3d9302bd	0.07178257
182	0xbd94dc79	-0.07268614
183	0x3d79f956	0.0610288
184	0xbd69a213	-0.05703933
185	0xbab2de65	-0.0013646601
186	0xbc839a7d	-0.016064877
187	0xbdbe6cc1	-0.09298087
188	0x3d4c1b2f	0.04983061
189	0x3c8de918	0.017323062
190	0x3c4f44dc	0.012650695
191	0x3d35f15f	0.044419643
192	0x3bf1944e	0.0073724156
193	0xbdaeeb75	-0.085410036
194	0xbd96f6e2	-0.07371308
195	0x3d037c60	0.032101035
196	0x3bc74c1e	0.006082072
197	0x3d76468f	0.060125884
198	0xbd4dee73	-0.05027623
199	0x3db21387	0.08695131
200	0x3d71371e	0.058890454
201	0x3d86275e	0.065504774
202	0x3dc27e59	0.09496755
203	0xbbfd7de6	-0.0077359555
204	0x3d9e8ffa	0.07742305
205	0x3d3a3d9a	0.045468904
206	0x3d1e0dda	0.03858743
207	0x3d5aa624	0.0533811
208	0x3d8f158d	0.06986532
209	0xbcf8bb9f	-0.030362902
210	0xbd6f07dc	-0.058357105
211	0x3bf8dc29	0.0075946045
212	0xbcb87884	-0.022518404
213	0x3d02ee81	0.031965736
214	0xbdcbf71a	-0.0995924
215	0x3b469a0a	0.0030304217
216	0xbc5a2a95	-0.013315816
217	0x3d4dff6f	0.05029243
218	0xbda57b86	-0.08080201
219	0x3d50e4db	0.050999504
220	0x3da647b7	0.08119147
221	0x3d7492b1	0.05971021
222	0x3d956da4	0.07296303
223	0xbd59f925	-0.05321612
224	0x3d773061	0.060348872
225	0xbbe2c582	-0.0069205174
226	0xbdb33cf4	-0.0875186
227	0x3dcc2677	0.09968274
228	0x3d752528	0.059849888
229	0xbd7e5a95	-0.062098105
230	0xbd3c96e9	-0.046042357
231	0x3c832311	0.016007932
232	0x3d8743a4	0.06604698
233	0x3b9eb3ab	0.0048431954
234	0xbd96faff	-0.073720925
235	0xbd0beeb0	-0.034163177
236	0xbcfea18f	-0.031082897
237	0x3cd996b8	0.026561126
238	0xbdb8e94b	-0.09028872
239	0xbd313d88	-0.04327157
240	0x3bab8bcc	0.005235171
241	0xbdbb1a70	-0.09135902
242	0x3b87549e	0.00412996
243	0x3da80fd1	0.08206142
244	0xbdae4d7e	-0.08510874
245	0xbdef5b01	-0.116872795
246	0x3d14ea9a	0.036356546
247	0x3d83a5b2	0.06428088
248	0xbce96dbf	-0.028494714
249	0xbda0e6b0	-0.078565
250	0x3d8566fd	0.06513784
251	0xbd563baf	-0.052303012
252	0xbda2d840	-0.07951403
253	0x3d92af9b	0.071624
254	0xbd68db29	-0.056849632
255	0xbd9bcce0	-0.07607436

lstm.bias_ih_l0 f4 [512]
0	0x3ba6c6e7	0.005089629
1	0x3b55e5cb	0.0032638188
2	0x3c579c38	0.013159804
3	0x3b9b1767	0.0047330144
4	0x3bc602fc	0.0060428362
5	0x3b4d5ef1	0.0031337107
6	0x3aa28647	0.0012399637
7	0x3cfc13d1	0.030771168
8	0x3c0028ea	0.007822255
9	0x399f62c0	0.00030400418
10	0xba93c5a9	-0.0011274117
11	0xbac9d63d	-0.0015398931
12	0x3acb497b	0.001550957
13	0xbb26f82f	-0.0025477519
14	0x3c6db14a	0.014507601
15	0x3ba4f921	0.0050345813
16	0xbbe3a56e	-0.006947211
17	0xbb39dac0	-0.0028359145
18	0xb9ae0520	-0.00033191685
19	0x3b98fee1	0.004669056
20	0xbba6e104	-0.005092742
21	0x3ab9dfa4	0.001418103
22	0xbc2472e0	-0.010037154
23	0x3be6a8b0	0.007039152
24	0xbb4f9d19	-0.003167933
25	0x3b903984	0.0044013876
26	0xbc08eb60	-0.008356899
27	0x3ab9dad4	0.0014179596
28	0xbb2daad9	-0.0026499538
29	0x3b9b03d1	0.0047306796
30	0x3abe67d7	0.0014526796
31	0x3b96e050	0.004604377
32	0x3a51a284	0.0007996934
33	0xbb3afc99	-0.0028531908
34	0xbbab74c2	-0.0052324245
35	0xbb1c1737	-0.0023817548
36	0x3adc97dc	0.0016829926
37	0x3bd18bff	0.0063948627
38	0xbb89d78d	-0.004206604
39	0x3b437873	0.0029826432
40	0x3c1c7443	0.009549203
41	0xbbd4ba9c	-0.006491972
42	0xbb2dd0e6	-0.0026522218
43	0x3bfd2b29	0.0077260924
44	0xbaa33675	-0.0012452143
45	0xbaf7cc89	-0.0018905561
46	0x3c4ff58b	0.012692819
47	0xb9ad1100	-0.00033009797
48	0xb9aace80	-0.0003257878
49	0xb8b50875	-8.632328e-05
50	0xbb9d8785	-0.004807415
51	0x3b915041	0.004434616
52	0xbb847d5e	-0.0040432652
53	0xba9a5edc	-0.0011777538
54	0xbc0e036c	-0.008667808
55	0xbb42ab6c	-0.0029704226
56	0x39be5bf8	0.00036308146
57	0xbb4ba796	-0.003107523
58	0xbbab9552	-0.005236306
59	0x3bbdc582	0.005791367
60	0x3b846541	0.0040403907
61	0xbbca439f	-0.006172612
62	0xbb53d86d	-0.0032325045
63	0x3c0fa65f	0.008767693
64	0xbbc9a268	-0.0061533935
65	0xbb8e24df	-0.0043378915
66	0x3a7fc863	0.0009757338
67	0xbb876a78	-0.004132565
68	0xbbf22606	-0.0073897867
69	0xbb9450e6	-0.0045262454
70	0x3ba4ff09	0.0050352854
71	0x3c631d7d	0.013862011
72	0xbb1e0d51	-0.0024116824
73	0xbbc3e42f	-0.0059781293
74	0x3be02895	0.0068407753
75	0x3ab00482	0.0013429078
76	0xbbab126f	-0.0052207033
77	0x3bc10d9f	0.0058915163
78	0x3b1785d6	0.0023120544
79	0xbb686d1c	-0.0035465425
80	0xbb06e1f0	-0.0020581447
81	0x3afdc1e2	0.001936015
82	0x3a2c8c9b	0.0006582231
83	0xbbb9c95f	-0.0056697573
84	0xbb97c8f3	-0.0046321093
85	0x3cbfd48a	0.023416776
86	0x3ba96b4a	0.0051702606
87	0x3c122ef4	0.008922327
88	0x3b15191f	0.002275057
89	0xbbaf6a61	-0.0053532575
90	0xba91c7b2	-0.0011122136
91	0xbb765b90	-0.0037591197
92	0x3ba9a165	0.0051767104
93	0xba4257bb	-0.00074135856
94	0xbb11c1b5	-0.0022240703
95	0x3a32872c	0.00068103033
96	0x3b3dbd6e	0.002895202
97	0xb98606e7	-0.00025563614
98	0xb9e17ce3	-0.00043008392
99	0x3baacf66	0.005212712
100	0xba4b6273	-0.00077585055
101	0x3b300c62	0.002686285
102	0x3aa889b6	0.0012858424
103	0xbad71a4c	-0.0016411035
104	0xbbd55a4f	-0.0065110098
105	0x3b839ef1	0.00401675
106	0x39ef5e05	0.00045655682
107	0x3c140c81	0.009036184
108	0x3b6331ed	0.003466721
109	0x3c4381d6	0.011932811
110	0x3b599d2a	0.003320525
111	0xbb90dc5f	-0.0044208015
112	0x3a2468d6	0.0006271725
113	0xb9affa21	-0.00033564962
114	0xb71f9ec7	-9.514107e-06
115	0x3c8d2f42	0.017234448
116	0xbae7be83	-0.0017680678
117	0x3c836fa8	0.016044453
118	0x3b9db788	0.0048131384
119	0x3ca86ed2	0.020560656
120	0x3affed5c	0.0019525695
121	0x3af3e5e9	0.0018607947
122	0xbac7b747	-0.0015237116
123	0x3a1ec9d7	0.0006057298
124	0x3beef3ca	0.0072922455
125	0xbbaf91f3	-0.0053579747
126	0xbbd708ef	-0.0065623443
127	0x3bc57eb4	0.006027067
128	0x3c07d43b	0.008290346
129	0x3b3e1c5b	0.00290086
130	0x3c3e34bd	0.0116092535
131	0x3b857624	0.0040729214
132	0x3b928087	0.004470888
133	0x3b5807fb	0.003296374
134	0xb9acb2ec	-0.00032939704
135	0x3cedd890	0.02903393
136	0x3beeda8e	0.0072892373
137	0x3a127865	0.0005587398
138	0xbad3caac	-0.0016158423
139	0xbac1cdf7	-0.0014786114
140	0x3b1d9a7f	0.0024048386
141	0xbb2fee4b	-0.0026844915
142	0x3c81c823	0.015842503
143	0x3bfd5536	0.007731105
144	0xbae42f30	-0.0017409083
145	0xba94bf09	-0.0011348437
146	0xb8694643	-5.5616965e-05
147	0x3be6f6a3	0.0070484444
148	0xbba62da3	-0.0050713583
149	0x3b5a2cdf	0.0033290905
150	0xbbefc464	-0.0073171128
151	0x3c0942ee	0.008377774
152	0xbaaa36cb	-0.00129863
153	0x3b7db85a	0.0038714618
154	0xbbcc84d3	-0.00624142
155	0xb89e48ed	-7.5476106e-05
156	0xbad55383	-0.0016275499
157	0x3b885770	0.004160814
158	0xb9b31578	-0.00034157536
159	0x3bc9cb84	0.006158294
160	0x3aa64600	0.0012685657
161	0xbb2549c3	-0.0025220967
162	0xbb516b8f	-0.003195498
163	0xb9cb524d	-0.00038780496
164	0x3ae1a9ef	0.0017216782
165	0x3c311085	0.010807161
166	0xbb02e719	-0.001997417
167	0x3b469510	0.003030125
168	0x3c136317	0.008995793
169	0xbb3eaabc	-0.0029093465
170	0xbb458fac	-0.003014545
171	0x3ba52616	0.0050399406
172	0x39164301	0.00014330076
173	0x3a09a7cb	0.00052511384
174	0x3c2942ba	0.01033085
175	0xb9e21da9	-0.00043128178
176	0x3b5d9251	0.0033809135
177	0xba789421	-0.0009482522
178	0xbba4881e	-0.0050211092
179	0x3b4e3958	0.0031467285
180	0xbb5ca0be	-0.0033665146
181	0xb989c7bb	-0.00026279487
182	0xbc0cfeee	-0.008605702
183	0xbb008680	-0.0019611418
184	0xb9b624b2	-0.00034741085
185	0xbb882d1c	-0.004155768
186	0xbba78534	-0.0051123146
187	0x3be895a1	0.0070979153
188	0x3b5a0fea	0.0033273646
189	0xbbb2d70a	-0.0054577636
190	0xbaecc011	-0.0018062611
191	0x3c0817d5	0.008306463
192	0xbbd2324c	-0.0064146873
193	0xbc1520d7	-0.009102068
194	0x3ab312f9	0.001366227
195	0xbb3d1801	-0.0028853419
196	0xbbe45c73	-0.0069690286
197	0xbb5d2b52	-0.0033747745
198	0x3bae621f	0.0053217555
199	0x3c634c39	0.013873153
200	0x399aed96	0.00029550184
201	0xbb631b3d	-0.0034653686
202	0x3bb2ab6b	0.0054525635
203	0xb9ed8c23	-0.00045308573
204	0xbbbc6501	-0.0057493453
205	0x3b9b8e51	0.00474719
206	0x3bae2e96	0.005315612
207	0xbaae5f38	-0.0013303524
208	0x39d727b6	0.00041037583
209	0x3b1c2e19	0.0023831187
210	0x3a67426f	0.000882185
211	0xbb9ac1da	-0.004722816
212	0xbb871e98	-0.00412352
213	0x3cbe971d	0.023265416
214	0x3b934a22	0.0044949213
215	0x3c5d0649	0.013490268
216	0x3b07b1fe	0.0020705457
217	0xbb9da827	-0.004811305
218	0x3b0a8077	0.00211337
219	0xba982a11	-0.0011609216
220	0x3b8c1de9	0.0042760265
221	0xb7941752	-1.7653834e-05
222	0xbb228420	-0.002479799
223	0x3a28bb8a	0.0006436637
224	0x3b11dd95	0.0022257317
225	0x3a29e208	0.00064805197
226	0xbb1797a3	-0.0023131154
227	0x3bd1c03b	0.0064010895
228	0x3a11ff15	0.0005569321
229	0x3a98238b	0.0011607272
230	0x3a732206	0.0009274784
231	0xb9d79c56	-0.00041124475
232	0xbbd8f623	-0.0066211387
233	0x3bc2b1c8	0.0059416033
234	0xbaac150a	-0.0013128829
235	0x3c02e837	0.007989935
236	0x3a54df96	0.0008120475
237	0x3c7262c1	0.014794053
238	0x3b820c92	0.0039687837
239	0xbb987792	-0.0046529258
240	0x3928e291	0.00016106131
241	0xba8c8b6a	-0.0010722701
242	0xba0c948a	-0.000536271
243	0x3cccf154	0.025017418
244	0xb972447e	-0.00023104434
245	0x3ccc966c	0.02497407
246	0x3b950b90	0.0045484975
247	0x3c96cce0	0.018408239
248	0x3a31225c	0.0006757134
249	0x3b211f33	0.0024585247
250	0x3ab24ab2	0.0013602583
251	0xb898ce1b	-7.286315e-05
252	0x3bd260ae	0.0064202165
253	0xbbb11fdd	-0.0054054097
254	0xbb917baa	-0.0044397907
255	0x3bb02ba8	0.005376298

lstm.bias_hh_l0 f4 [512]
0	0x3ba6c6e7	0.005089629
1	0x3b55e5cb	0.0032638188
2	0x3c579c38	0.013159804
3	0x3b9b1767	0.0047330144
4	0x3bc602fc	0.0060428362
5	0x3b4d5ef1	0.0031337107
6	0x3aa28647	0.0012399637
7	0x3cfc13d1	0.030771168
8	0x3c0028ea	0.007822255
9	0x399f62c0	0.00030400418
10	0xba93c5a9	-0.0011274117
11	0xbac9d63d	-0.0015398931
12	0x3acb497b	0.001550957
13	0xbb26f82f	-0.0025477519
14	0x3c6db14a	0.014507601
15	0x3ba4f921	0.0050345813
16	0xbbe3a56e	-0.006947211
17	0xbb39dac0	-0.0028359145
18	0xb9ae0520	-0.00033191685
19	0x3b98fee1	0.004669056
20	0xbba6e104	-0.005092742
21	0x3ab9dfa4	0.001418103
22	0xbc2472e0	-0.010037154
23	0x3be6a8b0	0.007039152
24	0xbb4f9d19	-0.003167933
25	0x3b903984	0.0044013876
26	0xbc08eb60	-0.008356899
27	0x3ab9dad4	0.0014179596
28	0xbb2daad9	-0.0026499538
29	0x3b9b03d1	0.0047306796
30	0x3abe67d7	0.0014526796
31	0x3b96e050	0.004604377
32	0x3a51a284	0.0007996934
33	0xbb3afc99	-0.0028531908
34	0xbbab74c2	-0.0052324245
35	0xbb1c1737	-0.0023817548
36	0x3adc97dc	0.0016829926
37	0x3bd18bff	0.0063948627
38	0xbb89d78d	-0.004206604
39	0x3b437873	0.0029826432
40	0x3c1c7443	0.009549203
41	0xbbd4ba9c	-0.006491972
42	0xbb2dd0e6	-0.0026522218
43	0x3bfd2b29	0.0077260924
44	0xbaa33675	-0.0012452143
45	0xbaf7cc89	-0.0018905561
46	0x3c4ff58b	0.012692819
47	0xb9ad1100	-0.00033009797
48	0xb9aace80	-0.0003257878
49	0xb8b50875	-8.632328e-05
50	0xbb9d8785	-0.004807415
51	0x3b915041	0.004434616
52	0xbb847d5e	-0.0040432652
53	0xba9a5edc	-0.0011777538
54	0xbc0e036c	-0.008667808
55	0xbb42ab6c	-0.0029704226
56	0x39be5bf8	0.00036308146
57	0xbb4ba796	-0.003107523
58	0xbbab9552	-0.005236306
59	0x3bbdc582	0.005791367
60	0x3b846541	0.0040403907
61	0xbbca439f	-0.006172612
62	0xbb53d86d	-0.0032325045
63	0x3c0fa65f	0.008767693
64	0xbbc9a268	-0.0061533935
65	0xbb8e24df	-0.0043378915
66	0x3a7fc863	0.0009757338
67	0xbb876a78	-0.004132565
68	0xbbf22606	-0.0073897867
69	0xbb9450e6	-0.0045262454
70	0x3ba4ff09	0.0050352854
71	0x3c631d7d	0.013862011
72	0xbb1e0d51	-0.0024116824
73	0xbbc3e42f	-0.0059781293
74	0x3be02895	0.0068407753
75	0x3ab00482	0.0013429078
76	0xbbab126f	-0.0052207033
77	0x3bc10d9f	0.0058915163
78	0x3b1785d6	0.0023120544
79	0xbb686d1c	-0.0035465425
80	0xbb06e1f0	-0.0020581447
81	0x3afdc1e2	0.001936015
82	0x3a2c8c9b	0.0006582231
83	0xbbb9c95f	-0.0056697573
84	0xbb97c8f3	-0.0046321093
85	0x3cbfd48a	0.023416776
86	0x3ba96b4a	0.0051702606
87	0x3c122ef4	0.008922327
88	0x3b15191f	0.002275057
89	0xbbaf6a61	-0.0053532575
90	0xba91c7b2	-0.0011122136
91	0xbb765b90	-0.0037591197
92	0x3ba9a165	0.0051767104
93	0xba4257bb	-0.00074135856
94	0xbb11c1b5	-0.0022240703
95	0x3a32872c	0.00068103033
96	0x3b3dbd6e	0.002895202
97	0xb98606e7	-0.00025563614
98	0xb9e17ce3	-0.00043008392
99	0x3baacf66	0.005212712
100	0xba4b6273	-0.00077585055
101	0x3b300c62	0.002686285
102	0x3aa889b6	0.0012858424
103	0xbad71a4c	-0.0016411035
104	0xbbd55a4f	-0.0065110098
105	0x3b839ef1	0.00401675
106	0x39ef5e05	0.00045655682
107	0x3c140c81	0.009036184
108	0x3b6331ed	0.003466721
109	0x3c4381d6	0.011932811
110	0x3b599d2a	0.003320525
111	0xbb90dc5f	-0.0044208015
112	0x3a2468d6	0.0006271725
113	0xb9affa21	-0.00033564962
114	0xb71f9ec7	-9.514107e-06
115	0x3c8d2f42	0.017234448
116	0xbae7be83	-0.0017680678
117	0x3c836fa8	0.016044453
118	0x3b9db788	0.0048131384
119	0x3ca86ed2	0.020560656
120	0x3affed5c	0.0019525695
121	0x3af3e5e9	0.0018607947
122	0xbac7b747	-0.0015237116
123	0x3a1ec9d7	0.0006057298
124	0x3beef3ca	0.0072922455
125	0xbbaf91f3	-0.0053579747
126	0xbbd708ef	-0.0065623443
127	0x3bc57eb4	0.006027067
128	0x3c07d43b	0.008290346
129	0x3b3e1c5b	0.00290086
130	0x3c3e34bd	0.0116092535
131	0x3b857624	0.0040729214
132	0x3b928087	0.004470888
133	0x3b5807fb	0.003296374
134	0xb9acb2ec	-0.00032939704
135	0x3cedd890	0.02903393
136	0x3beeda8e	0.0072892373
137	0x3a127865	0.0005587398
138	0xbad3caac	-0.0016158423
139	0xbac1cdf7	-0.0014786114
140	0x3b1d9a7f	0.0024048386
141	0xbb2fee4b	-0.0026844915
142	0x3c81c823	0.015842503
143	0x3bfd5536	0.007731105
144	0xbae42f30	-0.0017409083
145	0xba94bf09	-0.0011348437
146	0xb8694643	-5.5616965e-05
147	0x3be6f6a3	0.0070484444
148	0xbba62da3	-0.0050713583
149	0x3b5a2cdf	0.0033290905
150	0xbbefc464	-0.0073171128
151	0x3c0942ee	0.008377774
152	0xbaaa36cb	-0.00129863
153	0x3b7db85a	0.0038714618
154	0xbbcc84d3	-0.00624142
155	0xb89e48ed	-7.5476106e-05
156	0xbad55383	-0.0016275499
157	0x3b885770	0.004160814
158	0xb9b31578	-0.00034157536
159	0x3bc9cb84	0.006158294
160	0x3aa64600	0.0012685657
161	0xbb2549c3	-0.0025220967
162	0xbb516b8f	-0.003195498
163	0xb9cb524d	-0.00038780496
164	0x3ae1a9ef	0.0017216782
165	0x3c311085	0.010807161
166	0xbb02e719	-0.001997417
167	0x3b469510	0.003030125
168	0x3c136317	0.008995793
169	0xbb3eaabc	-0.0029093465
170	0xbb458fac	-0.003014545
171	0x3ba52616	0.0050399406
172	0x39164301	0.00014330076
173	0x3a09a7cb	0.00052511384
174	0x3c2942ba	0.01033085
175	0xb9e21da9	-0.00043128178
176	0x3b5d9251	0.0033809135
177	0xba789421	-0.0009482522
178	0xbba4881e	-0.0050211092
179	0x3b4e3958	0.0031467285
180	0xbb5ca0be	-0.0033665146
181	0xb989c7bb	-0.00026279487
182	0xbc0cfeee	-0.008605702
183	0xbb008680	-0.0019611418
184	0xb9b624b2	-0.00034741085
185	0xbb882d1c	-0.004155768
186	0xbba78534	-0.0051123146
187	0x3be895a1	0.0070979153
188	0x3b5a0fea	0.0033273646
189	0xbbb2d70a	-0.0054577636
190	0xbaecc011	-0.0018062611
191	0x3c0817d5	0.008306463
192	0xbbd2324c	-0.0064146873
193	0xbc1520d7	-0.009102068
194	0x3ab312f9	0.001366227
195	0xbb3d1801	-0.0028853419
196	0xbbe45c73	-0.0069690286
197	0xbb5d2b52	-0.0033747745
198	0x3bae621f	0.0053217555
199	0x3c634c39	0.013873153
200	0x399aed96	0.00029550184
201	0xbb631b3d	-0.0034653686
202	0x3bb2ab6b	0.0054525635
203	0xb9ed8c23	-0.00045308573
204	0xbbbc6501	-0.0057493453
205	0x3b9b8e51	0.00474719
206	0x3bae2e96	0.005315612
207	0xbaae5f38	-0.0013303524
208	0x39d727b6	0.00041037583
209	0x3b1c2e19	0.0023831187
210	0x3a67426f	0.000882185
211	0xbb9ac1da	-0.004722816
212	0xbb871e98	-0.00412352
213	0x3cbe971d	0.023265416
214	0x3b934a22	0.0044949213
215	0x3c5d0649	0.013490268
216	0x3b07b1fe	0.0020705457
217	0xbb9da827	-0.004811305
218	0x3b0a8077	0.00211337
219	0xba982a11	-0.0011609216
220	0x3b8c1de9	0.0042760265
221	0xb7941752	-1.7653834e-05
222	0xbb228420	-0.002479799
223	0x3a28bb8a	0.0006436637
224	0x3b11dd95	0.0022257317
225	0x3a29e208	0.00064805197
226	0xbb1797a3	-0.0023131154
227	0x3bd1c03b	0.0064010895
228	0x3a11ff15	0.0005569321
229	0x3a98238b	0.0011607272
230	0x3a732206	0.0009274784
231	0xb9d79c56	-0.00041124475
232	0xbbd8f623	-0.0066211387
233	0x3bc2b1c8	0.0059416033
234	0xbaac150a	-0.0013128829
235	0x3c02e837	0.007989935
236	0x3a54df96	0.0008120475
237	0x3c7262c1	0.014794053
238	0x3b820c92	0.0039687837
239	0xbb987792	-0.0046529258
240	0x3928e291	0.00016106131
241	0xba8c8b6a	-0.0010722701
242	0xba0c948a	-0.000536271
243	0x3cccf154	0.025017418
244	0xb972447e	-0.00023104434
245	0x3ccc966c	0.02497407
246	0x3b950b90	0.0045484975
247	0x3c96cce0	0.018408239
248	0x3a31225c	0.0006757134
249	0x3b211f33	0.0024585247
250	0x3ab24ab2	0.0013602583
251	0xb898ce1b	-7.286315e-05
252	0x3bd260ae	0.0064202165
253	0xbbb11fdd	-0.0054054097
254	0xbb917baa	-0.0044397907
255	0x3bb02ba8	0.005376298

lstm.weight_ih_l1 f4 [512, 128]
0	0x3d416870	0.04721874
1	0x3c438dc2	0.011935653
2	0xbd4b8581	-0.049687866
3	0x3d10218d	0.035188247
4	0x3d89debb	0.067319356
5	0x3db73563	0.089457296
6	0x3dae2306	0.08502774
7	0x3d9a66e0	0.07539153
8	0xbd2032d4	-0.039110973
9	0xbd8b46f1	-0.068006404
10	0xbdaaba3c	-0.08336303
11	0x3c804f73	0.015662884
12	0x3dbea9a5	0.09309701
13	0xbdc2667e	-0.09492205
14	0x3cff8f48	0.031196252
15	0xbdc25c06	-0.09490208
16	0x3d45c3bb	0.048282366
17	0x3dc47976	0.09593479
18	0x3c028313	0.007965821
19	0x3c94b1bc	0.018151157
20	0x3d9aa2d1	0.07550586
21	0xbc8e1c72	-0.017347548
22	0xbd5e724e	-0.05430823
23	0x3db5ecf1	0.088830836
24	0xbd1a0c58	-0.03760943
25	0x3cad519e	0.021157082
26	0xbd59b96b	-0.053155344
27	0x3db6536b	0.089026295
28	0xbd9d2b97	-0.0767433
29	0xbcf249dd	-0.029576236
30	0x3d288ed2	0.04115183
31	0xbd622f87	-0.055221107
32	0xbba3908e	-0.0049915975
33	0x3d352176	0.044221364
34	0xbcddb7e3	-0.027065223
35	0x3c06a006	0.0082168635
36	0xbc1aa38c	-0.009438407
37	0xbda56e13	-0.080776356
38	0xbd4d438c	-0.050113246
39	0xbd5fee7c	-0.054670796
40	0x3b075617	0.0020650679
41	0xbd260f52	-0.040541954
42	0x3d3db569	0.046315584
43	0x3d7420c9	0.05960158
44	0x3d52f794	0.05150564
45	0x3d685ff7	0.056732144
46	0xbd3b9748	-0.04579857
47	0xbdb1b4e9	-0.08677084
48	0xbd8006c3	-0.0625129
49	0x3c61387c	0.013746377
50	0x3dbea4fb	0.09308811
51	0x3c909405	0.017648706
52	0xbda45ca1	-0.0802548
53	0xbc7e101f	-0.015506773
54	0x3cf4bd49	0.029875414
55	0xbdb14ff9	-0.08657832
56	0xbd8089bc	-0.06276271
57	0x3b9f3246	0.004858288
58	0xbd78cdbe	-0.060743086
59	0x3dacc60a	0.084362105
60	0xbca007b2	-0.01953492
61	0xbd46af6b	-0.048507135
62	0xbd548a01	-0.051889423
63	0x3ca3e94d	0.020008707
64	0xbb4eaf3e	-0.0031537558
65	0x3cbc4e6c	0.022986613
66	0xbdaac4be	-0.08338307
67	0x3d0429e6	0.03226652
68	0x3d82924f	0.063755624
69	0xbd6a5fa1	-0.057220105
70	0x3dc0a32f	0.09406125
71	0x3cd39be1	0.025831165
72	0xbd917f90	-0.07104409
73	0xbdbf8f4f	-0.09353506
74	0xbda3cf1f	-0.079984896
75	0xbdc46fe5	-0.09591655
76	0xbd98e1e1	-0.07464958
77	0x3db912fd	0.09036825
78	0xbda7ce84	-0.081936866
79	0x3d334aff	0.043772694
80	0x3c2d12a3	0.010563525
81	0xbd36d23f	-0.0446341
82	0xba3f8031	-0.0007305174
83	0x3d7103eb	0.058841627
84	0xbd803f70	-0.062621
85	0x3db7755e	0.08957933
86	0xb9ed18fa	-0.00045222772
87	0x3d0488bb	0.03235696
88	0xbd85bde4	-0.065303594
89	0x3cd5187b	0.02601265
90	0x3d612a7c	0.054972157
91	0xbd45db22	-0.048304684
92	0xbd23768d	-0.03990798
93	0x3d4f0b69	0.05054799
94	0x3d80a572	0.06281556
95	0x3cee769b	0.02910929
96	0xbdc3e2eb	-0.095647655
97	0xbd07ba81	-0.03313685
98	0xbd5faf1d	-0.05461036
99	0x3dc04b01	0.09389306
100	0x3d664d9c	0.056226358
101	0xbcff9e85	-0.031203518
102	0xbce9e337	-0.028550727
103	0x3d853b1d	0.065054156
104	0xbce5b4dd	-0.028040344
105	0x3cb46670	0.022021502
106	0x3c2de8f4	0.010614622
107	0xbd4edf38	-0.050505847
108	0xbc480232	-0.012207555
109	0xbdef2cd1	-0.1167847
110	0xbd535d07	-0.05160239
111	0x3ba7a6e2	0.0051163295
112	0xbd7694fc	-0.060200676
113	0xbc5078de	-0.0127241295
114	0xbcc4c20d	-0.024018312
115	0xbc6b6d01	-0.01436925
116	0xbc30af54	-0.010783989
117	0xbd933c08	-0.071891844
118	0xbd12080d	-0.03565221
119	0x3ba41e5a	0.005008501
120	0xbd8aee20	-0.067837
121	0xbc74285c	-0.014902201
122	0x3d7af564	0.06126918
123	0xbc3a76f8	-0.011380903
124	0x3da69d4f	0.08135473
125	0x3dbdfb63	0.09276464
126	0xbcc791f8	-0.024361596
127	0x3cc18961	0.023625078
128	0x3ce8225b	0.028336694
129	0x3cbee8df	0.023304401
130	0xbd007e86	-0.031370662
131	0x3d68c469	0.056827936
132	0xbb81aba6	-0.0039572297
133	0xbc8e5209	-0.017373102
134	0xbdc3d6df	-0.09562468
135	0xbd84daf4	-0.064870745
136	0xbd51f33c	-0.051257357
137	0x3db439a2	0.08800055
138	0x3d06a806	0.032875083
139	0x3d5a7422	0.05333341
140	0xbbe9a07b	-0.0071297265
141	0x3d934268	0.071904
142	0x3d58cffd	0.052932728
143	0xbcb46394	-0.022020139
144	0xbc447b01	-0.011992217
145	0x3b876e3c	0.004133014
146	0x3cd8b082	0.026451353
147	0x3d58c923	0.052926194
148	0x3ccda949	0.025105136
149	0xbd9c7bf4	-0.0764083
150	0xbcc44e30	-0.023963064
151	0xbd5fb30f	-0.054614123
152	0x3cc1f475	0.023676137
153	0xbd1e0983	-0.03858329
154	0xbd165052	-0.036697693
155	0x3d94bb11	0.072622426
156	0xbdb9d245	-0.09073309
157	0xbda6c266	-0.08142547
158	0xbd07436c	-0.033023283
159	0xbda8555e	-0.082194075
160	0xbd2ff6b1	-0.042959873
161	0x3dca2d5a	0.098719314
162	0xbd0a9ea7	-0.03384271
163	0xbdc8b4a8	-0.098000824
164	0xbd2900ce	-0.041260533
165	0xbcfd9526	-0.030954909
166	0x3c9fe6f8	0.019519314
167	0x3d8458e5	0.06462268
168	0xbd98ed6e	-0.07467161
169	0x3c28c2c3	0.010300341
170	0xbc9c29f4	-0.019062974
171	0x3d52c0f1	0.051453535
172	0xbccf0ad3	-0.025273716
173	0x3db864db	0.09003612
174	0xbcceb147	-0.025231017
175	0xbc23a8cb	-0.009988974
176	0x3dd368df	0.10322737
177	0xbd87031d	-0.06592391
178	0x3db816fb	0.08988758
179	0xbd05a813	-0.03263099
180	0x3b2c0175	0.0026245986
181	0xbd98a3d5	-0.074531235
182	0x3d882562	0.06647755
183	0xbce3bf1c	-0.027801089
184	0xbd367312	-0.044543333
185	0xbd6a5768	-0.057212263
186	0xbdaa80f4	-0.08325377
187	0xbd8d9208	-0.06912619
188	0xbd9e0db6	-0.07717459
189	0xbd7f9b0d	-0.062403727
190	0xbdb9f0d2	-0.09079136
191	0xbd94c613	-0.07264342
192	0x3d83cda9	0.06435711
193	0xbcecc5d3	-0.028902924
194	0xbdb4f5e2	-0.08835961
195	0xbd9c8a68	-0.076435864
196	0xbd1d9c45	-0.03847911
197	0xbd541f19	-0.05178747
198	0x3dc7d7c7	0.09757953
199	0xbdba1fe5	-0.09088115
200	0xbd632aac	-0.055460617
201	0x3d92e8ea	0.07173331
202	0x3d56e566	0.052464865
203	0x3ac655d8	0.0015131785
204	0x3d0ec2a3	0.03485359
205	0xbcb22acd	-0.021748925
206	0xbcf7b2e5	-0.03023667
207	0xbd1f54d6	-0.038899265
208	0xbd5298c5	-0.051415224
209	0xbceed79a	-0.029155541
210	0xbd9e12dd	-0.07718442
211	0x3c72b4ef	0.014813646
212	0xbdbffb26	-0.09374075
213	0xbc6e4af2	-0.014544236
214	0xbdcce889	-0.1000529
215	0x3c81c038	0.015838727
216	0x3d778224	0.060426846
217	0xbcdce974	-0.026966788
218	0xbd03699c	-0.03208314
219	0x3d049701	0.03237057
220	0xbd87fedc	-0.066404074
221	0xbd8abcc4	-0.067742854
222	0xbbd7e9c2	-0.0065891454
223	0x3d376da6	0.044782303
224	0xbd164963	-0.03669108
225	0x3d9c9dff	0.07647323
226	0xbd88c5b4	-0.06678334
227	0xbd6df479	-0.058094475
228	0x3cb4949e	0.022043522
229	0xbd2ffe4a	-0.04296712
230	0x3c66a806	0.014078146
231	0x3bdcfde7	0.0067441347
232	0x3db54765	0.08851508
233	0x3dd5d0cf	0.10440218
234	0xbddd083e	-0.10792588
235	0x3d33fdbc	0.04394315
236	0x3d1ebfbc	0.03875707
237	0xbc97b232	-0.018517587
238	0x3dbbea17	0.091755085
239	0xbd027775	-0.031852204
240	0xbb985e5b	-0.00464992
241	0xbb658dbb	-0.0035027105
242	0xbb673885	-0.003528149
243	0x3ce6b395	0.028161803
244	0x3d5dc6b6	0.054144584
245	0xbcc1ef07	-0.023673547
246	0xbda3d878	-0.080002725
247	0x3d8b9bd7	0.068168335
248	0x3ccb28d6	0.024799746
249	0x3dbb8607	0.09156423
250	0xbd45a8c5	-0.048256654
251	0x3cd47011	0.025932344
252	0x3c2c9b32	0.010535048
253	0x3ca892d7	0.020577831
254	0xbd6de1d4	-0.058076695
255	0xbd7c7f04	-0.06164457
