checkpoints/bpm_regressor_best.pt (torch, 898970 bytes, 23 tensors)

conv1d.0.weight f4 [32, 1, 3]
00000000: 897c ca3f 507d 9a3f e7db 3a3f f800 ddbf
00000010: 453f 123f 0c55 7ebf 2ac7 1ebd 1cdb a8bf
00000020: babb 1abf f8a5 ab3f c02d a0be b7ac 93bf
00000030: 73d0 17bf a8de e0be b97c 22bf a77b 213f
00000040: 1cd1 aa3f 5f8b efbd dbf0 cfbe e572 bc3e
00000050: ecd7 19bf 9a65 5f3f 1d1f 243f b663 b13f
00000060: 9b5f 873f f076 863f ca17 fe3e 40c2 893f
00000070: 1968 4ebe 874b 0c3d aa8c 5abe c407 333f
00000080: 38ba 90bf 2e75 35bf 838b 3abe fed0 b33f
00000090: e3a6 8d3e 595e abbe cff6 803e b5e3 1fbf
000000a0: 13fb a0bf 69f0 533f 7922 38bf 02fb f5be
000000b0: d37b 85bf 70cf de3f fb06 7fbf 7f28 cfbe
000000c0: bd76 3fbf 64c3 08bf 5f1b 883d 6dd0 da3e
000000d0: f0bf d2be ee0b 773f 9870 2abf adab 1abf
000000e0: 60a7 92bf 152c e43c 0ea4 4bbd 59e8 0f3f
000000f0: 68e0 aebd ae6d c03f 114e 78bf 2c6c 903f
00000100: 36fa 953f 6544 353f 4226 e93f 75bf d63e
00000110: 81a4 8a3e 749e 24be b18d 5dbf 3b19 853f
00000120: dedf 07be 0cbe dd3e d1cd 503d 9a36 b53e
00000130: 3185 f13e be49 05bf 1bf8 e7bf e53d 1abf
00000140: a519 673c 9ea6 88be cc99 89bf 064f ffbe
00000150: e19d e33e 9479 e13e badf 6a3f 53f7 6b3d
00000160: 2ed2 1e3f 7f71 c2be 8d83 59bf eb50 fa3e
00000170: b0dc b4bf ce2a 2ebf 3b8d 8a3f 4bcc cf3e
1.5819255 1.2069492 0.72991794 -1.7265921 0.5712779 -0.9934852 -0.038764156 -1.3191867
-0.604427 1.3410025 -0.31284904 -1.1537083 -0.59302443 -0.43919873 -0.6347156 0.63079304
1.3345065 -0.11696505 -0.40613446 0.36806408 -0.60095096 0.87264407 0.64109975 1.3858554
1.0576051 1.0505047 0.49627525 1.0762405 -0.20156898 0.034251716 -0.21342722 0.69933724
-1.130683 -0.70881927 -0.18217282 1.4048154 0.27666387 -0.3347042 0.251883 -0.6245683
-1.2576622 0.8278871 -0.719276 -0.48043066 -1.0428413 1.7407055 -0.99620026 -0.40460584
-0.74790555 -0.5342314 0.066458456 0.4273714 -0.41162062 0.9650258 -0.66578054 -0.60418206
-1.1457329 0.027853051 -0.049717 0.5621391 -0.08538896 1.5033472 -0.9699412 1.1283011
1.1716983 0.70807487 1.82148 0.41942945 0.27078632 -0.1607607 -0.8654433 1.0398325
-0.13268992 0.43309057 0.05097753 0.3539322 0.4717193 -0.52065647 -1.8122591 -0.60250694
0.014105235 -0.2668962 -1.075006 -0.49864978 0.4445639 0.4403807 0.9174763 0.057608914
0.6203946 -0.37977216 -0.84966356 0.4888986 -1.4129848 -0.68034065 1.082435 0.4058555

conv1d.2.weight f4 [32]
00000000: d17b 7b3f 15e4 7e3f e87e 7e3f 75f9 803f
00000010: 256d 7d3f 3872 803f 9cdc 803f 4763 803f
00000020: 65b3 813f 6b91 803f a205 7d3f dffd 803f
00000030: 04a3 803f b236 803f f55f 7c3f 9bb9 803f
00000040: 1374 7c3f 5de1 7e3f c2ca 7d3f 84bb 7d3f
00000050: 6b2e 803f 99db 803f 411d 7c3f 9595 813f
00000060: 3a1e 7d3f 803d 7d3f a236 813f 0d4d 813f
00000070: ba83 7f3f 7f6d 803f 6709 813f 889c 803f
0.98235804 0.99566776 0.99412394 1.0076128 0.98994666 1.0034857 1.0067325 1.0030297
1.0132872 1.0044378 0.9883672 1.0077475 1.0049748 1.0016692 0.9858392 1.0056642
0.98614615 0.9956263 0.9913751 0.9911425 1.0014166 1.0067016 0.9848214 1.0123774
0.9887425 0.98921967 1.0094798 1.0101639 0.99810374 1.0033416 1.0080994 1.004777

conv1d.2.bias f4 [32]
00000000: 9c40 eabb dc07 d33b 787e dcbb 39fa 1b3c
00000010: 0096 d73b b7d8 3e3a 8a00 0e3c 6f42 eebb
00000020: a504 053c 5568 94bb 1169 1bbc 5711 ffb9
00000030: 07b4 bd3a 680b c93b 7a68 b9ba b314 0dbc
00000040: 1ebe 2a3b 6deb febb e58c 9a3b 0aa7 2b3c
00000050: e28c 993a 76ce 5d39 fbd1 2a3b 5f45 463c
00000060: 0d81 40bc 9cd3 823b 725a 5c3c b035 093c
00000070: bf13 bd3b 6d47 473c f834 a1bb f3e2 5dbb
-0.0071488153 0.006440146 -0.0067289434 0.009520107 0.0065791607 0.0007280218 0.008667121 -0.007271103
0.008118783 -0.004529039 -0.009485499 -0.0004865031 0.0014473208 0.006135393 -0.0014145516 -0.008610892
0.002605326 -0.00777953 0.004716503 0.010476837 0.001171496 0.00021153115 0.00260651 0.0121015
-0.011749518 0.003992511 0.013449298 0.0083746165 0.005770176 0.012163025 -0.0049196444 -0.0033857196

conv1d.2.running_mean f4 [32]
00000000: 3ff4 8f3f d074 233f 1cdd 2c3f fa9f 023f
00000010: f30f 053f 76c9 263f 7b20 443e dd9d 663f
00000020: b90e 573f 0dd6 ac3e 630d 893e a1e9 e63e
00000030: 893b 8b3d c846 fe3e e0d6 313f 0184 e93e
00000040: b0b0 d73e 33d6 9a3e db57 413f e209 3f3e
00000050: 57a6 ab3e 02a6 763f 25d5 523f 4fb5 873e
00000060: b633 0f3e 6822 5d3e 7dc8 513f 9e6c 1d3f
00000070: 908b 103f d9b5 293e f01d 063f b358 c63e
1.1246413 0.63850117 0.67524886 0.51025355 0.5197746 0.65151155 0.19153015 0.9008463
0.8400684 0.33757058 0.26768026 0.4510012 0.06798465 0.49663377 0.694685 0.45608523
0.4212699 0.30241546 0.7552468 0.18656114 0.33525345 0.9634706 0.8235648 0.26505515
0.1398457 0.21595156 0.81946546 0.6149386 0.56462955 0.16573276 0.5238943 0.38739547

conv1d.2.running_var f4 [32]
00000000: 5cf7 2e40 0178 843f 8a93 973f da9d 593f
00000010: e48f 2d3f 6715 813f c428 0a3e a5e3 dd3f
00000020: 1b8a c63f 53fc a73e a1b7 843e 514e 243f
00000030: 1e43 633d b036 473f 6afb 963f cb1f 373f
00000040: b133 003f 4195 803e 3cb2 b23f 3eb1 023e
00000050: 6839 d33e 3bb3 0040 5069 c93f 8207 9a3e
00000060: 584e bc3d 7b38 393e 1b35 e63f c0bf 783f
00000070: 221e 373f 2d2a fe3d d25b 363f 43d3 ea3e
2.7338476 1.0349122 1.18419 0.8500649 0.67797685 1.0084656 0.13492113 1.7335097
1.5510896 0.32809696 0.25921348 0.64182 0.05548393 0.7781782 1.1795475 0.7153289
0.50078875 0.25113872 1.3960643 0.12762925 0.41254735 2.0109394 1.5735264 0.30083853
0.091946304 0.18087952 1.7984957 0.9716759 0.71530354 0.12410388 0.71233857 0.45864305

conv1d.3.weight f4 [32, 32, 3]
00000000: 5407 b8be 16ce a63d 89b7 e73d f35c 293c
00000010: 6dec c73d 2792 b53d cdd4 213e 4c66 85bd
00000020: 27c1 edbc ca12 d53d faff 563d cf2a f63c
00000030: 0fc2 2c3d d09d 3b3e a7b6 b6ba 00a5 22bd
00000040: 16bc 48be 4b5e 58bc 9e30 a6bd d206 943d
00000050: c009 e53d 22e8 a43c f0e8 58bd 5a32 8e3d
00000060: 34aa bb3a 0eb5 3d3d 9ee2 953c 291d e13d
00000070: 8688 293e fc81 783d b54d da3d bfc6 6d3d
00000080: cc67 943e 390f 213e 1eae 56be 625e 2abe
00000090: 5bc1 94bc ce11 743e fced ce3d 9f0f cf3d
000000a0: e3a1 283e 9eb5 233b 79cd 83be 60c0 073e
000000b0: 09da 62bd 31b7 153e 6b02 ccbd ca19 c73d
000000c0: 532a 03be 1201 123e 498f 703e 0d33 5f3e
000000d0: 4737 223d 4681 09bd 7480 d2bd ae3a 633c
000000e0: a233 483d fae1 183e 7d2b 8dbd 7e83 673e
000000f0: 93a6 b4be 2728 51bd 8cc0 2cbe e6db f63d
00000100: 0815 87be 149d fc3c 3d18 903b 91ed 24bd
00000110: 5f9f 483d 5717 c7bd 6b30 c03c fda0 23be
00000120: 7743 61be 6161 503e 1f45 3c3e 8ab7 cc3b
00000130: 728e 66be ed5c ec3d 12fb fc3d cb7e 983e
00000140: 1461 003c c558 b33c 9e53 eebd feeb 02bd
00000150: 8726 01be 38c9 68be 9835 2fbe 39cc 8fbd
00000160: 09a3 84bd 8e20 59be 4f3e 8cbe fd2d a03c
00000170: f3b7 193e c586 81bd 034c dc3d f539 ce3d
00000180: ee62 8b3e 954e edbd 1630 153e 075a 88bd
00000190: eca7 31be 9556 563d bf1d 813d c29c 493e
000001a0: 0cdc 9d3d d7a7 a13e f31c 8fbd 5104 f0bd
000001b0: 78ff b93c f0b7 1f3e 2fcf 423e 1db8 a23d
000001c0: 0083 d3bd a396 12be 9906 a5bd def2 b6bd
000001d0: acff a33c 093c aa3d 7d99 00bc 04eb a7be
000001e0: e78c 28bd 2f96 303e d673 80be 49f5 683e
000001f0: afd6 7e3d 3309 88bd 6ab0 133e 3f6b 783e
00000200: cb2e 1cbb 0b2f 793e 3b65 b73c 82be 1cbe
00000210: 7cb8 a7bd 224b e93b e13c 673d effe 903e
00000220: 650c a1bc 7572 05be d469 98be 6932 1ebe
00000230: 0caa 803b 976d 853c 0674 1e3d 158e 933d
00000240: af58 16be 145b 0a3d a688 9fbd eac5 9d3d
00000250: ac0a 00be 3429 98bb e19c 56bd 6b10 5a3e
00000260: 3bf8 3a3e acce c2bd 9d5d ff3d 1386 983d
00000270: 945f b93d 220e b33d 4c3e 983d d55d 493d
00000280: 5e33 a9bd 2385 b33d aa17 53be 9972 5bbe
00000290: 7c02 53be df1e 7f3d 573a b9bc d034 e43d
000002a0: 8a44 5fbe 9fe4 42bc 7078 d33d 24d3 8e3c
000002b0: e048 553e 077b 2b3d 09f8 98be b7eb e2bb
000002c0: 04dc 49be b2bf ab3d d112 bebe 4919 05bb
000002d0: 0f19 1d3b 1841 c5bd 3558 813e eb64 b03c
000002e0: a786 3a3e 2752 903e 507d cd3d 9473 0f3e
000002f0: 4694 723d 2416 303e 734c 283d dae3 f0bb
00000300: 9c35 1b3e e295 1abe 4299 b5bd 7ed4 8fbd
00000310: fee6 45bd 1661 c6bc b8c1 d9bd fd2c 40bc
00000320: 5445 953e 80c8 433d 4466 0e3e a295 df3d
00000330: d8ec febb 88fd 493c 1ee6 443e b898 de3d
00000340: 4f7e 533d 2bc0 e7bd 19f8 dd3d a587 13be
00000350: 86a7 7f3d 5214 403e 5d6a adbe 8756 49be
00000360: b3af 123d a78c 9fbe 6ec3 f2bc dc74 0dbe
00000370: 2c4c e9bd d3de 9cbc 403b 223e 8deb 13be
00000380: 37f2 823d 799b fabd 3a88 183e 7b7a 57be
00000390: adf1 8f3d 866c 463d bd13 3ebb 498a a53b
000003a0: 60e2 363d 130b c03d 912d 81be 2b69 febd
000003b0: fc98 7d3d 4d05 513d 0891 aabd 6d89 783c
000003c0: 9edf fb3d 1e02 b63c 4da3 da3d 9007 09bc
000003d0: 668c 823d c3dc debd d50b 97bd 70f5 983b
000003e0: 81b4 b23d 3721 683e dbbc c8bc 724b 1f3e
000003f0: ebf9 0b3e c26a cdbd 1f2c aabd a7ff 1abd
-0.3594309 0.081447765 0.113143034 0.010337102 0.097618915 0.08865767 0.15803833 -0.06513652
-0.029022766 0.10403974 0.052490212 0.03004971 0.042177256 0.1832192 -0.0013939933 -0.039708138
-0.19602999 -0.013206075 -0.08114742 0.07227863 0.111835 0.02013022 -0.05295652 0.069431975
0.0014317692 0.046315245 0.018296536 0.1099189 0.16555986 0.060670838 0.10659353 0.058050867
0.2898544 0.15728463 -0.20964858 -0.16637567 -0.018158605 0.23834917 0.10103986 0.10110401
0.16468005 0.0024980078 -0.257427 0.13256979 -0.055383716 0.14620663 -0.09961399 0.09721716
-0.12809114 0.14258221 0.23492159 0.21796818 0.039603498 -0.03357055 -0.10278407 0.013868971
0.048877366 0.14929953 -0.0689306 0.22608754 -0.35283336 -0.051063683 -0.16870326 0.12053661
-0.26383233 0.03083662 0.0043974207 -0.040265623 0.048980113 -0.097212486 0.023460587 -0.15979381
-0.21998392 0.20349647 0.18385743 0.0062474655 -0.22515276 0.11541162 0.12352575 0.29784235
0.007835645 0.021892915 -0.116370425 -0.03196334 -0.12612353 -0.22733009 -0.17110288 -0.07021374
-0.06476409 -0.21203825 -0.27391288 0.019553179 0.15011577 -0.063245334 0.107566856 0.10069648
0.27223915 -0.11587254 0.14569125 -0.06657796 -0.17349213 0.052328665 0.06304502 0.19688705
0.07707986 0.31573364 -0.069879435 -0.11719573 0.022704825 0.1559751 0.19024347 0.07945273
-0.10327721 -0.14315276 -0.08057899 -0.08933042 0.020019375 0.08312232 -0.007849094 -0.3279649
-0.04115 0.1724479 -0.25088376 0.22749819 0.062216457 -0.066423796 0.14422765 0.24259661
-0.0023831602 0.24334352 0.022387138 -0.15307048 -0.081894845 0.007119552 0.056454543 0.283195
-0.01965923 -0.13031943 -0.2976824 -0.15448917 0.003926521 0.016287608 0.038684867 0.07204834
-0.14682268 0.033778265 -0.077897355 0.07703765 -0.12504071 -0.0046435837 -0.052395705 0.21295325
0.18258755 -0.09512076 0.12469027 0.07447448 0.09051433 0.0874293 0.07433757 0.04916175
-0.08261751 0.08765628 -0.20614496 -0.21430434 -0.20606416 0.0622853 -0.022610826 0.11142886
-0.2180349 -0.011895328 0.10325706 0.017434664 0.20828581 0.041865375 -0.29876736 -0.006925072
-0.19712836 0.08386172 -0.3712373 -0.002030926 0.0023971235 -0.09631556 0.2526261 0.021532496
0.18215428 0.28187677 0.10033667 0.14008933 0.059223436 0.17195946 0.041088533 -0.007351381
0.15157169 -0.15096238 -0.08867122 -0.070229515 -0.048315994 -0.024216216 -0.10632652 -0.011729476
0.29154456 0.047798634 0.13906199 0.10917212 -0.007779699 0.012328513 0.19228408 0.108689725
0.05163413 -0.1131595 0.108383365 -0.14407213 0.062415622 0.18757752 -0.3387021 -0.19661914
0.03581209 -0.31161997 -0.029634204 -0.1381411 -0.11391482 -0.01914922 0.15842915 -0.14445324
0.06393855 -0.12236685 0.14895716 -0.21042816 0.07028518 0.04844334 -0.0029003464 0.0050518853
0.04464948 0.09377112 -0.25230077 -0.12422403 0.061913475 0.051030446 -0.08328444 0.015169484
0.12298511 0.022217806 0.106756784 -0.008363619 0.06374435 -0.10881951 -0.07375304 0.0046679303
0.08725835 0.2266892 -0.024504116 0.15556124 0.13669555 -0.10030128 -0.08309197 -0.037841465

conv1d.5.weight f4 [32]
00000000: b43a 813f b4be 803f 02e3 803f a3e9 803f
00000010: 6365 803f f1e9 803f 2823 813f 0d3b 813f
00000020: 0c1a 813f c77e 833f d865 803f 87c0 803f
00000030: 411b 813f 65c4 813f e14b 803f 4f8a 803f
00000040: e9dc 813f 8be6 803f 3416 803f 29f7 803f
00000050: dc2d 803f 27c0 803f 1094 7e3f f91f 813f
00000060: b623 823f 4480 7f3f 12e2 803f 5744 803f
00000070: 7c4d 823f 0c09 7f3f 7dbc 803f 7fd2 803f
1.009604 1.0058198 1.0069277 1.00713 1.0030941 1.0071393 1.0088854 1.0096146
1.0086074 1.0273064 1.003108 1.0058755 1.0086442 1.013806 1.0023156 1.0042208
1.0145541 1.0070356 1.0006776 1.0075427 1.0013995 1.005864 0.99444675 1.0087882
1.0167148 0.9980509 1.0068991 1.0020856 1.0179896 0.9962318 1.0057522 1.0064238

conv1d.5.bias f4 [32]
00000000: 6687 6b3b a845 f0bb 553c 21bc 3b9a 3b3c
00000010: 8a6f 5abc 54ec 3abc 63c3 af3b 8928 233c
00000020: 4280 49bc 85f3 28bc 149f 3ebc 480f b1bb
00000030: 3bdd e23b 40f1 30bc 5a70 14bc 0bb9 113c
00000040: e1df e0bb bc13 303c 075c 0b3b e5dd f33a
00000050: 0a66 1b3c 3fc6 103c c7f4 8cbb c3d0 483c
00000060: cdbd 1bbc 63e6 03bc a936 37bc fe90 063c
00000070: d25c 0c3c 1a68 273c 6778 a83b c18b 0fbc
0.0035938858 -0.0073325224 -0.009841044 0.011450346 -0.013332257 -0.011408884 0.005363868 0.009958395
-0.012298645 -0.010311966 -0.011634607 -0.005403433 0.0069233454 -0.010799706 -0.00905999 0.008894215
-0.006862626 0.010746893 0.002126457 0.0018605558 0.009484777 0.008836328 -0.0043016407 0.012256804
-0.009505701 -0.008050534 -0.011182466 0.00821328 0.008567052 0.010217691 0.005141306 -0.008761347

conv1d.5.running_mean f4 [32]
00000000: 405a 0b3f 700c ce3e b9a4 273f a8d8 d93e
00000010: 39ab ae3e 3a69 eb3e ba61 6b3f da0c be3e
00000020: e973 b53e b5b2 973e d436 a33e 2d54 e93e
00000030: 9186 123f fd66 9e3e a3ce a53e a069 933e
00000040: 3701 e63e cc0c 0e3f 7a38 fb3e d91e 1d3f
00000050: 67a0 393f d59e cb3e ceec 183f 40ea f03e
00000060: ad6b f73e 2d5b 253f 97aa a63e aa61 a43e
00000070: 1d0c 093f e54e 9c3e fb90 0e3f 6706 473e
0.54434586 0.40243864 0.6548572 0.42548108 0.34115008 0.4597872 0.91945994 0.3711918
0.35439995 0.2962853 0.31877768 0.45572034 0.5723658 0.3093795 0.32384214 0.28791523
0.44922802 0.55488276 0.49066526 0.61375195 0.7251038 0.39769617 0.59736335 0.4705372
0.48324338 0.6459225 0.32552025 0.32105762 0.5353411 0.30528942 0.5568997 0.19436036

conv1d.5.running_var f4 [32]
00000000: 9df8 803f b59c 3a3f 9a0e a23f 7739 173f
00000010: 17a9 aa3e 9db2 383f c78d 2640 fc7f b93e
00000020: 4371 d63e e9f9 793e ea1b 013f 1b85 6e3f
00000030: 9cd6 ff3e 69ea 983e 779b 6d3e 00fc 263e
00000040: cc93 2e3f 1d92 133f 6e40 2c3f 9985 8a3f
00000050: 3dd4 553f 5d3f cc3e 5951 963f 6384 423f
00000060: a7d9 203f b3e8 883f 5224 023f 74c0 da3e
00000070: abb2 063f 54c9 b13e 65ee 1c3f 4fb2 3e3e
1.0075871 0.72895366 1.2660706 0.5907206 0.3333213 0.7214754 2.6024034 0.36230457
0.41883287 0.2441174 0.5043322 0.9317185 0.4996842 0.2986634 0.23203836 0.16307068
0.6819427 0.57644826 0.6728581 1.0822021 0.83526975 0.39892092 1.1743575 0.75983256
0.6283211 1.0696014 0.5083667 0.42724955 0.52616376 0.34723914 0.6130126 0.18622707

lstm.weight_ih_l0 f4 [512, 32]
00000000: c7b3 c73d 423f 10bd 15b8 973d 3c9e 983d
00000010: baac e53d 05ed afbd f964 953c ac2e 82bc
00000020: acd9 ce3c 4940 cbbd 3523 7e3d 8e11 383c
00000030: b694 e1bc 37da c5bd 1900 9f3d 027e 88bc
00000040: 5e88 9b3d 48bd 1f3c 4a08 5d3d d6c7 75bc
00000050: 8dd5 34bc 7dee 63bc 3342 93bd 5494 5a3d
00000060: 0eb2 a7bd 0bb4 a83d 12ca 07bd e7e2 903d
00000070: ec4c e93d 68c2 8abd 9e6b b73d edf3 ac3c
00000080: 9f26 bbbd 4a1e 5f3d 8f31 633d f8eb 963d
00000090: 9c60 aebd a246 ce3d ffa8 833d a7eb ea3d
000000a0: bb29 8c3d 6d32 9bbd f768 c53d 5029 db3d
000000b0: 164f 48bd 2340 9ebb 09a3 9e3d df20 c73d
000000c0: 2e8e a33d c024 873d e1e7 15bd 5c5e 0dbd
000000d0: f049 efbc 3683 953d 5ce2 683c 681b c3bd
000000e0: 2e71 0f3a 17bc a3bd aa10 acbd 2936 ad3d
000000f0: 1737 1dbd 2eed 183d f24b 1abd 1408 cfbc
00000100: 2eca 893b 7af1 8d3d 27f9 f0bc 66b2 c33d
00000110: e2db 493d 824c 773d 8b8e afbd 2baf 87bd
00000120: bde6 c5bd a9d2 0cbd 13bc 0abd dcae 1f3c
00000130: 27ad da3d c218 083d 1069 8abd 777f 99bd
00000140: c0d6 893d 7c05 b63c 5f8e 783c 0cde 50bd
00000150: fb84 87bc 44f8 9c3c 8b56 76bd afcd a13d
00000160: 1ea7 223d 37f3 8bbd 8fb9 6cbd 0a93 f5bc
00000170: c476 8e3b 1895 0cbd b845 e23d d1d2 f0bd
00000180: 0fcd 08bd 9644 41bd fe36 003d 5496 6fbb
00000190: b809 2cbc 7a86 dc3d ddc2 94bd 48f5 303d
000001a0: 7e5a 3bbd 3023 55bd 7a1d a4bd 3e1b 7bbd
000001b0: 15ef afbd e298 503d cbc1 2fbd 0111 963d
000001c0: ba50 31bd 4344 1fbd d721 0b3d e7b3 9f3d
000001d0: 5754 1bbd 8b3a a53d 0b1f 3f3d 4163 473d
000001e0: b539 9d3d f279 853d c403 56bc 5955 1fbd
000001f0: c54b 7f3d ec29 283d 2e5f 893a 5134 943d
00000200: b488 6dbd 8639 6c3d cbf5 5bbc e689 96bd
00000210: adb1 51bd 93fc a7bd 92e1 b53c 0166 89bd
00000220: 26bf 02bd ebbd 4dbc 9d2c 84bd 01cb d3ba
00000230: 4b81 72bc a0c3 eb3c 9949 963d d3cb 84bd
00000240: 064a 5a3d 09ca 4aba fb48 77bd 1e75 3cbd
00000250: 919d cd3c a618 9d3c 481a 21bb 8e57 52bd
00000260: 69ba 493d ee95 863c 46f7 d5bd 084a 81bc
00000270: fc90 eebc 5860 3fbd 9b1b 69bd e462 a5bd
00000280: de34 f43d 918b a2bd 105f ea3d 04ce c8bd
00000290: e83e 09bc 5765 e8bc 3530 79bd 61b8 433d
000002a0: fb00 9c3d 4fe1 bdbd 5638 03bd f0ff 853d
000002b0: 12ee cbbc 41cb 263d b103 0c3d 83d8 c6bc
000002c0: c406 3ebd 8f1b cb3c 878d 97bc 6c6e 95bd
000002d0: 30b1 8bbd 7d49 03bd 2aae da3d c056 083c
000002e0: 99ab 6f3d a9ba f43c 9ad0 5cbd 6639 913d
000002f0: 572f ff3a da4f 1dbd 73cc aa3d 6205 1dbd
00000300: 31d0 e13c 2cbb 91bd 7aa2 593d 558b bc3c
00000310: 996c 89bd c148 9b3d 2b8b bf3b 99e6 1bbd
00000320: b5bb d93d 0864 383d 920c 683d 4269 d0bc
00000330: d3bb 8bbd b45c 23bd a13a 573d a34c 3b3d
00000340: 7aca 4fbd de04 a13d a137 a63d e7e3 39bd
00000350: fbf6 663d 6ea1 d5bc e1e4 cb3c 9700 923d
00000360: e04b acbd 75eb 41bd 33ae 493c a041 0f3d
00000370: 24a2 89bd 5dca b1bd 3d1b b93b c33c d53a
00000380: 2790 fe3c 23e4 85ba 4a3e 1c3d fba0 9f3c
00000390: 59d1 0fbb dfe7 9ebc ad3c 3b3d 803d 673d
000003a0: 6102 86bd 3248 85bd 605d 063d 1902 b5bd
000003b0: 47da 8e3d 3991 0e3d 4c5b 233b d267 6ebd
000003c0: c596 2cbc c12c 8fbd 1e46 dbbd 0fdf dc3d
000003d0: 12e1 dabd 4a3f bebd f919 00bd 1f79 9e3c
000003e0: 651c 893c e26f 31bd 52e2 b5bc cfc4 84bc
000003f0: a353 963d af50 d03d fe4c 643d b8c2 57bc
0.09751087 -0.035216577 0.07408158 0.07452056 0.112145856 -0.0859013 0.018236624 -0.015891396
0.025250278 -0.09924371 0.062045295 0.011234654 -0.027536731 -0.09660762 0.077636905 -0.016661648
0.07594369 0.009749718 0.053962983 -0.015001258 -0.011037243 -0.0139118405 -0.07190361 0.053364113
-0.08188258 0.082374655 -0.033151694 0.07074528 0.11391625 -0.06775361 0.08956073 0.021112407
-0.09138226 0.054472245 0.055467185 0.07369226 -0.085145205 0.10072066 0.06428718 0.11470728
0.06843897 -0.07577977 0.09639161 0.10701239 -0.048903547 -0.004829423 0.0774594 0.097230665
0.07986103 0.065988064 -0.03659809 -0.034513816 -0.02921006 0.07300417 0.0142141245 -0.09526712
0.0005471882 -0.0799486 -0.08401616 0.08457596 -0.038382616 0.037335567 -0.037670083 -0.025272407
0.00420501 0.069308236 -0.02941568 0.09555511 0.049281962 0.060375698 -0.0857211 -0.066252075
-0.096631505 -0.03438059 -0.033870768 0.00974628 0.106775574 0.033226736 -0.0675832 -0.07495015
0.067304134 0.022219412 0.015170663 -0.05099301 -0.016542902 0.019161351 -0.060141128 0.07900559
0.039710157 -0.06833499 -0.05779415 -0.02997734 0.004347654 -0.034321874 0.11048454 -0.1175896
-0.033398684 -0.04718455 0.031302445 -0.0036558108 -0.010500364 0.10767837 -0.0726373 0.04320267
-0.045740597 -0.05203551 -0.08013435 -0.061305277 -0.08590523 0.05092705 -0.042909425 0.07327462
-0.043289877 -0.03888346 0.03396782 0.077979855 -0.03792223 0.08067807 0.046660464 0.04867864
0.07677022 0.065174 -0.013062421 -0.038899753 0.06232812 0.041055605 0.0010480636 0.07236541
-0.0579917 0.057672046 -0.013425301 -0.07350521 -0.051194835 -0.082024716 0.022202287 -0.06708909
-0.031920575 -0.012557487 -0.06453822 -0.0016158522 -0.014801334 0.028779805 0.073382564 -0.06484189
0.05329325 -0.0007735794 -0.060372334 -0.04601013 0.025099548 0.019176792 -0.0024582315 -0.05135303
0.04925004 0.016428914 -0.10447554 -0.015782371 -0.029121868 -0.04672274 -0.056911092 -0.080755025
0.11924146 -0.079367764 0.11443913 -0.09804919 -0.008376814 -0.028368635 -0.06083699 0.04778326
0.076173745 -0.0927149 -0.032036148 0.06542957 -0.024893794 0.04072118 0.034183208 -0.024273163
-0.04639317 0.024793414 -0.018500103 -0.07296452 -0.06820905 -0.032052506 0.106777504 0.008321464
0.058513258 0.029874163 -0.053909875 0.07091026 0.0019469064 -0.03840623 0.08339777 -0.03833521
0.027565094 -0.07115778 0.053133465 0.023015657 -0.067101665 0.07582236 0.0058454475 -0.038061712
0.106315054 0.045017272 0.056652613 -0.025440816 -0.06822934 -0.03988333 0.052546147 0.045727383
-0.050730206 0.078622565 0.08116079 -0.04538336 0.056387883 -0.026077952 0.024889411 0.07129019
-0.084129095 -0.04734369 0.012309599 0.034974694 -0.06720379 -0.08681176 0.005648999 0.0016268719
0.031074597 -0.0010215085 0.03814534 0.019485941 -0.002194485 -0.019397674 0.04571216 0.056455135
-0.065434225 -0.06507911 0.032803893 -0.08838291 0.06975227 0.034806464 0.0024926243 -0.05820448
-0.010533993 -0.06990958 -0.10706733 0.107847326 -0.1068746 -0.09289415 -0.03127477 0.019344864
0.016737172 -0.04331959 -0.022202644 -0.016207127 0.07340171 0.10171639 0.055737488 -0.013168983

lstm.weight_hh_l0 f4 [512, 128]
00000000: 75f5 373c e21a 1e3d c5cf 553d fcb7 963d
00000010: c1a4 94bd f8b6 abbd 712d 5e3c 1fad 3ebd
00000020: f6b8 a7bb 1563 ba3d 87d7 5b3c 7c8a 573c
00000030: 3233 95bd e4b2 45ba a471 abbd f82e 9fbc
00000040: 9e71 863d ef37 19bc b7f4 1d3d 93d7 ea3c
00000050: e3c2 8f3d b56b 063d c266 afbd 5d69 9db9
00000060: 7867 f339 1a37 2fbd e6ec 84bd 2924 77bd
00000070: b003 463d a473 efbc b410 98bc b1a5 db3c
00000080: 464c 5e3d 11de 673d 35fb 373d 4484 ba3d
00000090: 8581 a93c f812 3abd d87f 173d d0a2 2fbc
000000a0: 2a1b d03d 31f7 a2bd 3bb6 61bd 6347 8c3d
000000b0: c7fd 8abd 914d 623d aea2 8ebd 77c4 ad3c
000000c0: 1f76 ac3d 0e1f 353d 6c40 79bd 7960 133d
000000d0: 80bc ec3a 9b2c a5bc 9ed4 babd f8c7 6bbd
000000e0: 101c 25bd e720 8a3d 7cb3 98bd 027c b8bd
000000f0: 80af 9bbd 5f61 0e3d a445 b8bd 171b d7bd
00000100: 4cea 013b 7566 c8bd 38c9 d23c a836 75bc
00000110: c01d b33d 782a 09bd 6da2 c5bd be0e 79bd
00000120: aa92 afbb cecc 34bd 1a47 c33d 5883 93bd
00000130: d459 c7bd f668 413d 6608 93bc ac23 8c3d
00000140: 3668 933c 8d1c 0d3d df50 983d 5730 3fbc
00000150: 9930 49bd db73 f2bc c4cc b6bc 2854 abbd
00000160: 7a2e b23d 0868 1f3d e65b eabc 7e0a 983d
00000170: 139c e73c 4d1a 193d a288 823d 2144 b43c
00000180: 00e4 5b3a 9ba1 853d 80dc f03c 7b02 8b3d
00000190: d0a5 493d f27c 7fbd b92c b6bc 70bd 9b3d
000001a0: f3a2 a0bc 24ef 13bd d884 2ebd 3010 afbd
000001b0: eba9 833d ff91 6b3d fbb3 71bd d46e b9bd
000001c0: 44ad ef3c bdfb d73b 874c 723d 64f9 d13c
000001d0: dd33 b9bc db18 543d df86 7d3d 19ba 423d
000001e0: cf37 8a3d 31e7 babd 8fce 133d 8d45 393d
000001f0: aea4 783d c789 34bd 9c42 c33c cc5c b1bd
00000200: 27e1 893d 03cc 0a3b 7eb4 803d c867 643c
00000210: 5ba4 54bd e7ac 6a3d 5b73 903d 0722 4dbd
00000220: 28d4 103c a429 40bd 9b73 90bd d254 2d3d
00000230: d54b 93bd d022 f43c 16a1 9dbd 806b 37bb
00000240: 4d52 0abd 1fdc 433d 9b3f c63d d9ae 99bd
00000250: c41c a6bc de61 48bc 18ae aabd 4bc4 afbd
00000260: 3b52 5dbd e5e1 c6bc 0856 b53d f848 ca3c
00000270: dae4 aa3d ae4d aabd 3bde 6ebd e72f 613c
00000280: 40c0 b6bd 91bf 453d a720 3a3b 2bcd c7bd
00000290: 5e48 babd 14d9 a83b ad48 e93c 9f60 f13a
000002a0: 6401 b0bc 60de 833d a051 55ba 700f 3ebd
000002b0: eb1f ac3d 5b2b bdbc 47e4 1abd 0178 abbc
000002c0: 90fe 5dbc 13e1 08bc 257d 40bd 728d 773d
000002d0: 8cf3 323c fe07 593d 71d9 5f3c 5485 8f3d
000002e0: b880 8ebd 8f96 373d e3d9 163d 40b1 373d
000002f0: 4fce 5cbd a01b bc3b 7287 06bd a4f0 34bd
00000300: f135 afbc 5ea0 6fbc e177 4b3d cb43 c13d
00000310: 8f27 95bc e257 c83d 040d 1f3d 2357 bdbd
00000320: 8e97 a63d 4ffb b5bd dad7 fcbc 02f0 14bd
00000330: b0e0 e03a be38 c9bd cb97 c2bd af65 8dbd
00000340: d3d4 09bd f60c 8ebb 0492 8a3d 8ccf b7bd
00000350: 7111 133b a7c9 973d e39b 073d 80ef c93c
00000360: 01de a5bd f235 663d f5e9 43bc a8a6 f63c
00000370: c263 86bd edeb 4abc e121 7e3d 9714 7abd
00000380: b472 9fbd 38ef 21bc 6c07 483d 56c6 84bd
00000390: a86e 0f3c f986 2ebd a341 a53c 94a8 663c
000003a0: 44af 953d d5c2 10bd 5e7c b2bd 423f c13b
000003b0: 6270 533d 2fcf 06bd 2980 e13c 3af6 b7bd
000003c0: 2efc 633d 90ef 323d f6ea b8bd bd4e c2bc
000003d0: 04db 083d 5004 163d b6e3 093d 3803 8abd
000003e0: ee32 af3d 614f abbd 7be7 e33a 3b7d 81bd
000003f0: 8eee 8dbd 96b0 20bd 2cd7 b43d 2d17 b1bd
0.011227955 0.038599856 0.052200098 0.07359311 -0.07257987 -0.08384508 0.013560639 -0.04655182
-0.0051184846 0.0910093 0.013418085 0.013155576 -0.07285155 -0.00075416104 -0.083712846 -0.019431576
0.065646395 -0.0093517145 0.038563456 0.028667247 0.070195936 0.03281756 -0.08564521 -0.00030023875
0.00046425662 -0.04277716 -0.06490497 -0.06033722 0.04834336 -0.029229946 -0.018562652 0.026812406
0.05427196 0.056608263 0.044917304 0.09107259 0.020691643 -0.045428246 0.036987156 -0.01071997
0.10161431 -0.07957304 -0.05510543 0.068495534 -0.067866854 0.055249754 -0.069646224 0.021211846
0.08420967 0.04421907 -0.060852453 0.035980675 0.0018061548 -0.020162871 -0.09122585 -0.057563752
-0.040309966 0.06744557 -0.07456109 -0.090080276 -0.07601833 0.03476083 -0.08997658 -0.10503214
0.001982349 -0.09785167 0.025730714 -0.014966644 0.08745909 -0.033487767 -0.09650121 -0.060805075
-0.00535806 -0.04414063 0.09535046 -0.07202786 -0.0973393 0.04721924 -0.01794834 0.06842741
0.017994028 0.034451056 0.074373 -0.01166924 -0.049118612 -0.02959626 -0.022314437 -0.08365661
0.08700271 0.03891757 -0.028608274 0.07423876 0.028272664 0.037378598 0.06373717 0.022005143
0.00083881617 0.065249644 0.029402018 0.067875825 0.049230397 -0.062375017 -0.022238122 0.07604492
-0.01960895 -0.036116734 -0.04260716 -0.085480094 0.06428894 0.05751228 -0.059009533 -0.09054342
0.029257424 0.006591289 0.059155013 0.025631614 -0.022607738 0.051781517 0.0618962 0.047540758
0.06748926 -0.091261275 0.03608566 0.045232344 0.060703926 -0.044076707 0.023835473 -0.08660278
0.067323975 0.002117873 0.06284426 0.013940759 -0.051914554 0.0572938 0.07053252 -0.05008128
0.0088396445 -0.04691471 -0.070533 0.04231722 -0.07192198 0.029801756 -0.0769674 -0.002798766
-0.033769894 0.047817346 0.096801005 -0.07504053 -0.020277388 -0.012230365 -0.08333987 -0.08582362
-0.0540335 -0.024277637 0.088543 0.024692997 0.08344431 -0.083155975 -0.058317404 0.013744331
-0.089233875 0.048278395 0.002840081 -0.097559296 -0.09095834 0.005152831 0.028477037 0.0018415636
-0.021485038 0.06438899 -0.0008137468 -0.04640144 0.08404525 -0.023091963 -0.03781536 -0.020931246
-0.013549462 -0.008354443 -0.046994347 0.060437627 0.010922324 0.052986138 0.013662682 0.07007852
-0.06958145 0.04482132 0.036828887 0.044846773 -0.05390769 0.005740598 -0.032844014 -0.044174805
-0.021388026 -0.014625637 0.049674872 0.094367586 -0.01820734 0.09782387 0.038830772 -0.09245136
0.081343755 -0.08885824 -0.030864645 -0.0363617 0.0017156806 -0.09825276 -0.095016085 -0.0690416
-0.03365023 -0.004335041 0.067661315 -0.08975133 0.0022440816 0.07411509 0.03310765 0.024650335
-0.080989845 0.05620379 -0.011957635 0.030108765 -0.06561996 -0.012385351 0.06204403 -0.061054792
-0.0778555 -0.009883694 0.048835203 -0.06483142 0.00875441 -0.04260919 0.0201729 0.014078278
0.0730882 -0.035342056 -0.087151274 0.0058974335 0.05162085 -0.03291243 0.027526932 -0.08982511
0.05566042 0.043685496 -0.0902919 -0.023719186 0.033411995 0.036625206 0.033664428 -0.06738895
0.08554636 -0.0836475 0.0017387712 -0.06322714 -0.06930266 -0.039230905 0.08830103 -0.086469986

lstm.bias_ih_l0 f4 [512]
00000000: fbc1 4e3c 11e8 043c cfde d239 663f 2c3c
00000010: 6894 c3ba 7564 ae3b 3543 463a 00fd 923b
00000020: fd45 123c 71cc e7bb 2b99 12bc 6b50 263b
00000030: 8d98 b53b bcce 7c3b 6ffb 1c3b b29b b33b
00000040: 6af7 cf3b 9904 0c3c cc22 033c 2f16 1c3b
00000050: 7ce0 dd3b 7a4e 40bc 23dc 60bc b34b a13a
00000060: 2478 183c 6a9f 5a3b 0177 4a3c 5e0c 733b
00000070: 67dc cb3a aea5 113c 5a90 cb3b 7931 403c
00000080: 5735 5a3c 3a5c fdbb b7ee cc3a cc8b 003c
00000090: 55a4 d23b 5d7f 63bc 34cc 783b 9b8c b73b
000000a0: c024 ebbb 5bd0 d3ba 2659 74ba f59a bebb
000000b0: e93e a23b 7f9c f73b 8b2b 2dbc 90da 103c
000000c0: df9d 6a3b 89e2 083a 4e3a ac3b 7543 ae3b
000000d0: 7828 17bc 0ce6 15bb 4b8c dd3a 288d e6bb
000000e0: 113f 3c3c cf1b f43b d2e9 143c c99b 323b
000000f0: 5cd0 94bb 3fec dfba 0860 22bc 41b9 103b
00000100: 301e ce3b 1bf4 073c 4d01 aa39 90e9 f5ba
00000110: 0ca0 eb3b 20af f73a 6d20 283c 1bca d53a
00000120: 7313 01bb a0a0 493b a168 20bb 854a 7e3b
00000130: f2c3 963b a41a f23b 069e 023b bdb2 493c
00000140: f4a2 c9bb 2571 2f3a 1b69 99bb c8bf bf3b
00000150: 436a b9bb 086b 7c3b 8d8b 1dbb 1eed b93b
00000160: 4499 ccba af18 b73b 535b 1fbc b44c 99ba
00000170: 51c9 ff3b e2fc c93b 13e1 0eb9 bbfa 243c
00000180: 019a dd3b 32eb cf3b 4f88 1f3c eff2 523b
00000190: 712c 653b 5241 133c c181 12bb 03f1 d53a
000001a0: 9c7e 7e3b 2e92 2f3c d974 9dbb e5c0 8e3b
000001b0: bf50 533c ea57 f03a 8b9a 193c 5180 e33b
000001c0: f9af c53b b0c6 c63b 8f74 123c d65f 903b
000001d0: 7eed 51ba db08 4d3b 1c06 053c ffeb 263c
000001e0: 0058 6fbb a318 073b 2303 183c aecc 1a3c
000001f0: 2203 6d3b d71b 103c b9d5 8e3a d4b6 e03b
00000200: ab21 603c 0480 fe3b 9df9 45ba 2535 283c
00000210: 4460 8ebb a756 3d3b 6df2 7fb8 ebf6 643b
00000220: 99e0 2b3c 42f0 afbb 958a b2bb 5f47 2c3b
00000230: c064 ef3b 263b a43a 20e1 033c 5c2a d33b
00000240: dea4 db3b 0cba 263c 5954 0e3c 4986 b23b
00000250: 35dd e53b 6ccb 06bc 7738 41bc 1127 df3a
00000260: bf6b 103c 7f26 1f3b 23c6 573c 2c4e 763a
00000270: dede d13b 5f75 233c 9e60 ec3b ecaf 173c
00000280: 05d6 603c 9df1 bdbb 2020 06ba 00b1 103c
00000290: 1b98 813b 1afd 65bc fd75 243b f674 d33b
000002a0: c82b 5abb 20fd d7b9 e233 a939 1457 30bb
000002b0: b17a 943b 2ccb 3d3c 50c8 c8bb 7a9f 323c
000002c0: 2e86 8dba 9241 0b3b ee5b 0c3c 2871 2c3b
000002d0: e22a f8bb 2e76 403b 6456 66bb f1c9 6dbc
000002e0: 4b5f 403c e2dc b23b 22da 253c a3e6 873b
000002f0: 1798 22bb 321d 0eba a2f4 88bb 0c9f 813b
00000300: 18fe c43b c5c5 203c e509 3f3b a054 883b
00000310: b747 df3b faa5 623b 73dc 4a3c 28ca db38
00000320: 6f11 84bb 1090 783a b4b5 65bb 6223 9b3b
00000330: 5e3b af3b a07c d73b 5804 6b3b 1af9 503c
00000340: c298 10bc fbea f6b9 bb73 9fba a0f7 c83b
00000350: 5bd0 fabb 6608 f038 6956 52bb e087 ff3b
00000360: 5b69 753b d709 b13b b1b2 c7bb ee90 0b3a
00000370: 3dcc 473c 5cf4 e73b 40d1 0cb9 5fcc 523c
00000380: 311f bc3b 79ba d93b c9e0 463c b324 533b
00000390: ff45 0a3c ac2a 173c d1e1 b8ba 1ef2 52ba
000003a0: ed90 853b e9a6 3b3c ea16 ddbb 4710 6e3b
000003b0: ec5c 513c 758d 763b 4d33 1a3c f5d0 003c
000003c0: bdbb 0b3c 9e41 af3b d01a 1a3c b10b a83b
000003d0: ec77 35ba d091 383b 9153 0a3c 64c9 003c
000003e0: e043 79ba 53f3 b53b 2701 043c d14c 213c
000003f0: e0f2 803b efc2 1a3c ca1b 093b 2792 053c
0.012619491 0.00811197 0.00040220327 0.010513162 -0.0014921548 0.005322034 0.0007563115 0.0044857264
0.008927819 -0.007073932 -0.008947651 0.0025377523 0.005541867 0.0038575372 0.0023953577 0.005481207
0.0063466327 0.008546018 0.008003902 0.0023816933 0.0067711454 -0.01173746 -0.01372436 0.0012305885
0.0093059875 0.0033359178 0.012357474 0.003708623 0.0015553356 0.008889599 0.0062122764 0.011730545
0.013318381 -0.0077319415 0.0015635107 0.00784583 0.0064282813 -0.013885346 0.0037963511 0.0056014783
-0.007176012 -0.0016160117 -0.00093211455 -0.005816812 0.004951347 0.0075564976 -0.0105694635 0.008841172
0.0035799665 0.00052217447 0.005255974 0.0053181 -0.009225957 -0.0022872714 0.0016902772 -0.00703587
0.011489646 0.007449604 0.00908895 0.00272535 -0.00454144 -0.0017083957 -0.009910591 0.0022083076
0.0062902197 0.008297945 0.00032425896 -0.0018761624 0.00719071 0.0018896796 0.010261637 0.0016310842
-0.001969543 0.0030765906 -0.0024476426 0.0038801741 0.004600995 0.0073884297 0.0019930615 0.012310681
-0.0061534587 0.000669258 -0.004681719 0.0058517195 -0.0056584193 0.0038515944 -0.0024039478 0.0056740185
-0.0015609642 0.0055876593 -0.009726363 -0.0011695833 0.007805981 0.006164179 -0.00013626022 0.010069544
0.0067627435 0.006345176 0.009737088 0.0032188257 0.0034969116 0.008987742 -0.0022355171 0.0016322437
0.003883279 0.010716004 -0.004805189 0.004356491 0.012897669 0.0018336747 0.009375225 0.0069427867
0.0060329405 0.006066166 0.008938923 0.004405956 -0.00080081064 0.0031285796 0.008119132 0.010188102
-0.0036520958 0.002061405 0.009278092 0.0094482135 0.0036165197 0.0087957 0.0010897435 0.0068577323
0.013679902 0.0077667255 -0.0007552149 0.010266577 -0.004344972 0.002889076 -6.1022514e-05 0.0034937214
0.01049056 -0.005369217 -0.005448649 0.0026287658 0.0073057115 0.0012529835 0.008049279 0.0064442586
0.0067030033 0.010176193 0.008687102 0.005448137 0.0070148953 -0.0082272105 -0.011793247 0.0017025193
0.008814751 0.002428442 0.013169798 0.0009395804 0.0064047417 0.009976714 0.007213666 0.009258252
0.013722901 -0.005796625 -0.00051164813 0.008831263 0.0039549 -0.014037395 0.002509474 0.006453152
-0.0033290256 -0.00041196588 0.00032272848 -0.0026907371 0.0045312275 0.0115840845 -0.0061273947 0.01090228
-0.0010797435 0.00212488 0.00856684 0.0026312564 -0.0075734714 0.0029367316 -0.0035146708 -0.014513479
0.01174147 0.00545846 0.010122808 0.004147367 -0.002480989 -0.00054212206 -0.004179553 0.0039557274
0.0060117356 0.009812777 0.0029150185 0.0041604787 0.006813969 0.0034583793 0.012381661 0.00010480388
-0.0040303986 0.0009481916 -0.003505093 0.0047344426 0.0053476533 0.0065761358 0.0035860743 0.012754703
-0.008825483 -0.0004709585 -0.0012165228 0.006133035 -0.0076542324 0.00011445656 -0.0032094961 0.00779818
0.003744683 0.0054027843 -0.0060942997 0.00053240254 0.01219469 0.0070786905 -0.00013429392 0.012866109
0.005741023 0.0066445437 0.012138554 0.003221792 0.00843954 0.009226482 -0.0014105384 -0.00080469425
0.0040761144 0.011453369 -0.0067471163 0.003632562 0.012778502 0.0037620936 0.009411645 0.007862319
0.008528647 0.0053483984 0.009405807 0.005128347 -0.0006922472 0.0028163083 0.008442775 0.007860515
-0.00095087104 0.005552688 0.008056915 0.009844975 0.003935203 0.00944589 0.0020921105 0.008152521

lstm.bias_hh_l0 f4 [512]
00000000: fbc1 4e3c 11e8 043c cfde d239 663f 2c3c
00000010: 6894 c3ba 7564 ae3b 3543 463a 00fd 923b
00000020: fd45 123c 71cc e7bb 2b99 12bc 6b50 263b
00000030: 8d98 b53b bcce 7c3b 6ffb 1c3b b29b b33b
00000040: 6af7 cf3b 9904 0c3c cc22 033c 2f16 1c3b
00000050: 7ce0 dd3b 7a4e 40bc 23dc 60bc b34b a13a
00000060: 2478 183c 6a9f 5a3b 0177 4a3c 5e0c 733b
00000070: 67dc cb3a aea5 113c 5a90 cb3b 7931 403c
00000080: 5735 5a3c 3a5c fdbb b7ee cc3a cc8b 003c
00000090: 55a4 d23b 5d7f 63bc 34cc 783b 9b8c b73b
000000a0: c024 ebbb 5bd0 d3ba 2659 74ba f59a bebb
000000b0: e93e a23b 7f9c f73b 8b2b 2dbc 90da 103c
000000c0: df9d 6a3b 89e2 083a 4e3a ac3b 7543 ae3b
000000d0: 7828 17bc 0ce6 15bb 4b8c dd3a 288d e6bb
000000e0: 113f 3c3c cf1b f43b d2e9 143c c99b 323b
000000f0: 5cd0 94bb 3fec dfba 0860 22bc 41b9 103b
00000100: 301e ce3b 1bf4 073c 4d01 aa39 90e9 f5ba
00000110: 0ca0 eb3b 20af f73a 6d20 283c 1bca d53a
00000120: 7313 01bb a0a0 493b a168 20bb 854a 7e3b
00000130: f2c3 963b a41a f23b 069e 023b bdb2 493c
00000140: f4a2 c9bb 2571 2f3a 1b69 99bb c8bf bf3b
00000150: 436a b9bb 086b 7c3b 8d8b 1dbb 1eed b93b
00000160: 4499 ccba af18 b73b 535b 1fbc b44c 99ba
00000170: 51c9 ff3b e2fc c93b 13e1 0eb9 bbfa 243c
00000180: 019a dd3b 32eb cf3b 4f88 1f3c eff2 523b
00000190: 712c 653b 5241 133c c181 12bb 03f1 d53a
000001a0: 9c7e 7e3b 2e92 2f3c d974 9dbb e5c0 8e3b
000001b0: bf50 533c ea57 f03a 8b9a 193c 5180 e33b
000001c0: f9af c53b b0c6 c63b 8f74 123c d65f 903b
000001d0: 7eed 51ba db08 4d3b 1c06 053c ffeb 263c
000001e0: 0058 6fbb a318 073b 2303 183c aecc 1a3c
000001f0: 2203 6d3b d71b 103c b9d5 8e3a d4b6 e03b
00000200: ab21 603c 0480 fe3b 9df9 45ba 2535 283c
00000210: 4460 8ebb a756 3d3b 6df2 7fb8 ebf6 643b
00000220: 99e0 2b3c 42f0 afbb 958a b2bb 5f47 2c3b
00000230: c064 ef3b 263b a43a 20e1 033c 5c2a d33b
00000240: dea4 db3b 0cba 263c 5954 0e3c 4986 b23b
00000250: 35dd e53b 6ccb 06bc 7738 41bc 1127 df3a
00000260: bf6b 103c 7f26 1f3b 23c6 573c 2c4e 763a
00000270: dede d13b 5f75 233c 9e60 ec3b ecaf 173c
00000280: 05d6 603c 9df1 bdbb 2020 06ba 00b1 103c
00000290: 1b98 813b 1afd 65bc fd75 243b f674 d33b
000002a0: c82b 5abb 20fd d7b9 e233 a939 1457 30bb
000002b0: b17a 943b 2ccb 3d3c 50c8 c8bb 7a9f 323c
000002c0: 2e86 8dba 9241 0b3b ee5b 0c3c 2871 2c3b
000002d0: e22a f8bb 2e76 403b 6456 66bb f1c9 6dbc
000002e0: 4b5f 403c e2dc b23b 22da 253c a3e6 873b
000002f0: 1798 22bb 321d 0eba a2f4 88bb 0c9f 813b
00000300: 18fe c43b c5c5 203c e509 3f3b a054 883b
00000310: b747 df3b faa5 623b 73dc 4a3c 28ca db38
00000320: 6f11 84bb 1090 783a b4b5 65bb 6223 9b3b
00000330: 5e3b af3b a07c d73b 5804 6b3b 1af9 503c
00000340: c298 10bc fbea f6b9 bb73 9fba a0f7 c83b
00000350: 5bd0 fabb 6608 f038 6956 52bb e087 ff3b
00000360: 5b69 753b d709 b13b b1b2 c7bb ee90 0b3a
00000370: 3dcc 473c 5cf4 e73b 40d1 0cb9 5fcc 523c
00000380: 311f bc3b 79ba d93b c9e0 463c b324 533b
00000390: ff45 0a3c ac2a 173c d1e1 b8ba 1ef2 52ba
000003a0: ed90 853b e9a6 3b3c ea16 ddbb 4710 6e3b
000003b0: ec5c 513c 758d 763b 4d33 1a3c f5d0 003c
000003c0: bdbb 0b3c 9e41 af3b d01a 1a3c b10b a83b
000003d0: ec77 35ba d091 383b 9153 0a3c 64c9 003c
000003e0: e043 79ba 53f3 b53b 2701 043c d14c 213c
000003f0: e0f2 803b efc2 1a3c ca1b 093b 2792 053c
0.012619491 0.00811197 0.00040220327 0.010513162 -0.0014921548 0.005322034 0.0007563115 0.0044857264
0.008927819 -0.007073932 -0.008947651 0.0025377523 0.005541867 0.0038575372 0.0023953577 0.005481207
0.0063466327 0.008546018 0.008003902 0.0023816933 0.0067711454 -0.01173746 -0.01372436 0.0012305885
0.0093059875 0.0033359178 0.012357474 0.003708623 0.0015553356 0.008889599 0.0062122764 0.011730545
0.013318381 -0.0077319415 0.0015635107 0.00784583 0.0064282813 -0.013885346 0.0037963511 0.0056014783
-0.007176012 -0.0016160117 -0.00093211455 -0.005816812 0.004951347 0.0075564976 -0.0105694635 0.008841172
0.0035799665 0.00052217447 0.005255974 0.0053181 -0.009225957 -0.0022872714 0.0016902772 -0.00703587
0.011489646 0.007449604 0.00908895 0.00272535 -0.00454144 -0.0017083957 -0.009910591 0.0022083076
0.0062902197 0.008297945 0.00032425896 -0.0018761624 0.00719071 0.0018896796 0.010261637 0.0016310842
-0.001969543 0.0030765906 -0.0024476426 0.0038801741 0.004600995 0.0073884297 0.0019930615 0.012310681
-0.0061534587 0.000669258 -0.004681719 0.0058517195 -0.0056584193 0.0038515944 -0.0024039478 0.0056740185
-0.0015609642 0.0055876593 -0.009726363 -0.0011695833 0.007805981 0.006164179 -0.00013626022 0.010069544
0.0067627435 0.006345176 0.009737088 0.0032188257 0.0034969116 0.008987742 -0.0022355171 0.0016322437
0.003883279 0.010716004 -0.004805189 0.004356491 0.012897669 0.0018336747 0.009375225 0.0069427867
0.0060329405 0.006066166 0.008938923 0.004405956 -0.00080081064 0.0031285796 0.008119132 0.010188102
-0.0036520958 0.002061405 0.009278092 0.0094482135 0.0036165197 0.0087957 0.0010897435 0.0068577323
0.013679902 0.0077667255 -0.0007552149 0.010266577 -0.004344972 0.002889076 -6.1022514e-05 0.0034937214
0.01049056 -0.005369217 -0.005448649 0.0026287658 0.0073057115 0.0012529835 0.008049279 0.0064442586
0.0067030033 0.010176193 0.008687102 0.005448137 0.0070148953 -0.0082272105 -0.011793247 0.0017025193
0.008814751 0.002428442 0.013169798 0.0009395804 0.0064047417 0.009976714 0.007213666 0.009258252
0.013722901 -0.005796625 -0.00051164813 0.008831263 0.0039549 -0.014037395 0.002509474 0.006453152
-0.0033290256 -0.00041196588 0.00032272848 -0.0026907371 0.0045312275 0.0115840845 -0.0061273947 0.01090228
-0.0010797435 0.00212488 0.00856684 0.0026312564 -0.0075734714 0.0029367316 -0.0035146708 -0.014513479
0.01174147 0.00545846 0.010122808 0.004147367 -0.002480989 -0.00054212206 -0.004179553 0.0039557274
0.0060117356 0.009812777 0.0029150185 0.0041604787 0.006813969 0.0034583793 0.012381661 0.00010480388
-0.0040303986 0.0009481916 -0.003505093 0.0047344426 0.0053476533 0.0065761358 0.0035860743 0.012754703
-0.008825483 -0.0004709585 -0.0012165228 0.006133035 -0.0076542324 0.00011445656 -0.0032094961 0.00779818
0.003744683 0.0054027843 -0.0060942997 0.00053240254 0.01219469 0.0070786905 -0.00013429392 0.012866109
0.005741023 0.0066445437 0.012138554 0.003221792 0.00843954 0.009226482 -0.0014105384 -0.00080469425
0.0040761144 0.011453369 -0.0067471163 0.003632562 0.012778502 0.0037620936 0.009411645 0.007862319
0.008528647 0.0053483984 0.009405807 0.005128347 -0.0006922472 0.0028163083 0.008442775 0.007860515
-0.00095087104 0.005552688 0.008056915 0.009844975 0.003935203 0.00944589 0.0020921105 0.008152521

lstm.weight_ih_l1 f4 [512, 128]
00000000: 71fb 563d 81bf 28bd 3545 493c 1689 b2bd
00000010: a9e5 66bc 8c8c e83c 5456 93bd 2ccf 813c
00000020: 6fcc 79bd 1421 a73d dded 04bc 742b 8f3d
00000030: 0223 db3d 64b2 95bc 85f1 a3bd 7f3c 803d
00000040: 45b6 37bd 5ae8 24bc 5755 b33d b0f5 91bd
00000050: 1e64 ce3c a73d 9939 e31c ac3d c3e0 213c
00000060: 46ef a53c 4c1a 7c3d 5adb d23c fda5 5fbd
00000070: 7838 843d 7373 863d 934e f83b 1a94 f23c
00000080: b63c 2d3d fd09 ce3d 5675 d63d b08b 543d
00000090: ed42 2dbd 4d06 abbd 7c02 713d b20f aa3d
000000a0: 4e7a bfbc 3bbd 9ebc 325e 8bbc 6693 7bbd
000000b0: b645 1dbd 87cd 993c 8188 e23c 343e e83c
000000c0: f7e5 593b 2dd4 b4bd 71c6 5fbd f4dc e83c
000000d0: af98 b13d 00c1 0cbb 4b82 883d ab10 a2bd
000000e0: 48f5 b63d 3fc2 c83d 58ce 9a3d aa9e 69bd
000000f0: 0e6c d7bd cbd3 7cbb fab0 88bb 1fa0 ab3c
00000100: 22fc 5e3c 799b 2b3d add7 c1bc bed5 9ebd
00000110: 07da 233b 154a 73bd 7764 67bd 7539 a23c
00000120: 88d3 94bc 152c 603d 807b 4fbd 97e7 4dbc
00000130: 1d59 ea3c 64ce ac3d cd5d 0a3d 0572 5c3d
00000140: 88d7 2e3b 24db a63d 1982 9e3b ae4f a73d
00000150: b1c8 e9ba 83d6 98bc f743 803d beb5 303d
00000160: b57d f5bc 05e7 7dbd ced8 813d afd6 643d
00000170: 0190 91bc 9598 d03d ceae 95bc 6b68 a9bd
00000180: 2b71 b43d bde2 22bd d0b4 aa3d 5681 b33c
00000190: f354 bbbd f662 513d 6a0e 79bd 4e27 963d
000001a0: 9c01 a5bd 3524 923d af9b 413d d120 71bc
000001b0: 5c8d b1bd 3eb8 ca3d 1222 883c c5e8 8cbd
000001c0: f088 d83c dc75 7b3d 2e13 c83d 437b 9dbd
000001d0: aa52 51bc 3733 d23c 60b8 b4bd 2266 323d
000001e0: ad49 b83d 0c47 6dbd 91b1 c43d 3bac b7bd
000001f0: 0dae 7cbd 0299 cebc 480e f6bc c92d 1bbd
00000200: 1e21 19bd f86c c9bd 5e36 1dbd 3a34 083d
00000210: 6bbe 863d 3eb2 6b3d 9afd 3e3d 8866 bd3c
00000220: 7bfc 4d3d 8127 71bb 45b1 a03d ff54 653a
00000230: adfb 8b3d a6d3 53bd 9fbe a7bd 7e1f 303d
00000240: 5836 c13d 953d 0ebd fd72 20ba 8f0e a63d
00000250: 9b1f bdbd 7d49 3a3d 8dfe 95bd 7dc8 91bd
00000260: f4bb e73c eb47 723d 8ca6 0b3c bec9 c13c
00000270: d645 41bc 119f 21bd 6c72 b03d feef aa3d
00000280: f840 1a3d 2e6d bc3d aef9 783d 20ab 3bbc
00000290: 5fe9 b8bd 4356 b2bc 091f 4e3d a0aa 9bbd
000002a0: 76c6 c83d 3950 903d 67a2 94bd 38e9 713c
000002b0: 5f76 0f3d 3aa5 c5bd 7e7f c5bd 3286 97bc
000002c0: ffce 62bd 8a48 93bc d2cb a93d e18c 17bd
000002d0: 3f16 b2bd bdf8 59bd 21ce 80bd 2cbc 6d3d
000002e0: e1d4 86bd dc79 b03b e460 53bd 9faa a5bd
000002f0: f030 843d eefa 8ebd b113 28bc 207d 65bd
00000300: 3103 8bbd 67a1 953a fc40 00bd 886e 4abd
00000310: 4401 883d 54bd 753a e227 6a3d e845 c73c
00000320: 2f73 103d 05c0 b1bd 49da 7cbc a047 84bd
00000330: e54f 7e3d 174e 883d c2d4 353c 2d03 c53d
00000340: 1698 8ebd 3ce6 733d 98a1 13bc 7f99 a9bc
00000350: 22cf 85bb f86d 4c3d 1cee 8b3d 1730 09bd
00000360: 9d60 0a3d 8156 77bc c602 c43d 31e7 b03d
00000370: 5b87 8a3d 59b4 7fbd 0d33 c1bd fe3d fabc
00000380: 9912 5c3c 8a8f cf3d 08ca 34bd 24e2 5bbd
00000390: 2f9b 87bc 857d efba 8c4f 233c a022 5e3d
000003a0: b6bf 633c 0c2c acbd 6d8c 4b3d 6c4b 593b
000003b0: 40f9 abbd 69b3 8bbd b640 ebbc 12bd 9fbd
000003c0: 9051 abbd 9cbf 8ebd 7a6d eb3c 710e 0bbc
000003d0: ee9b 653c f33e 5a3d 86b4 c63d 3fcb 993d
000003e0: 02ca 473d 9411 f43c 6308 55bd 12a6 47ba
000003f0: e0d2 723d ec2f 9c3d 6f47 903d ea6e 17bd
0.052485887 -0.041198257 0.012284567 -0.08717553 -0.014092841 0.02838733 -0.071942 0.015845858
-0.06098598 0.08160606 -0.008113352 0.0699071 0.107000366 -0.01827354 -0.080050506 0.06261539
-0.04485156 -0.010065163 0.08756512 -0.07126939 0.025194224 0.0002922837 0.08403947 0.0098802475
0.020255696 0.061548516 0.02573936 -0.054601658 0.06456083 0.06564989 0.007577726 0.029611636
0.042294227 0.10060499 0.10471599 0.05189103 -0.042300154 -0.08350811 0.05884026 0.08303775
-0.02337375 -0.019377341 -0.01701269 -0.061419867 -0.03839656 0.01877476 0.02765298 0.028349973
0.0033248642 -0.08829532 -0.054632608 0.028425671 0.086717 -0.0021477342 0.066654764 -0.079133354
0.089335024 0.098026745 0.07558888 -0.05703608 -0.10518657 -0.0038578387 -0.004171488 0.020950375
0.013609918 0.041896317 -0.023662413 -0.07755612 0.002500178 -0.059396822 -0.056492295 0.019802788
-0.018167272 0.05472954 -0.05065489 -0.012567422 0.028606946 0.084378034 0.03378086 0.053819675
0.002667876 0.081472665 0.004837286 0.081694946 -0.00178363 -0.018656975 0.06262963 0.043142073
-0.029967168 -0.061987896 0.0634018 0.0558688 -0.017768862 0.10185353 -0.01827183 -0.08271869
0.088106476 -0.039767016 0.083352685 0.021912258 -0.09147062 0.051119767 -0.060804762 0.073317155
-0.080569476 0.07135812 0.047267612 -0.014717297 -0.0866954 0.09898423 0.016617808 -0.06880335
0.026432484 0.061391696 0.09769283 -0.07689526 -0.012776056 0.025659187 -0.08824229 0.043554433
0.089984275 -0.057929084 0.096041806 -0.08968397 -0.061689425 -0.025219444 -0.030036107 -0.03788546
-0.0373851 -0.09835237 -0.038381927 0.033252932 0.06579288 0.057543032 0.046628572 0.02312018
0.050289612 -0.0036797228 0.078463115 0.0008748322 0.06835113 -0.051715516 -0.08190655 0.042998783
0.094341934 -0.034726698 -0.000612065 0.081082456 -0.09234544 0.04548024 -0.07323942 -0.07118318
0.028287865 0.059150618 0.008523595 0.023655768 -0.011796435 -0.03945834 0.08615574 0.08346556
0.037659615 0.09200512 0.060784988 -0.011454374 -0.09028887 -0.021769648 0.050322566 -0.076009035
0.098034784 0.07046551 -0.07257538 0.014765076 0.035024997 -0.09650655 -0.09643458 -0.018496606
-0.055373188 -0.017978925 0.08290829 -0.036999587 -0.08695649 -0.05321573 -0.06289316 0.058040783
-0.06583572 0.0053856205 -0.051606074 -0.08089184 0.064546466 -0.06981455 -0.010258601 -0.05602753
-0.06787718 0.00114159 -0.031311974 -0.049421817 0.066408664 0.00093742204 0.05716694 0.024325326
0.035266098 -0.08679203 -0.015432903 -0.06458974 0.062087912 0.066555195 0.011098089 0.09619746
-0.06962602 0.05954574 -0.009010695 -0.020703075 -0.00408353 0.049909562 0.06832525 -0.033493128
0.033783544 -0.015096308 0.095708415 0.08637846 0.06764098 -0.062427852 -0.09433565 -0.030547138
0.013432168 0.101348 -0.044137985 -0.05368246 -0.01655349 -0.0018271661 0.009967696 0.05423224
0.013900688 -0.08406839 0.049694467 0.0033156527 -0.0839715 -0.06821329 -0.02871738 -0.07799734
-0.08365166 -0.0697014 0.028738726 -0.00848733 0.014014227 0.05328269 0.09702401 0.07509469
0.048776634 0.029793538 -0.05200995 -0.0007615994 0.059283137 0.07626328 0.07044875 -0.03697101
