checkpoints/bpm_regressor.pt (torch, 978383 bytes, 17 tensors)

conv1d.0.weight f4 [64, 7, 3]
-0.08877265 0.06748479 -0.60809886 0.1429834 0.35959315 -0.021647763 -0.6317167 -0.33255634
-0.45576382 0.28764334 -0.10301522 0.35886788 0.13241921 0.25271732 0.46534762 0.21630321
0.2573266 0.3053899 0.17169906 0.45652843 0.0135420775 0.18371941 -0.103287145 -0.23144697
0.4863039 0.12547523 0.07245013 -0.69237834 0.05064038 -0.13085087 0.17733327 0.42349866
0.030226436 0.3810428 0.2546133 0.43552345 -0.11715766 -0.25143728 -0.12987699 -0.029831933
-0.22943734 0.43031114 0.50443614 0.29943112 -0.17768136 -0.5637995 0.16854025 0.09562336
0.012495314 -0.12879297 0.16655794 -0.06501119 0.11908568 0.10745995 -0.14557807 0.015591779
0.32818013 -0.3476025 0.27736178 -0.18119273 -0.31900516 0.2302518 -0.14225455 0.34140682
-0.23048896 -0.0056985687 0.5075687 0.22113572 -0.023810288 0.17661932 -0.5834195 -0.3464977
0.25299412 0.3832974 -0.27305478 0.6499276 0.109528705 0.36666107 0.12616107 -0.10493872
-0.23486851 -0.113884695 0.0783586 -0.020193765 -0.5213399 0.39913502 -0.4728544 -0.25333476
0.44708467 0.54441154 0.75263727 -0.39477882 -0.3976472 -0.16632442 0.35786423 -0.25514412
-0.22504653 -0.24200982 0.3797174 -0.592485 0.11460374 0.027373072 0.074151635 -0.14214577
0.044256434 -0.26224828 -0.38262206 0.33746007 0.6981514 -0.2033282 -0.2697372 -0.65972185
-0.7654402 -0.36549956 -0.33266318 -0.3299391 -0.14842825 -0.19134203 -0.14489408 -0.23632386
0.08845689 0.36317942 0.17841816 -0.14830063 -0.49357486 0.052948896 -0.46417245 -0.11276346
0.6015964 -0.36536384 0.21060978 0.23483212 -0.21400802 0.20034546 0.2343917 0.14534593
0.071439296 -0.16964318 0.64036924 -0.11499594 -0.14247288 0.024336312 -0.26286966 -0.14473352
-0.15251864 -0.06666491 -0.16727938 0.13576815 0.050838925 -0.21517582 0.15992853 -0.0073483796
0.06109106 0.31817728 -0.47960442 0.013691507 0.12675762 0.36773604 0.4232514 0.21846068
-0.017897442 0.40152502 -0.64991397 0.08932249 -0.4972059 -0.36862072 -0.5778198 0.48082894
0.42760262 0.1925547 0.36613083 -0.859484 -0.00035788398 -0.044617478 -0.0624167 -0.47764644
0.28601316 0.16830009 -0.4709375 0.2855428 -0.07098781 0.36913994 0.3504008 -0.03643044
-0.010068945 -0.51511973 -0.03496232 -0.1622482 -0.29446563 0.092969984 0.22970122 -0.17409486
0.062114146 0.0030411251 -0.51318955 0.6508569 0.86723405 -0.031392526 -0.5703916 0.43290207
0.27619508 0.32953432 0.18841802 -0.030732749 -0.2918658 0.40702838 0.2544049 -0.035795055
0.07882975 -0.5305152 0.2554686 -0.45745125 0.6072072 -0.34397274 0.32203263 -0.40503803
0.2883303 0.15304567 0.5685594 0.3329319 0.20815912 -0.2538741 0.274781 0.04562664
-0.044964332 0.5708842 0.20017892 -0.12634504 0.2888266 -0.18104784 -0.09718074 -0.3233213
0.016396547 0.4069853 -0.20498437 0.4340223 0.25551102 -0.010107606 -0.34206024 -0.40898874
-0.41980833 0.10438742 0.29801005 -0.059777807 0.2957229 -0.24758348 -0.2589027 0.3209321
-0.050483003 0.4105992 -0.2079929 -0.5494011 0.01020384 0.86258817 0.099775836 0.18418711
00000000: 6fce b5bd 7735 8a3d 5eac 1bbf 3e6a 123e
00000010: 981c b83e a656 b1bc 30b8 21bf d344 aabe
00000020: e059 e9be fd45 933e a5f9 d2bd 88bd b73e
00000030: e798 073e 2a64 813e 0b42 ee3e 977e 5d3e
00000040: 50c0 833e 115c 9c3e e1d1 2f3e 18be e93e
00000050: 97df 5d3c f120 3c3e 3688 d3bd 6f00 6dbe
00000060: d3fc f83e 947c 003e bc60 943d b53f 31bf
00000070: 496c 4f3d c5fd 05be da96 353e d1d4 d83e
00000080: 6e9d f73c 0b18 c33e ad5c 823e eefc de3e
00000090: 5bf0 efbd 63bc 80be 79fe 04be 1962 f4bc
000000a0: 9ff1 6abe be51 dc3e ba22 013f 094f 993e
000000b0: 1af2 35be 2a55 10bf d195 2c3e 2ed6 c33d
000000c0: 25b9 4c3c 4ee2 03be 2a8e 2a3e 9624 85bd
000000d0: 31e3 f33d f613 dc3d 6b12 15be a974 7f3c
000000e0: 3a07 a83e f4f8 b1be 5d02 8e3e 968a 39be
000000f0: a554 a3be 21c7 6b3e 2dab 11be e0cc ae3e
00000100: 4c05 6cbe 0fbb babb 06f0 013f 6771 623e
00000110: cb0d c3bc b2db 343e fb5a 15bf 2668 b1be
00000120: 7288 813e 8f3f c43e d6cd 8bbe a861 263f
00000130: 9650 e03d 00bb bb3e 5e30 013e 1dea d6bd
00000140: 5f81 70be 613c e9bd 797a a03d 656d a5bc
00000150: 8876 05bf 6d5b cc3e f919 f2be 18b5 81be
00000160: 48e8 e43e 8e5e 0b3f d6ac 403f 7320 cabe
00000170: 6a98 cbbe f350 2abe fb39 b73e 40a2 82be
00000180: 9972 66be 6cd1 77be 526a c23e 19ad 17bf
00000190: 5eb5 ea3d 7e3d e03c d0dc 973d a98e 11be
000001a0: 3c46 353d 6845 86be 0ae7 c3be 91c7 ac3e
000001b0: 0dba 323f 4535 50be ff1a 8abe 88e3 28bf
000001c0: e4f3 43bf c222 bbbe d452 aabe c7ed a8be
000001d0: 93fd 17be 2aef 43be 1d5f 14be e2fe 71be
000001e0: e328 b53d a7f2 b93e 40b3 363e 1fdc 17be
000001f0: d8b5 fcbe f1e0 583d 03a8 edbe 87f0 e6bd
00000200: 3902 1a3f f810 bbbe 17aa 573e d577 703e
00000210: eb24 5bbe 5c27 4d3e 6104 703e 90d5 143e
00000220: c44e 923d f1b6 2dbe 3def 233f fe82 ebbd
00000230: 69e4 11be f25c c73c da96 86be 0635 14be
00000240: d92d 1cbe 9d87 88bd 494b 2bbe ce06 0b3e
00000250: 7a3c 503d 0d57 5cbe 4ec4 233e adca f0bb
00000260: 9f3a 7a3d 22e8 a23e b68e f5be 5852 603c
00000270: c0cc 013e e647 bc3e 68b4 d83e 28b4 5f3e
00000280: a89d 92bc b094 cd3e c360 26bf b6ee b63d
00000290: c691 febe dbbb bcbe 00ec 13bf 362f f63e
000002a0: bbee da3e 0f2d 453e 8075 bb3e 2507 5cbf
000002b0: 60a2 bbb9 d1c0 36bd a7a8 7fbd 138e f4be
000002c0: 5170 923e dc56 2c3e b81e f1be aa32 923e
000002d0: 0f62 91bd e9ff bc3e bc67 b33e 1638 15bd
000002e0: 37f8 24bc e3de 03bf a634 0fbd 6424 26be
000002f0: 33c4 96be 0c67 be3d cc36 6b3e ec45 32be
00000300: 676b 7e3d 9d4d 473b 6460 03bf 8f9e 263f
00000310: 0d03 5e3f 7395 00bd 2f05 12bf 57a5 dd3e
00000320: 7169 8d3e b9b8 a83e a7f0 403e 3fc3 fbbc
00000330: 6f6f 95be 0666 d03e 5c41 823e d69d 12bd
00000340: 7e71 a13d d8cf 07bf c8cc 823e 0d37 eabe
00000350: ee71 1b3f 321d b0be 76e1 a43e 2561 cfbe
00000360: 07a0 933e 01b8 1c3e 1c8d 113f 0d76 aa3e
00000370: aa27 553e c9fb 81be 18b0 8c3e 00e3 3a3d
00000380: 852c 38bd 7825 123f b4fb 4c3e 9860 01be
00000390: 15e1 933e 9b64 39be b206 c7bd 5f8a a5be
000003a0: 0d52 863c 6160 d03e 6ce7 51be 2c38 de3e
000003b0: 57d2 823e 5f9a 25bc 8522 afbe f966 d1be
000003c0: 1ef1 d6be 12c9 d53d c694 983e 93d9 74bd
000003d0: fe68 973e 8686 7dbe e58e 84be 3651 a43e
000003e0: 44c7 4ebd 0f3a d23e 17fc 54be 8da5 0cbf
000003f0: 022e 273c 94d2 5c3f 4657 cc3d 8c9b 3c3e

conv1d.0.bias f4 [64]
-0.01951497 -0.006045353 -0.0010217939 -0.021905383 -0.0022404524 0.019150047 0.029570797 -0.002864566
0.028305892 0.020314937 -0.004352867 -0.0012312413 0.0048003644 0.012273831 0.0007630393 0.01514109
-0.040663317 -0.02461148 0.10171257 -0.010920966 -0.082688846 -0.059599195 0.07688993 0.054942977
-0.011810511 -0.0087987045 -0.0056587984 0.007137463 0.0032521412 -0.014080143 -0.0209553 0.023425756
0.026180407 0.037060566 0.0011728893 -0.05792229 -0.041168638 0.012534188 0.041274667 0.03945306
0.048857566 -0.030611157 0.11515238 0.04802329 0.0345737 -0.027406573 -0.026962096 -0.011875212
0.014365941 -0.058795214 -0.030555697 -0.026600836 0.035694845 -0.044821084 -0.0033323192 0.09551221
-0.0023236123 -0.013211033 0.010229172 -0.012357398 -0.006135178 0.05379596 -0.003248754 0.04762695
00000000: dcdd 9fbc 1918 c6bb b7ed 85ba eb72 b3bc
00000010: 8ed4 12bb 8fe0 9c3c 753e f23c 71bb 3bbb
00000020: c2e1 e73c 836b a63c 7fa2 8ebb 9a61 a1ba
00000030: 604c 9d3b 2e18 493c b306 483a 5612 783c
00000040: 948e 26bd 049e c9bc ae4e d03d daed 32bc
00000050: c558 a9bd 491e 74bd 7878 9d3d e30b 613d
00000060: e080 41bc 7128 10bc 716d b9bb 61e1 e93b
00000070: e021 553b 66b0 66bc 73aa abbc 5fe7 bf3c
00000080: 4b78 d63c d2cc 173d a2bb 993a ec3f 6dbd
00000090: 72a0 28bd 325c 4d3c a00f 293d 8899 213d
000000a0: df1e 483d 40c4 fabc 03d5 eb3d 12b4 443d
000000b0: 279d 0d3d c083 e0bc 9ddf dcbc 4090 42bc
000000c0: 205f 6b3c 40d3 70bd f14f fabc ffe9 d9bc
000000d0: c234 123d 5096 37bd 0a63 5abb e89b c33d
000000e0: bf47 18bb 1773 58bc 4298 273c af76 4abc
000000f0: 9a09 c9bb 2759 5c3d 0ce9 54bb 7a14 433d

conv1d.4.weight f4 [64]
0.9884929 1.001252 0.96247816 0.9949678 0.9918369 0.9927002 0.981333 0.9914641
1.0046736 1.092875 1.0426375 0.9817307 1.0487972 1.0579622 1.0060874 1.0072088
0.989717 0.99972856 0.93682414 0.97198313 0.98200184 0.99514097 0.9666509 0.9878089
0.97350925 1.0135448 0.99675864 1.015781 1.0074393 0.98770064 1.3215463 1.0285481
1.0244318 0.97875595 0.99775946 0.9899993 0.9886948 1.0126061 0.9759972 0.99652284
0.9689274 1.0072423 0.99215865 0.9751353 1.0024871 0.9852129 0.967388 1.0023274
1.2409178 0.962392 0.9841883 0.9938086 1.0039238 0.98661673 1.0027084 0.9871036
1.0164264 1.0350934 0.98903763 1.1812636 1.1103774 1.0000987 1.0063002 0.9866126
00000000: df0d 7d3f 0729 803f f864 763f 36b6 7e3f
00000010: 06e9 7d3f 9a21 7e3f a438 7b3f 97d0 7d3f
00000020: 2599 803f 54e3 8b3f 2575 853f b452 7b3f
00000030: fd3e 863f 4e6b 873f 79c7 803f 38ec 803f
00000040: 185e 7d3f 36ee 7f3f b5d3 6f3f e3d3 783f
00000050: 7964 7b3f 8fc1 7e3f 6f76 773f 0be1 7c3f
00000060: e737 793f d6bb 813f 932b 7f3f 1d05 823f
00000070: c5f3 803f f3d9 7c3f 6e28 a93f 77a7 833f
00000080: 9520 833f c08f 7a3f 2a6d 7f3f 9870 7d3f
00000090: 1a1b 7d3f 149d 813f f4da 793f 1f1c 7f3f
000000a0: a00b 783f 51ed 803f 1cfe 7d3f 78a2 793f
000000b0: 7f51 803f ea36 7c3f bda6 773f 444c 803f
000000c0: 65d6 9e3f 525f 763f c4f3 7b3f 3e6a 7e3f
000000d0: 9380 803f ea92 7c3f c058 803f d2b2 7c3f
000000e0: 431a 823f f17d 843f 9231 7d3f a533 973f
000000f0: d920 8e3f 3c03 803f 72ce 803f a592 7c3f

conv1d.4.bias f4 [64]
-0.022814209 -0.0052065873 0.023955863 -0.02679507 0.0127380695 0.012158104 0.026492316 -0.00836214
0.0107299555 0.011094464 0.00033799774 0.019479055 -0.0073505393 0.0302618 0.0007424803 0.0056608045
-0.010477683 -0.0041168965 0.06251647 0.029199887 0.017244201 0.0070630596 0.041815497 0.016286453
0.025547547 -0.01829669 0.016475368 0.011759709 -0.005826916 -0.016580973 -0.0014499419 0.009618107
0.0065790364 0.020560479 0.00748441 0.014608249 -0.024306003 0.018196829 0.019901631 0.022865023
0.029050563 -0.016786447 0.020547926 0.024917386 0.016457142 0.018214656 -0.031127108 -0.0017112052
-0.0072550303 -0.04136915 -0.013951732 -0.010898871 0.009504805 -0.014568456 -0.004148617 0.03785633
-0.015043392 0.016821263 0.01617588 0.008987723 -0.00756022 0.022876289 0.008227291 0.036039013
00000000: dde4 babc 059c aabb 163f c43c 5681 dbbc
00000010: 56b3 503c c932 473c 6a06 d93c 5b01 09bc
00000020: b2cc 2f3c 8ec5 353c 4a35 b139 8a92 9f3c
00000030: cbdc f0bb 98e7 f73c 02a3 423a 457e b93b
00000040: 96aa 2bbc 08e7 86bb a308 803d 9a34 ef3c
00000050: b643 8d3c 3d71 e73b ba46 2b3d 2b6b 853c
00000060: 1749 d13c f1e2 95bc 5af7 863c cbab 403c
00000070: b7ef bebb d2d4 87bc fa0b beba 4495 1d3c
00000080: f594 d73b 736e a83c c83f f53b 7057 6f3c
00000090: 621d c7bc 8411 953c bf08 a33c 6e4f bb3c
000000a0: 72fb ed3c bb83 89bc 2054 a83c 8c1f cc3c
000000b0: 21d1 863c e736 953c 47fe febc 854a e0ba
000000c0: 9bbb edbb b372 29bd ce95 64bc 2e91 32bc
000000d0: 0bba 1b3c 89b0 6ebc 1ff1 87bb 3d0f 1b3d
000000e0: 8f78 76bc bfcc 893c 4783 843c 3e41 133c
000000f0: b9bb f7bb 0e67 bb3c c2cb 063c a59d 133d

lstm.weight_ih_l0 f4 [512, 64]
-0.059846286 -0.031292997 -0.056385975 -0.058958028 -0.029332126 -0.03313414 0.023601402 0.115911454
-0.045726083 0.036622506 -0.017525882 -0.055488534 0.09477602 0.028878955 -0.039428413 -0.07258226
-0.0041197715 0.07898336 -0.08412158 -0.111744225 -0.026558256 0.009053932 0.06588858 0.06699172
0.04694505 -0.05670513 -0.0012776923 -0.052897368 -0.054283544 -0.035612557 -0.12276385 0.060234956
-0.028466828 0.032902125 -0.11492951 -0.05961991 -0.03981813 -0.042458743 -0.040363867 -0.049125254
0.031376895 0.028181557 -0.028731462 0.061775696 -0.07615545 -0.108131774 0.032436013 -0.05262869
0.030319162 -0.062852494 0.05189784 -0.024273327 -0.10418533 -0.03004292 0.055607937 -0.04082759
0.058548406 -0.091740996 -0.002384544 -0.09226748 0.023983436 0.020394098 -0.050850075 0.080557175
-0.107914835 -0.00236099 0.005257484 0.016142523 0.101957574 0.042547237 0.06530512 0.0076441066
0.029339325 0.007922818 -0.02445003 0.057660617 0.045733955 0.012671926 0.04639761 -0.0012017427
-0.07348841 0.06737004 0.04570856 0.02496013 0.019655077 0.090412125 0.07086469 0.065526694
0.08285037 0.102058254 -0.07663576 0.13347785 0.08600022 0.0954594 -0.1316579 0.018640941
0.020864202 -0.01873182 -0.06590866 0.031182641 -0.08255449 0.075671196 0.081231706 0.059581354
0.06623774 -0.057034094 -0.09135235 0.016412029 0.026762888 0.046410833 0.05163331 -0.015582826
0.031344756 0.0670797 -0.06957059 0.003915231 0.02337452 0.10831379 0.07980487 0.11645017
-0.034635864 0.018434031 -0.12723012 -0.09404964 -0.037309736 0.052401144 -0.10271341 -0.072492525
0.027389303 -0.0013617107 -0.006172069 -0.0439344 -0.10049416 0.005413001 -0.14399508 0.14455642
-0.1359531 0.017945927 0.038059175 0.017910182 0.099235326 0.06943462 0.023406845 -0.023724727
0.1529446 0.04991817 -0.07823007 -0.0140885385 -0.12925251 -0.007911783 -0.076750636 0.05676863
0.01219211 0.10691065 -0.0868354 0.05469435 0.14946336 0.09944554 -0.021629326 -0.107173376
0.032091018 -0.14216805 -0.006800471 0.001672219 0.033452716 -0.09317307 0.031755053 0.029082
-0.08919701 0.10634945 -0.049739186 -0.09262005 -0.046833277 0.014803128 0.1063981 -0.038396806
0.08394598 0.07285331 0.11551103 0.15571247 0.03495094 0.09906122 0.0019406195 0.026593342
-0.10722845 -0.090611085 -0.017729878 0.054656666 -0.08233264 -0.10120524 -0.021155665 0.046100203
-0.007934963 0.08165047 0.08860484 -0.056206316 0.03631408 0.0025313832 0.0207416 -0.050265003
-0.06633222 0.085066564 0.042409204 0.04393792 -0.011931478 -0.01031081 0.06457789 -0.032009512
-0.030522656 -0.034680985 0.005939891 -0.036134034 -0.09361675 -0.07229135 0.03133847 0.018021105
0.057827137 0.1025127 -0.041771173 -0.010112174 -0.027121944 0.038142487 -0.06803478 -0.07139721
0.024934012 0.081031576 0.03218594 0.014287827 0.010984692 0.08272579 0.07349356 -0.002874997
-0.06489457 0.07872599 0.034109525 0.07081576 0.08655486 -0.06278772 -0.006304268 0.009716902
0.11619084 -0.055495568 0.06532739 0.10055867 0.017762175 -0.0822349 0.061812043 -0.07411459
-0.0385948 -0.0930525 -0.09601321 0.091229744 -0.04219008 -0.0107310815 -0.08829079 0.00744867
00000000: 6121 75bd 162d 00bd fbf4 66bd f97d 71bd
00000010: ed49 f0bc aab7 07bd ba57 c13c fc62 ed3d
00000020: 464b 3bbd 7b01 163d 7092 8fbc f247 63bd
00000030: ee19 c23d 8f93 ec3c b07f 21bd 02a6 94bd
00000040: 26ff 86bb 07c2 a13d ef47 acbd 28da e4bd
00000050: b390 d9bc f156 143c 98f0 863d f432 893d
00000060: 7449 403d a343 68bd 3d78 a7ba e9aa 58bd
00000070: 6c58 5ebd 79de 11bd 9d6b fbbd eeb8 763d
00000080: 4433 e9bc 61c4 063d 2a60 ebbd 0234 74bd
00000090: 5618 23bd 38e9 2dbd 9554 25bd 9037 49bd
000000a0: 0f85 003d 02dd e63c 3e5e ebbc 8308 7d3d
000000b0: 63f7 9bbd 3174 ddbd a0db 043d 2e91 57bd
000000c0: e45f f83c cfb8 80bd d492 543d dbd8 c6bc
000000d0: 1e5f d5bd 921c f6bc 26c5 633d d53a 27bd
000000e0: 74d0 6f3d b4e2 bbbd 0246 1cbb bcf6 bcbd
000000f0: e978 c43c 8611 a73c 2b48 50bd 29fb a43d
00000100: 7402 ddbd d7ba 1abb f946 ac3b 533d 843c
00000110: 22cf d03d 0346 2e3d b1be 853d 6a7b fa3b
00000120: 0659 f03c b5ce 013c 6e4b c8bc 8a2d 6c3d
00000130: 8753 3b3d e99d 4f3c 6c0b 3e3d cb83 9dba
00000140: 1781 96bd 4ef9 893d e638 3b3d 3079 cc3c
00000150: af03 a13c fe29 b93d 8221 913d dc32 863d
00000160: 74ad a93d eb03 d13d 36f3 9cbd 6bae 083e
00000170: e220 b03d 3880 c33d 54d1 06be e3b4 983c
00000180: 67eb aa3c 7973 99bc 1ffb 86bd bd72 ff3c
00000190: 5412 a9bd 80f9 9a3d cf5c a63d 940b 743d
000001a0: a7a7 873d 959c 69bd f116 bbbd 8572 863c
000001b0: d83d db3c 4919 3e3d 737d 533d 1c4f 7fbc
000001c0: 5c63 003d 1561 893d 077b 8ebd 574b 803b
000001d0: ec7b bf3c 9fd3 dd3d bc70 a33d 6d7d ee3d
000001e0: 56de 0dbd f702 973c 9d48 02be 199d c0bd
000001f0: 18d2 18bd 95a2 563d 695b d2bd f676 94bd
00000200: 885f e03c 6e7b b2ba 113f cabb 8ff4 33bd
00000210: e2cf cdbd 8b5f b13b 7273 13be 9906 143e
00000220: 4a37 0bbe 5603 933c f0e3 1b3d 60b8 923c
00000230: e43b cb3d bd33 8e3d b6bf bf3c 5c5a c2bc
00000240: 829d 1c3e ff76 4c3d 1637 a0bd 9dd3 66bc
00000250: c55a 04be 6ca0 01bc 702f 9dbd 3986 683d
00000260: 6ac1 473c f9f3 da3d c2d6 b1bd 2f07 603d
00000270: ec0c 193e 1aaa cb3d fc2f b1bc b77d dbbd
00000280: df71 033d 8094 11be 7cd6 debb 5c2e db3a
00000290: b705 093d 86d1 bebd 9611 023d 603d ee3c
000002a0: ecac b6bd becd d93d 51bb 4bbd 95af bdbd
000002b0: 40d4 3fbd d288 723c 3fe7 d93d f845 1dbd
000002c0: dfeb ab3d 1e34 953d 0c91 ec3d 1773 1f3e
000002d0: b828 0f3d 9ce0 ca3d 635c fe3a 48da d93c
000002e0: 979a dbbd 4e92 b9bd 403e 91bc abdf 5f3d
000002f0: 049e a8bd b144 cfbd a54e adbc 91d3 3c3d
00000300: a601 02bc 5d38 a73d 7476 b53d 9838 66bd
00000310: 13be 143d 90e5 253b 4aea a93c ade2 4dbd
00000320: 30d9 87bd 6137 ae3d 46b5 2d3d 40f8 333d
00000330: 3f7c 43bc acee 28bc 6a41 843d 681c 03bd
00000340: a60a fabc a60d 0ebd 6ba3 c23b 4801 14bd
00000350: 23ba bfbd 7d0d 94bd c45c 003d ffa0 933c
00000360: 26dc 6c3d 2ef2 d13d 4018 2bbd 88ad 25bc
00000370: d72e debc 4c3b 1c3d d255 8bbd b338 92bd
00000380: 6a42 cc3c e2f3 a53d 67d5 033d 7d17 6a3c
00000390: 23f9 333c 246c a93d cb83 963d 726a 3cbb
000003a0: 72e7 84bd 183b a13d 6eb6 0b3d da07 913d
000003b0: ad43 b13d d996 80bd 0894 cebb a433 1f3c
000003c0: 77f5 ed3d 524f 63bd 5eca 853d b4f1 cd3d
000003d0: fb81 913c c56a a8bd a02e 7d3d 64c9 97bd
000003e0: 9515 1ebd 4f92 bebd 93a2 c4bd a9d6 ba3d
000003f0: 81cf 2cbd 6bd1 2fbc cdd1 b4bd f913 f43b

lstm.weight_hh_l0 f4 [512, 128]
-0.08551469 0.071373604 0.10540588 0.06528904 0.056760915 -0.0452997 0.009040734 -0.018813461
-0.08863037 0.06909501 0.063549444 -0.029659605 0.076291226 -0.0785586 0.11297664 -0.10816603
0.07653217 -0.026948312 -0.092963785 -0.08463487 -0.088118665 0.0734447 -0.026953924 0.057052147
0.01337094 0.052679773 0.04516302 -0.006415826 0.057283446 0.053324725 0.054264527 0.05319568
-0.08428694 -0.07514305 -0.026163507 0.062846504 -0.049253386 0.05971343 -0.015865238 -0.008191259
-0.061511047 -0.072947815 -0.07132104 0.052593756 0.051285386 -0.0985895 -0.08019951 0.058224283
-0.07593872 -0.04468207 0.011365687 -0.060720067 0.0691591 -0.045415994 -0.04487835 -0.0077315755
-0.05339011 0.07571039 -0.034354016 -0.046895728 0.00094437646 0.115211256 0.10064706 -0.033206936
-0.069615744 -0.022400668 -0.05664626 0.034023225 0.012349725 -0.07732102 0.008312096 -0.003082839
0.08874301 0.041149996 -0.0046141176 -0.06185767 -0.034226354 0.0005634526 -0.08472281 0.033896286
0.073151976 0.08153831 -0.05816563 0.07196422 -0.024915058 -0.07724878 0.1024629 0.018612865
-0.074635416 -0.058692917 0.08275292 0.015627962 0.073316075 0.00077718584 -0.058081135 -0.058312554
-0.05669725 0.07203387 0.0442361 -0.05076889 0.047503754 -0.046562918 -0.01943007 -0.06514427
0.07690815 0.052689288 -0.0414528 0.0796943 -0.026747301 -0.0013904035 -0.09001269 -0.0747904
0.07994633 0.024387108 -0.06270431 -0.022762727 0.09282476 0.0895147 0.032863025 -0.048784684
-0.08755594 -0.011356116 0.030759964 -0.09057783 -0.056546826 0.07353157 0.09256406 -0.0048318775
-0.12496267 -0.053690474 0.041367974 0.10209147 0.07619873 0.10552368 0.05740892 -0.1079016
0.0812053 0.002039749 -0.012676972 0.03710839 0.036678154 -0.034820016 -0.050427444 0.053461067
0.026776418 -0.072532326 -0.050405424 -0.01928738 -0.018157423 0.0641717 -0.03287948 -0.046094086
0.043926194 -0.029728869 -0.083285846 -0.012736253 -0.034007974 0.032539528 -0.011567542 0.030240316
0.07802884 0.060542252 -0.035645433 -0.013574512 -0.0139388945 0.088717364 -0.06502875 -0.0057382737
-0.034118652 -0.06622133 -0.031609546 0.011313402 -0.08361201 -0.041684568 -0.006173124 -0.044448316
0.0019894766 -0.03424375 0.12668622 -0.042884026 -0.14167066 0.05478132 -0.08827057 0.068718486
-0.06521399 -0.014462296 -0.01103069 -0.0839984 0.044713937 -0.0027735503 0.05718703 0.045347717
-0.00923412 -0.07883745 -0.049668774 0.02938523 -0.011099155 0.028073613 -0.066862024 0.053950332
0.0312126 0.04440507 0.110508345 0.014357462 0.07522441 0.019932985 0.055365615 0.0085603865
0.09795361 0.015861217 -0.07080545 7.141365e-06 0.011990496 0.01049899 -0.1371727 -0.0105685415
0.0018108521 0.08885552 -0.06596365 0.025794528 0.108557254 0.050749198 0.10810976 -0.055942107
0.048716556 -0.0094364835 -0.06255289 0.09934347 0.047232326 -0.07005742 -0.016760351 0.05201846
0.03867273 0.0067381305 -0.071873456 -0.028045397 -0.03471698 0.014187751 -0.11348874 -0.08112543
0.01847879 -0.08163183 -0.037852928 0.08044403 -0.09232465 -0.09868322 0.043291565 0.076358646
-0.023661349 -0.092494294 0.05314999 -0.0071948096 -0.09898477 0.10770651 -0.033319857 -0.08055427
00000000: 5322 afbd 532c 923d 0adf d73d 43b6 853d
00000010: 227e 683d 2e8c 39bd 961f 143c b01e 9abc
00000020: d783 b5bd af81 8d3d 3626 823d b3f8 f2bc
00000030: 933e 9c3d 55e3 a0bd 4c60 e73d 2786 ddbd
00000040: e6bc 9c3d b5c2 dcbc cc63 bebd 0c55 adbd
00000050: 8f77 b4bd 2d6a 963d 7ace dcbc 83af 693d
00000060: ca11 5b3c bfc6 573d dcfc 383d d93b d2bb
00000070: 0ca2 6a3d 076b 5a3d 7b44 5e3d b7e3 593d
00000080: a29e acbd 99e4 99bd da54 d6bc abb5 803d
00000090: ebbd 49bd 1296 743d d1f7 81bc a134 06bc
000000a0: 02f3 7bbd aa65 95bd c410 92bd 8d6c 573d
000000b0: a010 523d 4be9 c9bd a43f a4bd 967c 6e3d
000000c0: c285 9bbd 8c04 37bd 2537 3a3c 9bb5 78bd
000000d0: 49a3 8d3d 1f06 3abd 5cd2 37bd 2859 fdbb
000000e0: 97af 5abd 0d0e 9b3d ccb6 0cbd bc15 40bd
000000f0: 0890 773a e1f3 eb3d 0c20 ce3d ff03 08bd
00000100: b392 8ebd 9b81 b7bc e905 68bd f05b 0b3d
00000110: 8056 4a3c 7c5a 9ebd 752f 083c 7509 4abb
00000120: e5be b53d e68c 283d 0632 97bb 785e 7dbd
00000130: ef30 0cbd aab4 133a 2783 adbd d5d6 0a3d
00000140: b4d0 953d 8ffd a63d 153f 6ebd fa61 933d
00000150: aa1a ccbc 9c34 9ebd 12d8 d13d 027a 983c
00000160: 74da 98bd fc67 70bd 5d7a a93d 3606 803c
00000170: bd26 963d 0fbc 4b3a 7ce6 6dbd 25d9 6ebd
00000180: 603b 68bd 7e86 933d ea30 353d 0af3 4fbd
00000190: 4c93 423d c2b8 3ebd cf2b 9fbc 5c6a 85bd
000001a0: 0582 9d3d b9d0 573d 69ca 29bd c436 a33d
000001b0: 281d dbbc 333e b6ba 9358 b8bd b62b 99bd
000001c0: e7ba a33d 79c7 c73c 1e6b 80bd e678 babc
000001d0: e81a be3d 7c53 b73d 619b 063d 73d2 47bd
000001e0: 8750 b3bd 010f 3abc 52fc fb3c df80 b9bd
000001f0: a59d 67bd b897 963d 3a92 bd3d ba54 9ebb
00000200: 6eec ffbd 8bea 5bbd 7771 293d 5515 d13d
00000210: 140e 9c3d cd1c d83d 9e25 6b3d 84fb dcbd
00000220: f74e a63d 4fad 053b 13b3 4fbc f8fe 173d
00000230: d53b 163d 6f9f 0ebd 028d 4ebd fef9 5a3d
00000240: 385a db3c d48b 94bd eb75 4ebd 9100 9ebc
00000250: e0be 94bc 746c 833d a2ac 06bd 27cd 3cbd
00000260: f4eb 333d f589 f3bc c591 aabd b8ab 50bc
00000270: f24b 0bbd 2b48 053d ca85 3dbc 8aba f73c
00000280: 96cd 9f3d 27fb 773d f200 12bd a167 5ebc
00000290: f65f 64bc 73b1 b53d cb2d 85bd 2108 bcbb
000002a0: 00c0 0bbd 0c9f 87bd 0379 01bd d95b 393c
000002b0: c63c abbd 70bd 2abd eb47 cabb 700f 36bd
000002c0: e161 023b 2d43 0cbd 08ba 013e 29a7 2fbd
000002d0: 1d12 11be 6162 603d 33c7 b4bd 47bc 8c3d
000002e0: ea8e 85bd 44f3 6cbc 11ba 34bc 5a07 acbd
000002f0: f625 373d 74c4 35bb f23c 6a3d 87be 393d
00000300: b54a 17bc 8775 a1bd 7c71 4bbd 4bb9 f03c
00000310: 3bd9 35bc a2fa e53c f5ee 88bd 06fb 5c3d
00000320: 91b1 ff3c 17e2 353d 3352 e23d 8f3b 6b3c
00000330: 410f 9a3d 804a a33c 0ec7 623d dd40 0c3c
00000340: e79b c83d 62ef 813c 7302 91bd dc9f ef36
00000350: c973 443c f503 2c3c 0077 0cbe ad27 2dbc
00000360: 1d5a ed3a e2f9 b53d f317 87bd 0c4f d33c
00000370: 4453 de3d 64de 4f3d a668 dd3d 8d23 65bd
00000380: 038b 473d 7b9b 1abc bb1b 80bd 9774 cb3d
00000390: af76 413d 447a 8fbd 014d 89bc 4f11 553d
000003a0: 4c67 1e3d 89cb dc3b 6432 93bd 76bf e5bc
000003b0: 6433 0ebd be73 683c c96c e8bd 1725 a6bd
000003c0: d560 973c 972e a7bd ac0b 1bbd d7bf a43d
000003d0: b514 bdbd 6e1a cabd 7f52 313d ec61 9c3d
000003e0: 72d5 c1bc a66d bdbd ceb3 593d 70c2 ebbb
000003f0: 87b8 cabd 3b95 dc3d 677a 08bd a3f9 a4bd

lstm.bias_ih_l0 f4 [512]
0.013715401 0.0042500086 0.067522675 0.0037729973 0.013033392 0.013486095 0.02111878 0.03402839
0.010025702 -0.008011842 0.008838713 -0.0016739344 0.0010043591 -0.005383997 -0.0026279776 0.012460067
0.0051495354 -0.010835886 0.008589614 -0.008946908 0.008007094 -0.0050224653 0.021585057 -0.009169044
0.076062165 -0.00043107133 0.023202911 -0.007152179 0.012148689 0.031037828 0.02640861 0.00683061
-0.00055384997 0.0042498223 -0.010831796 -0.008761671 0.0048732013 0.00011485495 0.006049077 -0.0053506717
0.048626136 -0.013248047 -0.0007266834 0.0049094874 -0.004815982 0.0030916606 0.011831598 -0.01660205
0.012677315 0.0020119764 0.03020714 0.015634447 0.017446775 -0.0012323919 -0.01471106 0.00015988476
-0.008738318 -0.00047066534 0.004410063 -0.00558956 -0.0076783076 0.006318262 0.0063439296 0.01663551
0.0094911875 0.018713308 -0.005262714 -0.0027566953 -0.0062759244 -0.0025186874 0.006207449 0.008234929
-0.010233253 0.0045466577 -0.010269265 0.009862339 0.0028477672 -0.007385821 -0.010479388 0.008733223
0.005032581 0.03622098 -0.007949594 -0.0111583825 0.0025613825 0.01834787 0.02984638 0.001357407
-0.007715301 0.013045198 0.0001526439 0.009656861 0.009324301 -0.015597316 0.0075857597 -0.008277785
0.0063237622 0.020236315 -0.008200557 -0.013702299 -0.009982946 -0.009924516 -0.007948275 0.017461412
0.015919534 -0.0030787552 -0.00569486 0.008213892 0.017112747 0.008239706 -0.0099611655 0.022892298
-0.009769447 -0.013810683 0.023909694 0.050178666 -0.015755765 0.009317131 -0.0013877137 0.0018442761
-0.0028860488 0.0005849876 -0.011743786 0.016275158 0.006127681 0.011294437 -0.011174155 -0.00078723946
0.0042886166 -0.008024996 0.009798378 0.010435474 0.011445484 -0.0011422515 0.010904929 0.028734297
0.017525598 -0.0018523308 0.0021938356 0.004465399 -0.0017265978 -0.016660625 0.0045274086 -0.002595621
0.028609544 0.0019988115 0.010282739 -0.0046857633 -0.00513128 -0.0059328023 0.02581062 -0.0025821745
0.016587349 0.006847846 0.015663365 -0.0058000963 0.023281971 0.038368125 0.020155445 0.0046144174
0.0023187015 -0.002992841 -0.0058660656 -0.009684405 -0.003118757 0.0030645214 0.012122143 0.004564963
0.013681733 0.0017100892 -0.013038722 0.006149348 -0.005804575 -0.006142665 0.005792747 -0.013541954
0.006950988 0.0074947723 0.011141408 0.0066820234 0.024182929 -0.004265823 -0.014494652 -0.003094306
-0.0024500992 -0.005231603 0.0007605225 -0.009001317 0.018437855 -0.001896685 -0.0011800039 0.017535469
0.0033980648 0.011740186 -0.002254363 -0.0042102635 -0.0037548502 0.014690577 -0.0045664143 0.0067141335
-0.00839475 0.0052481927 -0.010276272 -0.00396114 0.01274946 -0.012199137 0.002167823 0.014141534
0.006840918 0.026846275 -0.009432259 -0.0066734673 -0.0034594033 0.008565013 0.022437913 0.005099205
-0.007301761 -0.005146047 -0.0031663438 0.0073531717 0.020744035 -0.01441634 0.008498924 -0.0086219935
0.016755149 0.018113216 -0.008297716 -0.017542398 -0.015809985 -0.013440452 -0.0064595803 0.0073648794
0.001477282 -0.0006452676 0.0016081781 -0.0012219669 0.027138473 0.0125652375 -0.007528245 -0.0029340007
-0.008612679 -0.006927371 0.019166747 0.03951557 -0.012144636 0.0023440751 0.00337694 0.003018487
-0.001873558 -0.01549602 -0.0092172725 0.014606711 0.014151752 -0.0018978809 -0.02319803 0.0068083443
00000000: 90b6 603c a843 8b3b 5449 8a3d 6444 773b
00000010: 028a 553c c8f4 5c3c 4b01 ad3c 5a61 0b3d
00000020: d842 243c 1a44 03bc 40d0 103c eb67 dbba
00000030: b3a4 833a 3e6c b0bb 263a 2cbb 4f25 4c3c
00000040: 6fbd a83b 0089 31bc 74bb 0c3c 0d96 12bc
00000050: 3030 033c 7e93 a4bb 25d3 b03c c239 16bc
00000060: 7bc6 9b3d 6a01 e2b9 0814 be3c d35c eabb
00000070: 4b0b 473c 0b43 fe3c df56 d83c 4fd3 df3b
00000080: 3e30 11ba 1842 8b3b d877 31bc 1d8d 0fbc
00000090: 60af 9f3b 48de f038 5637 c63b b054 afbb
000000a0: 332c 473d 560e 59bc e67e 3eba c4df a03b
000000b0: 63cf 9dbb 759d 4a3b 52d9 413c 0601 88bc
000000c0: 83b4 4f3c 5ddb 033b f774 f73c d013 803c
000000d0: 8aec 8e3c 3688 a1ba a806 71bc bda6 2739
000000e0: 2a2b 0fbc a2c3 f6b9 4a82 903b a128 b7bb
000000f0: 509a fbbb 6c09 cf3b bde0 cf3b 3147 883c
00000100: ed80 1b3c a74c 993c d872 acbb aca9 34bb
00000110: 45a6 cdbb 9010 25bb db67 cb3b cceb 063c
00000120: 60a9 27bc 21fc 943b 6b40 28bc a695 213c
00000130: 9ba1 3a3b c204 f2bb bdb1 2bbc cb15 0f3c
00000140: 59e8 a43b 735c 143d 043f 02bc a6d1 36bc
00000150: dedc 273b 464e 963c 6580 f43c 05eb b13a
00000160: a3d0 fcbb 87bb 553c 090f 2039 d037 1e3c
00000170: f4c4 183c e38b 7fbc f791 f83b 8c9f 07bc
00000180: 9037 cf3b a1c6 a53c a15b 06bc 9c7f 60bc
00000190: 838f 23bc 709a 22bc 7b39 02bc 3c0b 8f3c
000001a0: af69 823c f1c4 49bb f39b babb 8f93 063c
000001b0: 0830 8c3c d5ff 063c 2834 23bc a188 bb3c
000001c0: 0810 20bc 3446 62bc 43de c33c 2588 4d3d
000001d0: 3c12 81bc e1a6 183c f2e3 b5ba a3bb f13a
000001e0: dd23 3dbb da59 193a 0269 40bc 7b53 853c
000001f0: b7ca c83b 4d0c 393c ce13 37bc bf5e 4eba
00000200: 8687 8c3b 467b 03bc 6089 203c 8df9 2a3c
00000210: d785 3b3c 9ab7 95ba 96aa 323c 3064 eb3c
00000220: d891 8f3c e8c9 f2ba 74c6 0f3b 7b52 923b
00000230: 024f e2ba dd7b 88bc a85a 943b 4b1b 2abb
00000240: 905e ea3c 7efe 023b ef78 283c 088b 99bb
00000250: 4c24 a8bb f467 c2bb cb70 d33c b339 29bb
00000260: 31e2 873c e563 e03b 7550 803c bc0e bebb
00000270: d5b9 be3c e527 1d3d 081d a53c 8a34 973b
00000280: 5bf5 173b 8a23 44bb 2038 c0bb 57ab 1ebc
00000290: 0f64 4cbb 23d6 483b f49b 463c af95 953b
000002a0: 5929 603c 1225 e03a 5da0 55bc 7880 c93b
000002b0: 4e34 bebb 6948 c9bb 15d1 bd3b 12df 5dbc
000002c0: 1dc5 e33b b596 f53b 748a 363c e0f4 da3b
000002d0: 471b c63c 51c8 8bbb fa7a 6dbc d7c9 4abb
000002e0: d891 20bb de6d abbb cd5d 473a 437a 13bc
000002f0: fc0a 973c 309a f8ba 5caa 9aba 8ba6 8f3c
00000300: 11b2 5e3b e959 403c efbd 13bb 40f6 89bb
00000310: ef13 76bb bfb0 703c dca1 95bb 3c02 dc3b
00000320: 228a 09bc 08f9 ab3b cf5d 28bc 73cc 81bb
00000330: 1ce3 503c e4de 47bc 0912 0e3b e5b1 673c
00000340: c829 e03b b8ec db3c c389 1abc 1aad dabb
00000350: 28b7 62bb 4554 0c3c b7cf b73c 3b17 a73b
00000360: 9c43 efbb 2ca0 a8bb 6f82 4fbb e0f2 f03b
00000370: 65ef a93c 8332 6cbc 123f 0b3c 4343 0dbc
00000380: 1842 893c 2b62 943c 25f3 07bc 13b5 8fbc
00000390: f183 81bc 5735 5cbc e3aa d3bb 1655 f13b
000003a0: 5ca1 c13a 2d27 29ba 81c9 d23a 682a a0ba
000003b0: 8151 de3c 6dde 4d3c 7faf f6bb 5d48 40bb
000003c0: 321c 0dbc 00ff e2bb 9503 9d3c 14db 213d
000003d0: 4cfa 46bc 0e9f 193b a74f 5d3b cfd1 453b
000003e0: 2d92 f5ba 05e3 7dbc 0b04 17bc fd50 6f3c
000003f0: c0dc 673c 51c2 f8ba cc09 bebc 8818 df3b

lstm.bias_hh_l0 f4 [512]
0.013715401 0.0042500086 0.067522675 0.0037729973 0.013033392 0.013486095 0.02111878 0.03402839
0.010025702 -0.008011842 0.008838713 -0.0016739344 0.0010043591 -0.005383997 -0.0026279776 0.012460067
0.0051495354 -0.010835886 0.008589614 -0.008946908 0.008007094 -0.0050224653 0.021585057 -0.009169044
0.076062165 -0.00043107133 0.023202911 -0.007152179 0.012148689 0.031037828 0.02640861 0.00683061
-0.00055384997 0.0042498223 -0.010831796 -0.008761671 0.0048732013 0.00011485495 0.006049077 -0.0053506717
0.048626136 -0.013248047 -0.0007266834 0.0049094874 -0.004815982 0.0030916606 0.011831598 -0.01660205
0.012677315 0.0020119764 0.03020714 0.015634447 0.017446775 -0.0012323919 -0.01471106 0.00015988476
-0.008738318 -0.00047066534 0.004410063 -0.00558956 -0.0076783076 0.006318262 0.0063439296 0.01663551
0.0094911875 0.018713308 -0.005262714 -0.0027566953 -0.0062759244 -0.0025186874 0.006207449 0.008234929
-0.010233253 0.0045466577 -0.010269265 0.009862339 0.0028477672 -0.007385821 -0.010479388 0.008733223
0.005032581 0.03622098 -0.007949594 -0.0111583825 0.0025613825 0.01834787 0.02984638 0.001357407
-0.007715301 0.013045198 0.0001526439 0.009656861 0.009324301 -0.015597316 0.0075857597 -0.008277785
0.0063237622 0.020236315 -0.008200557 -0.013702299 -0.009982946 -0.009924516 -0.007948275 0.017461412
0.015919534 -0.0030787552 -0.00569486 0.008213892 0.017112747 0.008239706 -0.0099611655 0.022892298
-0.009769447 -0.013810683 0.023909694 0.050178666 -0.015755765 0.009317131 -0.0013877137 0.0018442761
-0.0028860488 0.0005849876 -0.011743786 0.016275158 0.006127681 0.011294437 -0.011174155 -0.00078723946
0.0042886166 -0.008024996 0.009798378 0.010435474 0.011445484 -0.0011422515 0.010904929 0.028734297
0.017525598 -0.0018523308 0.0021938356 0.004465399 -0.0017265978 -0.016660625 0.0045274086 -0.002595621
0.028609544 0.0019988115 0.010282739 -0.0046857633 -0.00513128 -0.0059328023 0.02581062 -0.0025821745
0.016587349 0.006847846 0.015663365 -0.0058000963 0.023281971 0.038368125 0.020155445 0.0046144174
0.0023187015 -0.002992841 -0.0058660656 -0.009684405 -0.003118757 0.0030645214 0.012122143 0.004564963
0.013681733 0.0017100892 -0.013038722 0.006149348 -0.005804575 -0.006142665 0.005792747 -0.013541954
0.006950988 0.0074947723 0.011141408 0.0066820234 0.024182929 -0.004265823 -0.014494652 -0.003094306
-0.0024500992 -0.005231603 0.0007605225 -0.009001317 0.018437855 -0.001896685 -0.0011800039 0.017535469
0.0033980648 0.011740186 -0.002254363 -0.0042102635 -0.0037548502 0.014690577 -0.0045664143 0.0067141335
-0.00839475 0.0052481927 -0.010276272 -0.00396114 0.01274946 -0.012199137 0.002167823 0.014141534
0.006840918 0.026846275 -0.009432259 -0.0066734673 -0.0034594033 0.008565013 0.022437913 0.005099205
-0.007301761 -0.005146047 -0.0031663438 0.0073531717 0.020744035 -0.01441634 0.008498924 -0.0086219935
0.016755149 0.018113216 -0.008297716 -0.017542398 -0.015809985 -0.013440452 -0.0064595803 0.0073648794
0.001477282 -0.0006452676 0.0016081781 -0.0012219669 0.027138473 0.0125652375 -0.007528245 -0.0029340007
-0.008612679 -0.006927371 0.019166747 0.03951557 -0.012144636 0.0023440751 0.00337694 0.003018487
-0.001873558 -0.01549602 -0.0092172725 0.014606711 0.014151752 -0.0018978809 -0.02319803 0.0068083443
00000000: 90b6 603c a843 8b3b 5449 8a3d 6444 773b
00000010: 028a 553c c8f4 5c3c 4b01 ad3c 5a61 0b3d
00000020: d842 243c 1a44 03bc 40d0 103c eb67 dbba
00000030: b3a4 833a 3e6c b0bb 263a 2cbb 4f25 4c3c
00000040: 6fbd a83b 0089 31bc 74bb 0c3c 0d96 12bc
00000050: 3030 033c 7e93 a4bb 25d3 b03c c239 16bc
00000060: 7bc6 9b3d 6a01 e2b9 0814 be3c d35c eabb
00000070: 4b0b 473c 0b43 fe3c df56 d83c 4fd3 df3b
00000080: 3e30 11ba 1842 8b3b d877 31bc 1d8d 0fbc
00000090: 60af 9f3b 48de f038 5637 c63b b054 afbb
000000a0: 332c 473d 560e 59bc e67e 3eba c4df a03b
000000b0: 63cf 9dbb 759d 4a3b 52d9 413c 0601 88bc
000000c0: 83b4 4f3c 5ddb 033b f774 f73c d013 803c
000000d0: 8aec 8e3c 3688 a1ba a806 71bc bda6 2739
000000e0: 2a2b 0fbc a2c3 f6b9 4a82 903b a128 b7bb
000000f0: 509a fbbb 6c09 cf3b bde0 cf3b 3147 883c
00000100: ed80 1b3c a74c 993c d872 acbb aca9 34bb
00000110: 45a6 cdbb 9010 25bb db67 cb3b cceb 063c
00000120: 60a9 27bc 21fc 943b 6b40 28bc a695 213c
00000130: 9ba1 3a3b c204 f2bb bdb1 2bbc cb15 0f3c
00000140: 59e8 a43b 735c 143d 043f 02bc a6d1 36bc
00000150: dedc 273b 464e 963c 6580 f43c 05eb b13a
00000160: a3d0 fcbb 87bb 553c 090f 2039 d037 1e3c
00000170: f4c4 183c e38b 7fbc f791 f83b 8c9f 07bc
00000180: 9037 cf3b a1c6 a53c a15b 06bc 9c7f 60bc
00000190: 838f 23bc 709a 22bc 7b39 02bc 3c0b 8f3c
000001a0: af69 823c f1c4 49bb f39b babb 8f93 063c
000001b0: 0830 8c3c d5ff 063c 2834 23bc a188 bb3c
000001c0: 0810 20bc 3446 62bc 43de c33c 2588 4d3d
000001d0: 3c12 81bc e1a6 183c f2e3 b5ba a3bb f13a
000001e0: dd23 3dbb da59 193a 0269 40bc 7b53 853c
000001f0: b7ca c83b 4d0c 393c ce13 37bc bf5e 4eba
00000200: 8687 8c3b 467b 03bc 6089 203c 8df9 2a3c
00000210: d785 3b3c 9ab7 95ba 96aa 323c 3064 eb3c
00000220: d891 8f3c e8c9 f2ba 74c6 0f3b 7b52 923b
00000230: 024f e2ba dd7b 88bc a85a 943b 4b1b 2abb
00000240: 905e ea3c 7efe 023b ef78 283c 088b 99bb
00000250: 4c24 a8bb f467 c2bb cb70 d33c b339 29bb
00000260: 31e2 873c e563 e03b 7550 803c bc0e bebb
00000270: d5b9 be3c e527 1d3d 081d a53c 8a34 973b
00000280: 5bf5 173b 8a23 44bb 2038 c0bb 57ab 1ebc
00000290: 0f64 4cbb 23d6 483b f49b 463c af95 953b
000002a0: 5929 603c 1225 e03a 5da0 55bc 7880 c93b
000002b0: 4e34 bebb 6948 c9bb 15d1 bd3b 12df 5dbc
000002c0: 1dc5 e33b b596 f53b 748a 363c e0f4 da3b
000002d0: 471b c63c 51c8 8bbb fa7a 6dbc d7c9 4abb
000002e0: d891 20bb de6d abbb cd5d 473a 437a 13bc
000002f0: fc0a 973c 309a f8ba 5caa 9aba 8ba6 8f3c
00000300: 11b2 5e3b e959 403c efbd 13bb 40f6 89bb
00000310: ef13 76bb bfb0 703c dca1 95bb 3c02 dc3b
00000320: 228a 09bc 08f9 ab3b cf5d 28bc 73cc 81bb
00000330: 1ce3 503c e4de 47bc 0912 0e3b e5b1 673c
00000340: c829 e03b b8ec db3c c389 1abc 1aad dabb
00000350: 28b7 62bb 4554 0c3c b7cf b73c 3b17 a73b
00000360: 9c43 efbb 2ca0 a8bb 6f82 4fbb e0f2 f03b
00000370: 65ef a93c 8332 6cbc 123f 0b3c 4343 0dbc
00000380: 1842 893c 2b62 943c 25f3 07bc 13b5 8fbc
00000390: f183 81bc 5735 5cbc e3aa d3bb 1655 f13b
000003a0: 5ca1 c13a 2d27 29ba 81c9 d23a 682a a0ba
000003b0: 8151 de3c 6dde 4d3c 7faf f6bb 5d48 40bb
000003c0: 321c 0dbc 00ff e2bb 9503 9d3c 14db 213d
000003d0: 4cfa 46bc 0e9f 193b a74f 5d3b cfd1 453b
000003e0: 2d92 f5ba 05e3 7dbc 0b04 17bc fd50 6f3c
000003f0: c0dc 673c 51c2 f8ba cc09 bebc 8818 df3b

lstm.weight_ih_l1 f4 [512, 128]
0.0494642 0.010083424 -0.04378304 0.027656404 0.07958206 0.09128602 0.08652638 0.06819648
-0.0606437 -0.0770145 -0.07975934 0.01681106 0.079995744 -0.0862073 0.025050748 -0.11171407
0.058456037 0.09903394 -0.012221559 0.03166306 0.06581447 -0.0012695119 -0.044013895 0.09122904
-0.017617812 0.036771197 -0.046738602 0.09060061 -0.061365593 -0.011519056 0.038776204 -0.040317964
-0.013464028 0.033925887 -0.02893828 0.01316768 -0.016742462 -0.071078554 -0.0463277 -0.0633589
-0.0083562555 -0.047790084 0.044479772 0.05029785 0.03547055 0.046748493 -0.05089742 -0.08090427
-0.06010656 0.0233958 0.08803626 0.0034152484 -0.073413834 0.0003432444 0.021817338 -0.10177067
-0.05643174 0.01002372 -0.058375657 0.07745012 -0.036254708 -0.044165146 -0.06432001 0.0009324515
0.0072331303 0.033059526 -0.0775886 0.035396848 0.05250227 -0.055436928 0.081362516 0.028079437
-0.07509909 -0.08376056 -0.08568726 -0.097704895 -0.078337245 0.07823943 -0.07907642 0.049740974
0.014899513 -0.042214435 -0.011039184 0.0705581 -0.07493772 0.060900126 -0.013218212 0.020606356
-0.059772965 0.017394528 0.061651528 -0.051677845 -0.049879767 0.042301223 0.06532981 0.019187229
-0.08873993 -0.057004575 -0.039596863 0.08028416 0.05519175 -0.014349221 -0.03242167 0.06375498
-0.028539687 0.015674233 0.040094983 -0.069342315 0.017643252 -0.07293837 -0.038903777 0.018683683
-0.05279934 -0.018689286 -0.04164381 -0.017037706 -0.01563222 -0.06153248 -0.032336585 -0.021388091
-0.06477996 -0.016591737 0.07343653 -0.0064756325 0.08318973 0.10142119 -0.008270706 0.025774738
-0.004737745 -0.01341468 0.007034515 0.04842043 0.019533148 0.0072096633 -0.11180759 -0.032121915
-0.09987669 0.05787265 0.0019331622 0.02858473 -0.028638726 0.03957624 0.06936815 -0.062746
0.015946403 0.0262887 -0.02683577 0.07112592 0.019194365 -0.07880699 -0.042996712 -0.03973634
0.060849167 -0.02519702 -0.03427793 0.047992393 -0.07462982 -0.059786893 -0.017674634 -0.054427687
-0.035878398 0.07675085 -0.015667452 -0.07925932 -0.06412832 0.03623723 0.058695037 0.0402331
-0.011921257 0.025641127 -0.014163338 0.052915722 -0.046597045 0.08035244 -0.029276438 0.008646015
0.09664402 -0.06175352 0.102401905 -0.05126007 -0.015142473 -0.03799462 0.046746135 -0.062099572
-0.038152598 -0.03394618 -0.08452258 -0.09699008 -0.13670689 -0.027634403 -0.064444415 -0.09955118
0.06251314 -0.026470248 -0.069246724 -0.081747696 -0.0866273 -0.04927399 0.06613492 -0.092847124
-0.066972665 0.06571856 0.04602021 0.008964794 0.002952719 -0.016053855 0.020480882 -0.047622237
-0.039602604 -0.01072105 -0.09612303 0.046437003 -0.09138155 -0.0010575316 -0.10723754 -0.011923577
0.07883965 -0.032807525 -0.005638414 0.005851423 -0.08051905 -0.08953219 0.013390684 0.022822917
-0.009554121 0.03189411 -0.029092139 -0.09536476 -0.0074192267 -0.008521072 0.028023034 0.01855516
0.13970232 0.08223756 -0.09528586 0.010222493 0.060661666 -0.01443646 0.10681066 -0.036176417
0.02727805 0.027530335 -0.016166963 0.10006376 0.038292672 0.050093375 -0.053166937 0.083631575
0.026338585 0.08185375 -0.029649107 0.04507518 0.01605524 0.027243704 -0.07770951 -0.038630314
00000000: f99a 4a3d f234 253c d855 33bd af8f e23c
00000010: ebfb a23d 2af4 ba3d be34 b13d 99aa 8b3d
00000020: 8765 78bd c7b9 9dbd dd58 a3bd 59b7 893c
00000030: cfd4 a33d 748d b0bd 3a37 cd3c 59ca e4bd
00000040: 996f 6f3d 4ed2 ca3d ef3c 48bc 20b1 013d
00000050: bdc9 863d c065 a6ba ea47 34bd 4ad6 ba3d
00000060: 3b53 90bc 659d 163d fa70 3fbd d08c b93d
00000070: 7d5a 7bbd 6cba 3cbc ccd3 1e3d 7324 25bd
00000080: 3a98 5cbc dff5 0a3d f90f edbc 41bd 573c
00000090: 7d27 89bc a291 91bd 1dc2 3dbd 50c2 81bd
000000a0: ade8 08bc 89bf 43bd 6c30 363d 1e05 4e3d
000000b0: 9149 113d 597b 3f3d d079 50bd 23b1 a5bd
000000c0: 4c32 76bd 8ca8 bf3c 5b4c b43d 5cd2 5f3b
000000d0: fe59 96bd 7cf5 b339 46ba b23c 246d d0bd
000000e0: f824 67bd 873a 243c 501b 6fbd 2b9e 9e3d
000000f0: d17f 14bd 83e6 34bd 36ba 83bd c36f 743a
00000100: e503 ed3b 6d69 073d c6e6 9ebd 49fc 103d
00000110: 9f0c 573d d511 63bd 64a1 a63d d906 e63c
00000120: 8dcd 99bd a88a abbd cd7c afbd 8119 c8bd
00000130: 476f a0bd ff3b a03d d1f2 a1bd 31bd 4b3d
00000140: 161d 743c 0be9 2cbd b2dd 34bc c480 903d
00000150: f378 99bd 6972 793d 3391 58bc a9ce a83c
00000160: 7fd4 74bd f87e 8e3c 5086 7c3d 26ac 53bd
00000170: ba4e 4cbd 0c44 2d3d a3cb 853d 892e 9d3c
00000180: 48bd b5bd a17d 69bd 5230 22bd 066c a43d
00000190: bf10 623d ff18 6bbc 96cc 04bd f991 823d
000001a0: 10cc e9bc 4067 803c a33a 243d 5803 8ebd
000001b0: 9588 903c b660 95bd 9159 1fbd 860e 993c
000001c0: 1f44 58bd 461a 99bc b392 2abd a992 8bbc
000001d0: 240f 80bc 7b09 7cbd 5e73 04bd 1436 afbc
000001e0: 5bab 84bd 65eb 87bc e465 963d 8b31 d4bb
000001f0: 615f aa3d eab5 cf3d db81 07bc 8b25 d33c
00000200: 163f 9bbb 3fc9 5bbc ca81 e63b 8054 463d
00000210: fb03 a03c 0a3f ec3b 61fb e4bd 4592 03bd
00000220: 268c ccbd df0b 6d3d 2962 fd3a 862a ea3c
00000230: c39b eabc b21a 223d e310 8e3d fa80 80bd
00000240: 08a2 823c 665b d73c b0d6 dbbc 77aa 913d
00000250: 803d 9d3c 8f65 a1bd 521d 30bd 93c2 22bd
00000260: fa3c 793d fb69 cebc 0467 0cbd ac93 443d
00000270: 85d7 98bd 1ae3 74bd 65ca 90bc 91ef 5ebd
00000280: 3af5 12bd 8d2f 9d3d 0759 80bc b652 a2bd
00000290: b555 83bd 7d6d 143d 356a 703d 77cb 243d
000002a0: 6051 43bc 570d d23c 580d 68bc 28be 583d
000002b0: 8bdc 3ebd d28f a43d 24d5 efbc 04a8 0d3c
000002c0: 4ded c53d 42f1 7cbd 17b8 d13d 14f6 51bd
000002d0: 2318 78bc 3fa0 1bbd e078 3f3d 1f5c 7ebd
000002e0: e645 1cbd 260b 0bbd 2d1a adbd bca2 c6bd
000002f0: e4fc 0bbe 8b61 e2bc 6ffb 83bd 7de1 cbbd
00000300: e406 803d 22d8 d8bc 3ad1 8dbd 566b a7bd
00000310: a769 b1bd 86d3 49bd bf71 873d a226 bebd
00000320: f728 89bd 7497 863d b07f 3c3d 12e1 123c
00000330: 6882 413b 6083 83bc 86c7 a73c 890f 43bd
00000340: 5736 22bd 58a7 2fbc 27dc c4bd ba34 3e3d
00000350: 4026 bbbd df9c 8aba 5b9f dbbd 1b5b 43bc
00000360: af76 a13d 2f61 06bd 72c2 b8bb 4bbd bf3b
00000370: 2ce7 a4bd a75c b7bd 9964 5b3c 20f7 ba3c
00000380: e388 1cbc 66a3 023d a352 eebc 994e c3bd
00000390: fc1c f3bb f79b 0bbc 9090 e53c fe00 983c
000003a0: 200e 0f3e 2a6c a83d 3c25 c3bd 3e7c 273c
000003b0: 5e78 783d e786 6cbc 8cbf da3d b92d 14bd
000003c0: 3876 df3c 4c87 e13c 9470 84bc 3bee cc3d
000003d0: c7d8 1c3d b62e 4d3d 93c5 59bd 0847 ab3d
000003e0: 04c4 d73c f0a2 a73d afe2 f2bc c0a0 383d
000003f0: 4786 833c 302e df3c 2a26 9fbd d23a 1ebd

lstm.weight_hh_l1 f4 [512, 128]
-0.05813262 -0.10152348 0.08089793 0.026125858 -0.016022105 0.092780255 -0.00533957 0.015143427
0.03805179 -0.035425592 0.0041611176 0.03354502 -0.024713427 -0.09187008 0.032157525 -0.07373546
-0.036064163 -0.002369324 -0.03977981 0.06827088 -0.04585309 0.05751035 -0.06885537 0.044133857
0.013341768 0.005767974 0.06012722 0.09096789 0.078200996 -0.0012055567 0.035114292 0.033867214
0.097473994 -0.024274465 0.083058104 0.053727657 -0.08763157 -0.0014569426 0.015715918 -0.044266786
-0.029066917 -0.03295878 0.03300259 0.025336169 -0.004553508 0.02941828 0.003512442 -0.051701073
-0.038218796 0.06549278 -0.059811853 0.08451111 -0.045690484 -0.022764293 0.10461919 0.0589055
-0.019274667 0.04346593 -0.07725688 -0.07533263 0.09477572 0.007887147 -0.08000436 -0.07354847
0.021265095 0.03881346 -0.07122077 -0.094858766 -0.0024740049 0.0614668 0.057618372 -0.042046774
-0.037772324 0.08164556 0.05454267 -0.016075948 -0.00962288 0.065829515 0.053446613 -0.0137850605
0.04572127 -0.096155964 0.013921567 0.014423719 0.092469774 0.016965255 0.027701743 -0.03910572
-0.042821612 -0.07681129 -0.061706316 -0.0036687546 -0.025574157 -0.056888472 0.09493323 0.07852757
-0.019875756 0.066370435 0.0078747915 -0.05202736 0.019318271 -0.01828562 0.054205317 -0.06232392
0.013731547 -0.08314105 -0.074047655 -0.036329065 -0.08507829 -0.08877865 0.026325816 0.0112172235
0.021329807 -0.09517203 -0.1050468 -0.05986545 -0.0050978498 -0.061084077 0.04169417 0.0068099867
0.036573038 -0.06447129 -0.043203954 0.005743171 -0.071603656 0.07687145 -0.00059059967 -0.079641394
0.0029568127 -0.038091976 -0.024257928 0.029572092 -0.017060913 -0.0596517 -0.004016174 -0.044475567
-0.0995473 0.0043931413 -0.009445714 0.056381267 0.07913279 0.059283122 0.07557194 -0.0133008
-0.05445825 -0.098901264 0.027254825 0.051801354 -0.01742236 -0.03020598 -0.006227964 -0.062109765
0.010505518 0.07066205 -0.021540878 0.03893684 0.059099372 -0.011811916 -0.111258805 -0.057322107
-0.011535974 -0.049216595 0.11519951 -0.056201417 -0.08620001 -0.09340487 -0.0013088135 -0.08909187
0.096609645 0.06498045 0.065698646 -0.08461195 -0.04262249 0.013748592 0.007967927 -0.01871713
0.03356537 -0.05283417 0.06589116 -0.035561517 0.017247414 0.03330053 -0.016121363 0.032961965
0.031740904 -0.09792476 -0.108493164 0.02740468 0.00087746413 0.030231554 -0.06273711 0.078603014
0.017481638 -0.07093284 -0.06300936 -0.09481002 -0.05275496 -0.036474492 0.068126276 0.0022305227
-0.01170579 0.093059614 -0.06645479 0.0020897451 0.022788765 -0.033399455 -0.013013969 0.002498991
0.027189 -0.025131676 0.057618484 -0.04363042 0.06956734 0.083642356 -0.029529762 0.113625385
-0.0022064182 -0.03370322 -0.091100894 -0.044486575 -0.05595098 0.0808905 0.036273543 0.043631244
0.08247027 0.0023000787 0.014691256 -0.075771034 -0.04351851 -0.042690676 -0.010413586 -0.015523703
-0.042684257 0.06463243 -0.016348667 0.029389184 -0.058386408 -0.028696435 0.093204044 0.060227502
-0.08373614 -0.008447259 0.0060997186 -0.0025636586 0.08180511 0.07379317 0.008530939 0.042097606
0.07235061 -0.0042913076 0.0665888 0.010393616 -0.072033115 -0.028225837 0.016177816 -0.017183969
00000000: 781c 6ebd 8beb cfbd d0ad a53d e505 d63c
00000010: ca40 83bc 9303 be3d 8ff7 aebb 231c 783c
00000020: 32dc 1b3d 6d1a 11bd fc59 883b 8166 093d
00000030: d073 cabc 6126 bcbd 9cb7 033d 9e02 97bd
00000040: 04b8 13bd a946 1bbb 27f0 22bd 9ad1 8b3d
00000050: 73d0 3bbd f98f 6b3d 0b04 8dbd b4c5 343d
00000060: 6e97 5a3c 4601 bd3b f647 763d 604d ba3d
00000070: d827 a03d c503 9eba 01d4 0f3d 59b8 0a3d
00000080: 72a0 c73d 3edb c6bc 5e1a aa3d 8811 5c3d
00000090: 2e78 b3bd e2f6 beba abbe 803c 1751 35bd
000000a0: be1d eebc c9ff 06bd b92d 073d cc8d cf3c
000000b0: 9835 95bb 9bfe f03c 0031 663b 81c4 53bd
000000c0: 508b 1cbd 1421 863d 46fd 74bd 2914 ad3d
000000d0: f225 3bbd 2f7c babc 9642 d63d e546 713d
000000e0: e8e5 9dbc 5509 323d db38 9ebd fe47 9abd
000000f0: c619 c23d 1839 013c 53d9 a3bd 95a0 96bd
00000100: 2334 ae3c ddfa 1e3d 32dc 91bd 5045 c2bd
00000110: ea22 22bb 9cc4 7b3d 3e01 6c3d 3d39 2cbd
00000120: 27b7 1abd ca35 a73d 2268 5f3d b5b1 83bc
00000130: 49a9 1dbc a0d1 863d d6ea 5a3d bcda 61bc
00000140: 3a46 3b3d 6bed c4bd 4917 643c 7651 6c3c
00000150: cb60 bd3d b8fa 8a3c c4ee e23c 522d 20bd
00000160: b765 2fbd 3d4f 9dbd c3bf 7cbd 7d6f 70bb
00000170: e580 d1bc e303 69bd 5a6c c23d 10d3 a03d
00000180: 7bd2 a2bc 39ed 873d 4505 013c a41a 55bd
00000190: 5a41 9e3c b9cb 95bc 6506 5e3d 5e47 7fbd
000001a0: 48fa 603c db45 aabd 4ca6 97bd c9cd 14bd
000001b0: 873d aebd 95d1 b5bd 3da9 d73c 72c8 373c
000001c0: d9bb ae3c 8ee9 c2bd c722 d7bd 7935 75bd
000001d0: dd0b a7bb 4c33 7abd 82c7 2a3d 4f26 df3b
000001e0: 9ccd 153d 8609 84bd a1f6 30bd 3631 bc3b
000001f0: f0a4 92bd c76e 9d3d 79d2 1aba 071b a3bd
00000200: 16c7 413b 5506 1cbd 90b8 c6bc 2c41 f23c
00000210: 54c3 8bbc 5755 74bd 1c9a 83bb 032c 36bd
00000220: 74df cbbd 57f4 8f3b 32c2 1abc 0bf0 663d
00000230: 5f10 a23d dcd2 723d 76c5 9a3d 99eb 59bc
00000240: 9d0f 5fbd bf8c cabd 8345 df3c a82d 543d
00000250: 56b9 8ebc 8872 f7bc f313 ccbb cf66 7ebd
00000260: 561f 2c3c 44b7 903d 7f76 b0bc 3c7c 1f3d
00000270: 2f12 723d c486 41bc a8db e3bd 96ca 6abd
00000280: 6201 3dbc 5797 49bd b8ed eb3d 7533 66bd
00000290: a189 b0bd 0d4b bfbd 7e8c abba cc75 b6bd
000002a0: 47db c53d 7814 853d 038d 863d 0849 adbd
000002b0: ec94 2ebd c641 613c e88b 023c ab54 99bc
000002c0: d77b 093d a568 58bd f2f1 863d f4a8 11bd
000002d0: 734a 8d3c 2366 083d f310 84bc 2003 073d
000002e0: c002 023d c78c c8bd aa31 debd c87f e03c
000002f0: 9f05 663a 2aa8 f73c 507c 80bd 9efa a03d
00000300: a735 8f3c 3d45 91bd 0d0b 81bd c12b c2bd
00000310: 9615 58bd 4766 15bd ca85 8b3d f62d 123b
00000320: a4c9 3fbc 0a96 be3d 7319 88bd 1bf4 083b
00000330: 81af ba3c decd 08bd 8b38 55bc 1dc6 233b
00000340: 77bb de3c f2e0 cdbc 5c01 6c3d d0b5 32bd
00000350: 5279 8e3d af4c ab3d 66e8 f1bc 6db4 e83d
00000360: 8e99 10bb 630c 0abd 1b93 babd 8e37 36bd
00000370: db2c 65bd eba9 a53d 9193 143d adb6 323d
00000380: 2ce6 a83d ebbc 163b 98b3 703c d82d 9bbd
00000390: 7740 32bd 6bdc 2ebd bf9d 2abc 2157 7ebc
000003a0: b0d5 2ebd 025e 843d a4ed 85bc 96c1 f03c
000003b0: 9626 6fbd c914 ebbc c3e1 be3d 1db1 763d
000003c0: da7d abbd 5f66 0abc 26e0 c73b 0e03 28bb
000003d0: 7089 a73d e020 973d 5ac5 0b3c 8a6e 2c3d
000003e0: 8e2c 943d 199e 8cbb b55f 883d fc49 2a3c
000003f0: 1986 93bd df39 e7bc 5787 843c 65c5 8cbc
