checkpoints/bpm_regressor.pt (torch, 978383 bytes, 17 tensors)

conv1d.0.weight f4 [64, 7, 3]
00000000: 1560 87bc b58a 0c3e 392c 0ebf c31d cf3d
00000010: 7a5e a13e 396d 91bd 10da 13bf 73fe 8ebe
00000020: e067 cdbe 7a66 9f3e 00fe a2bd b8f5 c33e
00000030: 2cba 163e 18c9 883e d0f6 f53e 4728 573e
00000040: dfc0 7e3e cdf6 9a3e f14d 393e 2b62 ee3e
00000050: 3b5c b93c a0b4 6b3e 2fe3 6ebd 4e46 38be
00000060: ab59 ec3e 0124 c43d d514 8a3d 900d 17bf
00000070: 4d93 1c3e a597 ecbc 6f56 463e b732 e13e
00000080: 457e 3e3d 0e7a bc3e 4d83 773e 0756 d83e
00000090: 25d1 39bd 007e 26be e929 0abd b32b e8bc
000000a0: 5780 69be a0ff dc3e 346b f73e 30d3 923e
000000b0: cf1d 43be f436 02bf d4b6 ef3d 2b8e e5bc
000000c0: a1ba 963d e4b6 8bbd 4f30 683e 6a5e a3bd
000000d0: 97d0 d43d 5ecd bc3d afc9 22be 7c5e d83a
000000e0: beeb a03e 53c1 81be f34f bf3e 5ca6 9fbd
000000f0: f275 a9be 752d 5f3e 0bea 1dbe 96da ad3e
00000100: 3b67 6fbe 9726 5b3b a8cb be3e 35f2 703d
00000110: 2069 e0bd 2b7b 8a3e 648e fabe 1c47 81be
00000120: dc53 8e3e 69d5 d03e b061 7ebe dda6 1f3f
00000130: 910e a93d e9ea ad3e 6a34 353e ef4e 1dbd
00000140: 4ef9 2abe 2c7b e2bd cb75 a63d 2e54 8cbc
00000150: 824f 09bf b077 b73e 74cd febe 1ffe 76be
00000160: edf0 ca3e 27f8 003f d556 3e3f 8e95 cdbe
00000170: c119 cebe 2290 37be 83da b03e 7b7a 88be
00000180: d721 79be a6f5 85be 24cf b93e 737f 0ebf
00000190: 4190 1e3e 651c 973d 7ac3 7c3d bec9 1ebe
000001a0: f6c5 0b3d 2a07 50be 4bfb a8be cab3 b33e
000001b0: 02b0 223f 1c37 37be 1864 5abe c3bb 1dbf
000001c0: d50f 3dbf a882 a7be e6b0 cabe 3089 cabe
000001d0: 70eb 4ebe ddef 80be f54e 59be 9d15 91be
000001e0: 2cbe e43d 35cf bd3e 0028 463e f3d9 36be
000001f0: 1fca 04bf 98a6 3a3d 92ba d1be 48e6 e5bd
00000200: 309d 173f 0329 67be 3f8c 1d3e cc89 093e
00000210: ba30 1fbe 9cd7 833e 3384 953e 60d6 173e
00000220: 170a 963d bdb7 2abe 4ea8 173f bd56 27be
00000230: b721 43be 40a7 5f3d 937d 67be 22c3 ccbd
00000240: e5d5 2abe 0164 a7bd 3eec 39be 9161 eb3d
00000250: abb2 193d 61b8 74be aa84 0c3e 0f0e 4ebd
00000260: e26c cc3c a822 d93e 6f5e bfbe ec3b f43d
00000270: be33 143e dc76 c53e 6dd9 e13e 4f39 2a3e
00000280: 3fb7 8fbd 05c2 b23e 3afc 14bf 24c8 333e
00000290: a6e8 d3be 8160 c3be ec46 17bf ff79 ef3e
000002a0: 4884 e13e 7cfe 463e ce89 b83e 60d0 45bf
000002b0: b540 8f3d 4474 75bd 72da b4bd 72c4 00bf
000002c0: 40d6 853e 9c00 223e 5e5b f6be c320 8d3e
000002d0: 8043 c8bd 9365 af3e 4aef a53e 1d69 c03c
000002e0: ba0c 483d 9043 e9be aa1a 7fbd 29cd 41be
000002f0: 2e39 a4be 3a2d 193e 13b6 653e 97aa 45be
00000300: e429 343e 6b61 93bc 7cae 13bf 9293 103f
00000310: d2fd 473f 24fb efbd a13e 13bf 6e66 db3e
00000320: 837a 8b3e 96ef af3e 30ad 4f3e a7d9 70bc
00000330: bb6e 9ebe 65d4 c73e 4403 723e cf75 32bd
00000340: ee44 923d 8f5c 09bf 60bc 5b3e ec54 00bf
00000350: 3758 123f 80bf b5be 67a2 c43e cf29 d2be
00000360: 4439 553e 0eb5 963d b469 fa3e 6bff aa3e
00000370: 9add 563e 2925 81be dd5c 9e3e f1bd a33d
00000380: a0d3 2ebc b8b1 063f 9936 033e a884 6cbe
00000390: c85c 9c3e b64f 28be 45c3 a4bd ea7d a2be
000003a0: 389a 443c 6d14 cd3e 73ee 7ebe b7d6 d33e
000003b0: 6bcd 723e c604 4f3d 6a50 92be ce19 b6be
000003c0: 9971 ddbe ea75 b33d 0998 8f3e 0e95 73bd
000003d0: 330d 983e 2759 7dbe 3eae 45be a84f c03e
000003e0: 7bf4 dabb 89c0 d73e d8ed 4abe 9a87 0abf
000003f0: b561 0fbd 5d64 523f 1aea 753d 5d9f d73d
-0.016525308 0.13724788 -0.5553623 0.101130985 0.31517392 -0.07100911 -0.5775461 -0.27928504
-0.40118313 0.3113287 -0.07958603 0.38273406 0.14719456 0.26715922 0.48039865 0.21011458
0.24878262 0.3026642 0.18096139 0.4655927 0.022626987 0.23018122 -0.058322128 -0.17995569
0.4616216 0.0957718 0.06742255 -0.5900507 0.15290566 -0.028880903 0.1936891 0.43984005
0.04650714 0.3681187 0.24171181 0.42253134 -0.04536547 -0.16259003 -0.033731375 -0.02834115
-0.22802864 0.43163776 0.48323977 0.28676748 -0.1905434 -0.508651 0.117047936 -0.028021893
0.073598154 -0.06821993 0.22674678 -0.079769924 0.10391348 0.09218858 -0.15897249 0.0016507651
0.31429857 -0.25342807 0.37365684 -0.077954024 -0.33097798 0.21794684 -0.15421312 0.3395583
-0.23379223 0.003343975 0.37264752 0.058824737 -0.10957551 0.27047095 -0.4893676 -0.25249565
0.27798355 0.4078782 -0.24841952 0.6236399 0.082547314 0.33968285 0.17695776 -0.038405355
-0.16696665 -0.110586494 0.08127936 -0.017129984 -0.53636944 0.35833502 -0.49766123 -0.24120377
0.39636937 0.5037865 0.74351245 -0.40153164 -0.40254024 -0.17926076 0.3454171 -0.26655945
-0.24329315 -0.26163977 0.36290848 -0.5566322 0.15484716 0.07378463 0.06170986 -0.15506646
0.034124337 -0.20315233 -0.3300422 0.35098106 0.63549817 -0.17892116 -0.21327245 -0.61614627
-0.7385228 -0.3271687 -0.39588088 -0.3955779 -0.20207 -0.25183 -0.21221526 -0.28336802
0.11169085 0.3707215 0.19351196 -0.17856579 -0.5187091 0.045569032 -0.40962654 -0.11225563
0.59224224 -0.22574238 0.15385531 0.13431472 -0.15545931 0.25750434 0.29202422 0.14827871
0.07326143 -0.16671653 0.5924119 -0.16341682 -0.1905583 0.05460286 -0.22606497 -0.09998156
-0.16683157 -0.08173371 -0.18156525 0.11493219 0.037523907 -0.2389846 0.13722482 -0.050306376
0.024954263 0.42409253 -0.37376735 0.11925492 0.14472863 0.38567245 0.44111195 0.16623424
-0.07017373 0.3491365 -0.5819737 0.17556816 -0.41388434 -0.38159564 -0.59092593 0.46772763
0.44046235 0.19433016 0.36042637 -0.7727108 0.06994764 -0.059925333 -0.08830728 -0.5029975
0.26140022 0.15820545 -0.48116583 0.27564058 -0.097784996 0.34257182 0.32409126 0.023487622
0.048840262 -0.4555936 -0.06228129 -0.18925919 -0.32074875 0.14958659 0.22432737 -0.19303356
0.17594105 -0.017990788 -0.5768812 0.56475174 0.78121674 -0.11717823 -0.5751744 0.42851585
0.27241907 0.34362477 0.2028091 -0.01470033 -0.30943856 0.39029232 0.23634058 -0.043569382
0.071420535 -0.5365686 0.21458578 -0.5012958 0.57165855 -0.35497665 0.38405153 -0.41047522
0.20822626 0.07358752 0.4890877 0.33397993 0.20982972 -0.25223663 0.30930224 0.07995213
-0.0106705725 0.5261493 0.12813796 -0.2309748 0.30539536 -0.16436657 -0.08045057 -0.3173669
0.011999659 0.40054646 -0.24895649 0.41374752 0.23711173 0.05054166 -0.28576976 -0.35566562
-0.4325073 0.08762725 0.2804568 -0.05946832 0.2969757 -0.2474104 -0.1930475 0.37560773
-0.0066819764 0.4213908 -0.19817293 -0.5411316 -0.03500529 0.8218439 0.06003771 0.10528443

conv1d.0.bias f4 [64]
00000000: 573a be39 2786 1a3a 695e f2bb 7b9b 6bbc
00000010: 9365 30bc fae1 ccbc dad1 543c 5ab0 09bc
00000020: 76d7 be3b 7b99 303c 68b6 bf3b 13d8 5abb
00000030: 4621 a3bb 7ec1 59bb c0be 653b 818e a5bc
00000040: 521d 073c 892e cbbb d9bc 94bc 4e3e a8bb
00000050: 4fd7 443c 3e03 63bd d8a8 c23c c44e 983c
00000060: 4778 b4bb 9b20 8a3b fc93 f33a fcc9 a1bb
00000070: 01c3 8d3b be5a e9bb dcc7 dabb 517a f43b
00000080: 932c 453b f418 17bc ff77 3fbc 4582 8ebc
00000090: 4dfc 2dbb 559f ca3b f90f a33b 9eaf 613c
000000a0: 99fd adb9 e21c 553b bb94 c2bd 4279 9a3c
000000b0: 4c1c e33b 7ab6 c0bc 0963 803b e88d 443c
000000c0: f5c7 d83a d5b1 c9bb 8e11 71bc b74e 07bb
000000d0: 913d ad3b 27e8 deba 267d 853b 1356 e03c
000000e0: 314c a33b 642c d2bb 5dc0 e7ba 9c9d 53bb
000000f0: 84ed acbb 7b03 ff3b c7d7 903a f626 a0bb
0.0003628309 0.0005894624 -0.0073965085 -0.014380331 -0.010766405 -0.025010098 0.012989486 -0.008403862
0.005824025 0.01077878 0.005850602 -0.003339295 -0.0049783317 -0.0033226903 0.0035056323 -0.020209553
0.008246737 -0.006200616 -0.018156456 -0.0051343804 0.012014224 -0.055423014 0.023762152 0.018592246
-0.0055075022 0.0042153127 0.0018583531 -0.0049374085 0.004326225 -0.007121413 -0.006676657 0.0074608703
0.0030086383 -0.009222258 -0.011686324 -0.017396102 -0.0026548088 0.0061835446 0.0049762693 0.013774781
-0.00033186076 0.0032518436 -0.09501024 0.018856648 0.0069308635 -0.023524512 0.003918056 0.011996724
0.0016539084 -0.0061552324 -0.014713658 -0.0020646283 0.0052868803 -0.0017006443 0.0040737567 0.027384793
0.004983448 -0.006413983 -0.001768123 -0.0032289987 -0.0052773375 0.0077823973 0.0011050635 -0.004887457

conv1d.4.weight f4 [64]
00000000: ebe3 7f3f 8d2e 803f 7d42 803f 85d7 7d3f
00000010: 76de 7f3f 1777 803f 4afd 7f3f c70c 803f
00000020: 9787 803f a7f8 803f 99c9 7e3f 4c79 803f
00000030: 1778 803f 7569 803f 9afa 803f 239d 7f3f
00000040: ed38 803f 4b81 803f 408f 803f 90a0 803f
00000050: f3a7 7f3f fd68 803f 7224 813f 07a6 7f3f
00000060: 5d05 803f 14a9 803f 0eb7 7f3f 8a6b 803f
00000070: 0648 803f ce7d 7e3f 3680 8b3f d3fc 803f
00000080: 606b 803f 8794 7f3f 049c 803f 4f44 7f3f
00000090: f3e4 7f3f 3097 7f3f c854 7f3f 16b0 803f
000000a0: 6a5c 803f 68a7 803f 1814 803f 2b24 7f3f
000000b0: dddf 7f3f 6b71 803f 201e 803f 98ca 7f3f
000000c0: d42c 833f d5fd 7e3f bb5d 7f3f b5b8 803f
000000d0: 366d 7f3f 1591 803f d987 803f e48c 7f3f
000000e0: e04b 7f3f b3a4 803f 57d4 7f3f b1dc 833f
000000f0: b15d 813f 690c 7e3f 2329 803f da4e 803f
0.9995715 1.0014206 1.0020291 0.9915698 0.99948823 1.0036343 0.99995863 1.0003899
1.0041379 1.0075883 0.99526364 1.0037017 1.0036649 1.0032183 1.0076478 0.99849147
1.0017372 1.0039457 1.0043716 1.0049 0.99865645 1.003204 1.0089247 0.9986271
1.0001637 1.0051599 0.99888694 1.0032818 1.002198 0.9941071 1.0898502 1.0077156
1.0032768 0.9983601 1.0047612 0.99713606 0.99958724 0.9984007 0.9973874 1.0053737
1.0028203 1.0051088 1.0006132 0.9966456 0.99950963 1.0034612 1.0009193 0.9991851
1.0248055 0.99606067 0.99752396 1.0056368 0.9977602 1.0044276 1.0041457 0.9982436
0.9972515 1.0050262 0.9993338 1.0301725 1.0106717 0.99237686 1.0012554 1.0024064

conv1d.4.bias f4 [64]
00000000: a8ad dbba dbb9 08ba 520e 86bb 2137 0fbc
00000010: 84b7 13ba 9caf 2dbb 8243 0b3b 4545 823a
00000020: cf32 013a b54f 5c3c 4520 8d3b be48 81bb
00000030: 7b17 34bb 7284 10bb 1e9f d5bb 85bc b5ba
00000040: 1f21 593b 3eaa 743b 4d7c 81bb 7f56 a8bb
00000050: b34b ab37 5a81 3ebb de6b d4bb b8f3 a73a
00000060: 9629 90ba d3a0 323a 07f8 c0ba 1434 3fbb
00000070: c262 253a be3a c5bb fa30 79bb 94ce 2e3b
00000080: 761e d53a ab7f 2b3b a639 64bb 1f0f 793b
00000090: 15cf 70b9 f9e9 863b 32ab 393a f824 32bb
000000a0: 67a6 63bb ee58 2d3b 6530 74ba d17c 293b
000000b0: 197e 423b 3f94 35bb 2c82 a03a a8f3 d73b
000000c0: b1b9 54ba 8c21 4dbb 4aa8 2dbb c9d5 743b
000000d0: 54d3 3e3b b9ad 913b 4619 933b ab6f 8a3b
000000e0: 43d8 f23a 4e1b 7fbb 7f7c 623a 8b89 053a
000000f0: 0262 91bb a4ab eb3b b12e a13a 710f 88bb
-0.0016760128 -0.0005215683 -0.0040910626 -0.008741171 -0.0005634951 -0.0026502376 0.0021249955 0.0009938857
0.00049285305 0.013446738 0.0043068253 -0.003945439 -0.0027479816 -0.00220516 -0.0065192124 -0.0013865387
0.0033131314 0.0037332918 -0.0039515854 -0.0051372643 2.0420039e-05 -0.0029068799 -0.0064825853 0.0012813723
-0.0010998722 0.0006814126 -0.0014722355 -0.0029175328 0.00063089665 -0.0060189655 -0.0038023577 0.0026673423
0.0016259688 0.0026168625 -0.00348244 0.0038003398 -0.00022965328 0.004117247 0.00070827 -0.002718268
-0.0034736635 0.0026450711 -0.00093150727 0.002586175 0.002967721 -0.002770677 0.0012245825 0.0065903254
-0.00081148284 -0.0031300513 -0.0026498013 0.0037358871 0.002911766 0.004445758 0.004489097 0.0042247376
0.0018527586 -0.0038926187 0.0008639767 0.0005094043 -0.0044367323 0.007192092 0.001229724 -0.0041522314

lstm.weight_ih_l0 f4 [512, 64]
00000000: b2be 87bd bfec 28bd 4e16 51bd 2cc8 86bd
00000010: c876 b3bc 6071 97bc f681 d93c 1d77 d83d
00000020: 166e 4dbd 9551 cd3c 53dc c0bc 4239 31bd
00000030: 7b14 913d 8df4 bbbc 87d6 f4bc a70b a4bd
00000040: 03eb 23bc 1583 913d f61a 90bd a1b0 ccbd
00000050: 7443 4fbc 5b20 c13c 753a 833d f8ea 893d
00000060: 3c20 703d ccfc 58bd 68ad 723c da54 4ebd
00000070: 736f 86bd cd49 27bd b319 97bc cd1c 6e3d
00000080: 4ff3 9fbc 824b 423d 302e cdbd c1e0 38bd
00000090: 390e 58bd defe 55bd a6ab 25bd d12e 2ebd
000000a0: 568e 2d3d 913e e13c 7268 d3bc e7b0 9b3d
000000b0: e071 aabd 5087 c6bd c4df 133d 08a2 29bd
000000c0: f9b9 6cbd 8bff 91bd 8c64 2b3d 88a2 05bd
000000d0: f0eb c6bd 4267 e4bc 1d5d 4f3d 48d4 d9bc
000000e0: 339e a93d 01bd 9dbd 3299 133c edf6 22bd
000000f0: 2683 9abb 87b8 363c ac51 70bd ab8a 7a3d
00000100: 9f5a bdbd 41b1 24bc ceb8 9e3b f4bc 81bb
00000110: aa65 c03d 2192 4d3d 0011 5a3d bce4 413b
00000120: b6f6 b43c 165f c5ba 7c25 1f3a 8af5 6b3d
00000130: 3880 8d3c 02bb 953c 146d 013d b9a4 3abc
00000140: b932 95bd e3a2 973d 55ae 583d 0aab f53c
00000150: c98e d53c 4259 ca3d 98b2 973d c8ef 8c3d
00000160: 22b9 b93d 269c 8a3d b0db bfbd 0c17 a53d
00000170: e458 853d e8c8 ac3d 9b1b ccbd 0c7d 58bb
00000180: c503 003c c77e b1bc e261 71bd a627 1e3d
00000190: 15d2 abbd b2bb 9f3d dd54 b33d 9584 333d
000001a0: 0f5b 993d 0463 3bbd ec10 c5bd 8228 0b3c
000001b0: 8bd1 bb3c 2985 5d3d 64ec a43d c2a8 6bbc
000001c0: 59ed 4b3c 21a1 983d 06b7 85bd 7d74 3b3c
000001d0: 6be7 123d f96e c93d ed1f ae3d 35d9 9b3d
000001e0: 10f6 98bb cdd3 ef3c ef2b d2bd fc4a 32bd
000001f0: 6c7f 683c 2db7 673d 98e3 cabd ee63 8ebd
00000200: f6de d53c 950c 1bbd 9e9a 113d b4ac 3fbd
00000210: c30c 8ebd 03f2 8c3d be72 f3bd 84ca ad3d
00000220: 7ae8 04be d0db ed3c b3af 6c3d 8152 963d
00000230: 4d02 a03d 9851 da3c 3671 7a3d 6b35 71bd
00000240: 49b3 de3d 78b7 383c 4c96 dbbc 99e6 293d
00000250: ae58 87bd ba0c 6f3d ffaa 9fbd ce28 a43d
00000260: a660 913d 8bb4 ca3d d4f8 66bd a0ff 6c3d
00000270: 77bb d73d 3771 603d 83ce 77bc 4cb7 dabd
00000280: 4c34 7b3d 6989 adbd 8387 613d 28bc 843d
00000290: e75a f5bc aa32 d4bd f14e 803d 0640 3a3d
000002a0: af07 17bd 3a05 7f3d 973e 71bc 029b 3dbd
000002b0: 634a cfba 95e8 9c3d bd9a d23d 4e0d 93bd
000002c0: 96b7 a63d f088 153d 6be8 943d 070d ed3d
000002d0: da5a 9d3d 402c 9f3d 00ad 43bc 34d5 073d
000002e0: a81b 48bd 6c06 e0bd a64b 2b3d 606d e03d
000002f0: 68d0 a0bd 35c1 f1bd e496 a3bc fa6e 193d
00000300: 38ea 27bc 22fe 9e3d 0402 b33d 6f8d 79bd
00000310: 3079 253d 3363 f43b 2df4 b33c 8e6d 5fbd
00000320: ee4f 88bd b815 af3d 0540 383d 1dab 493d
00000330: 5218 c1bc 192b 83bc 839b 893d d878 11bd
00000340: 4ebb 08bd 0e9e 19bd 4305 233c e1eb 01bd
00000350: fa1d b6bd e83f 89bd 55b3 f03c 636f 9a3c
00000360: ca07 813d 6c67 c13d 38be 1ebd 88fc 81bc
00000370: aa45 0abd b7fc 0b3d 99a3 7abd 7bb7 91bd
00000380: 0ff1 0a3d 2117 b33d 8c3d 183d eee8 9e3c
00000390: 7b99 843b 236c a83d d7d7 9d3d 6feb 1c3a
000003a0: 4dc6 7abd d4f6 9e3d 46ba 133d 81f5 9b3d
000003b0: 7b32 b83d 6af9 6cbd 444e 40bc f722 bd3b
000003c0: 712c d53d 63d0 6fbd 2574 7b3d 15bc c83d
000003d0: 62fc ac3c 92d7 aebd 64aa 763d 1134 85bd
000003e0: 67b0 01bd d737 c1bd b00f b5bd e397 df3d
000003f0: cb36 12bd 98d7 1abc b3e3 adbd cb30 3e3c
-0.06628169 -0.041241404 -0.051046662 -0.065811485 -0.021907225 -0.018486679 0.026551228 0.10569594
-0.050153814 0.025063315 -0.023542559 -0.043267496 0.070839845 -0.02294376 -0.02988745 -0.08010035
-0.010004762 0.0710508 -0.070363924 -0.09994627 -0.012650359 0.023574999 0.06407634 0.0673427
0.05862449 -0.05297546 0.014811851 -0.05037389 -0.06564226 -0.040841866 -0.018444872 0.058132935
-0.019525198 0.04743529 -0.10018575 -0.045136217 -0.05274794 -0.052245013 -0.0404469 -0.042525116
0.04237207 0.027495654 -0.02580664 0.07602101 -0.08322501 -0.096937776 0.03610207 -0.04141429
-0.057794545 -0.07128819 0.041843936 -0.032625705 -0.0971297 -0.027881268 0.05062591 -0.026590481
0.08282127 -0.07702065 0.009008693 -0.039786268 -0.004715341 0.011152393 -0.05867164 0.0611674
-0.092458 -0.010052026 0.004843808 -0.0039592925 0.09394391 0.050188188 0.05323887 0.00295858
0.022090297 -0.0015058245 0.0006070954 0.05760721 0.017273054 0.018277649 0.031598166 -0.011391812
-0.07285065 0.07404115 0.05290063 0.029988784 0.026069062 0.09880306 0.07407111 0.06881672
0.090685144 0.06768064 -0.09368074 0.080610365 0.06511095 0.08436757 -0.09966203 -0.0033033518
0.007813399 -0.021666897 -0.05893124 0.03861203 -0.08389679 0.07799472 0.08756421 0.043827612
0.07488071 -0.045748726 -0.09622368 0.0084935445 0.022927066 0.05408207 0.080529004 -0.014383497
0.012446725 0.07452608 -0.065290496 0.011441347 0.03586523 0.098356195 0.08502183 0.07609788
-0.004668005 0.0292758 -0.10262286 -0.043528542 0.014190536 0.056571174 -0.09906691 -0.06952654
0.026107293 -0.037853796 0.035547845 -0.046795562 -0.06936028 0.068820976 -0.1188712 0.084858924
-0.12979308 0.029035479 0.057784747 0.07339955 0.07812939 0.026650235 0.061143123 -0.058888834
0.1087404 0.011274211 -0.026805066 0.04147968 -0.06608711 0.058361746 -0.07796287 0.080155954
0.07098512 0.09897717 -0.056389645 0.05786097 0.10533803 0.05479547 -0.01512492 -0.10679492
0.06132917 -0.084734745 0.055060875 0.064812005 -0.029950572 -0.10361226 0.06265057 0.045471214
-0.036872562 0.062260844 -0.014724395 -0.046290405 -0.0015815016 0.07661549 0.1028342 -0.07180272
0.08140485 0.036507547 0.07270893 0.115747504 0.07683344 0.07772112 -0.011943102 0.03316231
-0.0488545 -0.10938725 0.04182019 0.109583616 -0.0785225 -0.118044294 -0.019969411 0.03745935
-0.010248713 0.07763316 0.08740619 -0.060925897 0.040398777 0.0074581145 0.021967018 -0.05454784
-0.066558704 0.085490644 0.04498293 0.049235452 -0.023571167 -0.016011762 0.06719115 -0.035515636
-0.033381753 -0.03750425 0.009949985 -0.031719092 -0.08892436 -0.06701642 0.029382387 0.018851941
0.06300314 0.09443554 -0.038755625 -0.015867487 -0.033757843 0.034176555 -0.061191175 -0.07115074
0.033921298 0.08744646 0.03716807 0.019398179 0.0040466166 0.082237504 0.07707184 0.000598601
-0.06122427 0.077619225 0.036066316 0.076151855 0.089940034 -0.057855047 -0.01173741 0.0057719904
0.10408867 -0.058548342 0.06139006 0.09801499 0.02111644 -0.085372105 0.06022109 -0.065040715
-0.03166237 -0.09434479 -0.08840883 0.10917642 -0.035696786 -0.009450816 -0.08490696 0.011608313

lstm.weight_hh_l0 f4 [512, 128]
00000000: 36f0 a2bd 468c bd3d 807d ac3d fdd0 453d
00000010: 932c 883d 5bc6 3abd 39ac 463c 0422 42bd
00000020: 5208 88bd d24b b03d 1d12 693d 8e4e 10bc
00000030: aaf1 8e3d fc1b 76bd 9e83 c23d 2c3e cebd
00000040: 036e 0b3d 4e65 cdbc fec2 97bd 3f25 a0bd
00000050: 1710 bdbd f937 ad3d 1a98 f0bc b696 e53c
00000060: 0c5d 22bc 2142 6d3d 0c21 d43c f3e8 09bc
00000070: e2c0 683d 9bbc 6f3d bbc8 823d 77d1 5c3d
00000080: ede1 8cbd 0abc 9bbd d4ac 59bd 49ff 8e3d
00000090: aaaf 68bd e881 403d 2f7f 0dbd d2da 32bd
000000a0: 09d4 86bd 36aa a2bd 8ff2 5bbd e3d8 3e3d
000000b0: 62a9 363d 0369 b4bd 98c2 b6bd cc07 8d3d
000000c0: 083f 7abd 3fe8 b2bc 5db6 3f3c b246 92bd
000000d0: 7155 a13d 1f3c 12bd 897c 5fbd 1041 5eba
000000e0: 26c1 b0bd 0a5e 813d bc4c ddbc ce88 1ebd
000000f0: f2e9 083c fbca ab3d 01de 933d 7994 1cbd
00000100: 933a acbd 893e 29bc 234a 58bd 4ff9 263d
00000110: 76cf 2a3c 5e76 33bd 1ae9 113b 9010 fbba
00000120: d7e6 a63d 8b7f 3b3d fe79 a3bc b027 41bd
00000130: baa4 26bd 78b0 583c 601e 8ebd c78c 633d
00000140: d955 8a3d 20d6 a23d 21e1 8dbd 0f34 903d
00000150: 9350 cfbc b97c b9bd 011e c73d 68b8 20bc
00000160: d4b8 9abd 9088 92bd 1a25 833d 313d 283d
00000170: 6156 3b3d a6e8 4ebc cfb4 99bd 8165 88bd
00000180: 61fe b8bd 180c cc3d ae4f 443d 8718 69bd
00000190: 4d79 863d b799 65bd cd09 c0bc 2676 6dbd
000001a0: 54f6 6b3d 9b2e 453d 573b d1bc d2c4 b13d
000001b0: e667 5ebd f4d2 acba db32 babd bc7c 9bbd
000001c0: 3912 b43d 6fbb 7e3c 17b7 7abd 0b77 9fbd
000001d0: 8c75 ab3d c9c2 0e3d b647 073d 778b 86bd
000001e0: 4131 7bbd 68ae 95bc bb5b 783d 0796 b8bd
000001f0: a482 5fbd ce42 ad3d 60b8 a73d bc4e 54bc
00000200: a68e c4bd 9f48 02bd 9f2a a53d d9a4 be3d
00000210: 6bad 8d3d 13da 893d 216a b73d 5ab3 b2bd
00000220: c897 7e3d 9471 87bb 2e56 24bc 9cb7 0c3d
00000230: 52c8 563d 77d1 21bd 9538 8cbd f814 da3c
00000240: 0c4a 9a3b 3d92 8abd 9c27 3ebd e391 80bc
00000250: fab7 fd3b de48 6b3d 6b45 ee3b bf9b 72bd
00000260: 1990 d23d 9d83 2fbd aa8b 90bd f5b5 ac3b
00000270: d060 85bc ce47 213d 9e79 24bd 8710 d93c
00000280: 671f 8f3d 5f54 bd3d 7e9a 7cbd 9150 cb3b
00000290: c94d 7cbd 7e7d 993d af3b c9bd 2020 4bbc
000002a0: e129 1c3c a6f8 61bd 060f 00bd 1490 f5bc
000002b0: 004f 93bd df84 9cbc fbe7 5f3c 5643 5dbd
000002c0: 7615 27bd 1d63 17bb 3871 a33d 989b 1cbd
000002d0: 5f27 bebd fd24 9d3d 0873 9dbd 75cb 6f3d
000002e0: 15d2 83bd e18f 1c3c 4515 6cbc 7138 c5bd
000002f0: a1b0 363d 715b 953c a5f5 483c 46fa 2d3d
00000300: 3e97 b139 0b4c 9cbd 017c 97bd e0a8 fe3c
00000310: 3a8b c43b 9318 813d 5bcd 5ebd c47a c33d
00000320: 6855 703d 56bd 9c3d 2b1f cb3d fae6 d6bb
00000330: 0192 983d 4fdd 313d 7375 663d 3fe5 163d
00000340: 3072 8f3d 35a8 e7bc 24c6 76bd 1eb0 713c
00000350: 710d 6bbc 336a 1c3d 81d4 c4bd 36ed 2dbc
00000360: 9c08 28bc ffaa 3e3d 4eee afbd 198d 363d
00000370: af23 a23d f399 6d3d 5191 993d b9e2 5ebd
00000380: 0ced 663d a89d acbb e7ba 8dbd 1e0d c73d
00000390: 1fa7 4a3d 25bf 4cbd 41db 2abd effe 783c
000003a0: b75e 8e3d 255c 58bb ef86 88bd 1cd9 49bd
000003b0: 1ee9 c3bc 8724 123b 68cd 09be 64bb 28bd
000003c0: dd54 2e3c 97fb afbd 1c7c d43a 034a b83d
000003d0: 1222 b0bd 8a8a c5bd 4f7a 1a3d 73ef 683d
000003e0: bbc8 e2bc 2caf a0bd 93c2 953d 6608 4ebd
000003f0: 2202 a9bd 074f 893d 9aaf 86bd a158 a0bd
-0.07955973 0.09255271 0.08422375 0.04829501 0.06649127 -0.045599323 0.012126022 -0.04739572
-0.06642212 0.086082116 0.05690204 -0.008807791 0.069796875 -0.06008528 0.0949776 -0.10070452
0.034040462 -0.02507272 -0.07410239 -0.07819604 -0.092315845 0.084579416 -0.029369403 0.028025966
-0.009909879 0.057924394 0.025894664 -0.008417356 0.056824572 0.058529478 0.063859425 0.0539107
-0.068790294 -0.07604225 -0.053143337 0.069822855 -0.05680815 0.04699889 -0.03454512 -0.043665715
-0.06583411 -0.079426214 -0.05369812 0.046593558 0.04459513 -0.08809092 -0.089238346 0.06886253
-0.061095268 -0.02183926 0.011701194 -0.0714239 0.07877625 -0.035701867 -0.054562125 -0.0008478323
-0.0863059 0.06316765 -0.027014129 -0.038704686 0.008356558 0.08388325 0.07220078 -0.038227532
-0.0840961 -0.010329851 -0.052805077 0.040765103 0.010425439 -0.043814056 0.0022264183 -0.0019154716
0.08149498 0.04577593 -0.019955631 -0.04715699 -0.04068444 0.013225667 -0.06939387 0.055554178
0.067546554 0.07950997 -0.069277056 0.070411794 -0.025306975 -0.09056992 0.0972252 -0.009809591
-0.075547844 -0.071549535 0.06403561 0.04107398 0.045736674 -0.01262871 -0.075051896 -0.06659985
-0.09032894 0.09963244 0.04792755 -0.056908157 0.06566105 -0.056054797 -0.023442173 -0.057974003
0.057607964 0.04814015 -0.02554099 0.086801186 -0.054298304 -0.0013185428 -0.09091731 -0.075921506
0.08792538 0.015547617 -0.061209764 -0.077863775 0.0837203 0.03485373 0.033027373 -0.065695696
-0.06132627 -0.01827164 0.060634356 -0.090129904 -0.054567948 0.084600076 0.081894636 -0.012958225
-0.095975205 -0.031807538 0.0806477 0.09308786 0.069178425 0.067310475 0.08955789 -0.08725615
0.06215647 -0.0041334126 -0.010030312 0.03435479 0.052437134 -0.039506402 -0.0684673 0.026621327
0.004708534 -0.06766174 -0.046424493 -0.015694564 0.007742879 0.05744254 0.007271459 -0.059230562
0.10281391 -0.042850126 -0.07057889 0.0052707144 -0.016281515 0.03937512 -0.040155046 0.026497139
0.069884114 0.09244608 -0.061670773 0.0062046726 -0.06159762 0.07494639 -0.09825837 -0.012397796
0.009531469 -0.05516877 -0.031264327 -0.029975928 -0.071928024 -0.019106327 0.013666148 -0.054019295
-0.04079195 -0.0023099848 0.07980579 -0.038234323 -0.09284853 0.076730706 -0.07687956 0.05854364
-0.06436554 0.009555788 -0.014409368 -0.09629906 0.04460204 0.01823208 0.0122655975 0.042475007
0.00033872755 -0.076316915 -0.07396699 0.031086385 0.0059980424 0.06303515 -0.05439506 0.095449
0.0586752 0.076533005 0.09918054 -0.0065582963 0.07449723 0.043423947 0.056264352 0.03683972
0.070042014 -0.02827845 -0.060247555 0.014751462 -0.014346466 0.038187217 -0.096108444 -0.0106156375
-0.010255959 0.046549793 -0.08590375 0.044568155 0.07916962 0.058008146 0.0749842 -0.05441544
0.05637841 -0.0052678175 -0.069204144 0.09719299 0.049475785 -0.049986977 -0.041713003 0.0151975
0.06951659 -0.0033013907 -0.066663615 -0.049279317 -0.02391487 0.0022299604 -0.13457263 -0.041194335
0.01064035 -0.08592909 0.0016211304 0.089984916 -0.086002484 -0.09645565 0.0377143 0.05686898
-0.027683606 -0.078459114 0.07312503 -0.050300978 -0.0825236 0.067045264 -0.06576462 -0.078294046

lstm.bias_ih_l0 f4 [512]
00000000: e6ab 5c3b e742 6e3a db52 753c b81f d537
00000010: 6046 963b 8c90 813a 16d5 5e3b a866 213c
00000020: 3c7e 173c 6497 7c3b ace3 4d3b c839 5b3b
00000030: d5d3 213b 2824 5abb 8b06 35bc 22ab f8b9
00000040: dbeb 143c d5fa 9ebb 3232 4b3a 47e4 9fb9
00000050: 1dc5 043c 6694 1abb 746f 9cba 879b 62ba
00000060: d889 12bc cdaf 6f3a 4e3e f8bb 7315 1d3b
00000070: 9bf4 5eba bdfc cf3b b4b6 413b 33e1 143b
00000080: 6cb0 a7bb 2dda 603b 529e c0bb 7678 a23b
00000090: d4bf 08bc d467 ee3b 8cbf fa3a 3c79 ec3a
000000a0: 4377 0bbb fc3a bf3a a17a 9aba 6666 bbbb
000000b0: c180 20bb 807a 36bb 4729 5a3c b0e7 483a
000000c0: e7db 0e3c 7dd1 333b 00f8 d53c df71 1f3b
000000d0: 4a90 e337 bbcc 70bb f920 e2bb 0064 ed3b
000000e0: 5e0b fe3a 9592 7f39 f502 c8ba 125d 2bbb
000000f0: eff3 423b b907 b9bb 99ae f73a 422f 023c
00000100: a043 15bc 21d2 2f3c 59d3 803b 5c5c 5fbb
00000110: 9aa2 87ba 3223 c5ba d2b2 9d3b b368 2e3c
00000120: d079 eeba a48a 2b3b 7e6e df3b f39f 873a
00000130: f516 483a 74fc 0e3c 15de 2abb e29a 593c
00000140: 53be 4bbc 36ab 563b a342 093b 7aa1 bf39
00000150: 45f7 96b9 be52 ef3b 54d9 bf3a 92fe f03b
00000160: d483 e2bb d7a0 2fbb 206b 7239 4024 2ebb
00000170: 455f 6ebb 30d1 d73a a107 6d3b 33d5 863b
00000180: d4bc 023c 0d54 b13c fce1 dc3a 447a 7a3b
00000190: e069 29ba 73e5 a93b 39f3 f6ba 030d 173a
000001a0: bcd8 61ba 4e05 8939 8c1d dd3c f6f5 e33c
000001b0: d3a4 3d3c 8938 c63b c158 92bb 1660 b6ba
000001c0: de43 453b 2de9 053a 533f c939 ed3d 363b
000001d0: 154f 493a b20b 0f3d d51a 563b 1682 a93c
000001e0: 0a24 0b3b dc64 063a 1a56 08bc 8497 42ba
000001f0: b201 d83a dc18 90bb 7659 06bc 5aa6 303b
00000200: 2209 f73a 92b5 9f39 242c 4f3c e931 e7b9
00000210: 4b2b 933b b394 983b d653 ff3a a3ef cd3b
00000220: aae9 d03b 87f0 3c3b 01aa 2f3b f775 3b3b
00000230: abea f83a a6ff 68bb 3f67 31bb 5e2e 62ba
00000240: 09db d83b 9267 4dbb fbed 833a f86c 1e39
00000250: a59a cb3b 861c 53bb bfdc caba e646 db3a
00000260: f9b3 fdbb f3e0 613a 5dc1 bfbb ec5d d53a
00000270: 9906 c2ba e3de c73b 95cc bb3a 4646 5d3a
00000280: 1e0f 46bb 4be8 3e3b e8b4 8bbb 2cf3 7d3b
00000290: 0ec5 4abc bc16 ac3b 0100 8c39 a2d5 e93a
000002a0: 6fdb 52bb d47c a13b e005 d4ba 871f 9cbb
000002b0: 34c1 18bb 90e5 c5ba 75ed f63b fc94 0b38
000002c0: 4ba7 f63b 0045 263b a5b0 353c 4745 2c3b
000002d0: d072 523a b158 71bb 77ea ccbb d556 cb3b
000002e0: a834 853a a657 0eba 32d1 43ba f900 82bb
000002f0: 54d5 313b e089 dfbb f822 e33a 7db2 083c
00000300: f023 28bc f06d 153c 28cf 6b3b aaf8 5abb
00000310: 5e60 81ba 6b25 deba d519 9e3b 28b0 db3b
00000320: ad17 13bb d71e 2b3b 94af b83b e7b8 8c39
00000330: c739 a039 1eea 013c e655 5fbb e753 c33b
00000340: fb28 2abc d797 363b c86a 093b f961 85b9
00000350: 3277 2039 c4c7 383c 9311 ed3a 9bb4 253c
00000360: ebe7 e0bb a4a7 60bb a5c5 cdba e53a 76bb
00000370: 0447 6bbb 0b46 263a 1f6a 553b c521 663b
00000380: 89ac ff3b 9832 8b3c ee42 3c39 bf7d 233b
00000390: 6c5c 8bba f210 933b d1eb 07bb a5bf 3e3a
000003a0: 6747 aeb8 43bc d739 549a c33c 8150 1d3c
000003b0: d954 4e3c 8f62 5b3b 2133 d3b9 7623 dbba
000003c0: 24e9 ea3a e254 73b9 b99c d737 dfe7 d73a
000003d0: 3bde 863a 6df6 073d 548c 583b 4ded a53c
000003e0: 49ea 8e3a 1eb9 a03a bf3a 9abb a5f8 65b9
000003f0: 1f84 0b3b 3eeb aabb 156c ecbb f8ad c039
0.0033671795 0.0009088949 0.014973368 2.5406349e-05 0.004586026 0.0009884997 0.003400152 0.009851135
0.009246405 0.0038542384 0.003141622 0.0033451188 0.0024692912 -0.003328571 -0.011048923 -0.0004742975
0.009089435 -0.004851679 0.0007751315 -0.00030496923 0.008103636 -0.0023586988 -0.0011935071 -0.0008644391
-0.008943997 0.0009143323 -0.0075757867 0.0023969084 -0.0008505077 0.0063472674 0.0029558362 0.0022717237
-0.0051174667 0.003430973 -0.0058782483 0.0049582077 -0.008346517 0.007275561 0.0019130572 0.0018041502
-0.0021280802 0.0014589722 -0.0011785814 -0.005718994 -0.0024490806 -0.0027844012 0.013315505 0.00076639187
0.008719421 0.0027438097 0.026119232 0.0024329347 2.7127699e-05 -0.0036743123 -0.0069009033 0.007244587
0.001938205 0.00024373301 -0.001525967 -0.0026148004 0.0029747447 -0.0056466726 0.0018896639 0.007945837
-0.009110361 0.010731251 0.0039314446 -0.003408215 -0.0010348142 -0.0015040396 0.004812577 0.010645079
-0.0018194262 0.0026175166 0.0068185916 0.0010347351 0.00076328154 0.008727182 -0.0026072313 0.013281556
-0.012435514 0.0032755858 0.002094426 0.00036550668 -0.0002879446 0.007303565 0.0014636912 0.007354566
-0.006912688 -0.002679875 0.00023118826 -0.00265719 -0.0036372703 0.0016465541 0.0036167877 0.004114771
0.00797959 0.021646524 0.0016852017 0.0038219849 -0.0006462615 0.005184823 -0.0018840797 0.0005762132
-0.0008615365 0.0002613463 0.026991628 0.027827244 0.011574942 0.00604922 -0.0044661467 -0.0013914134
0.0030100266 0.0005108293 0.00038384888 0.0027807907 0.00076793256 0.034923263 0.0032669802 0.020691913
0.0021231198 0.00051267236 -0.008321309 -0.000742309 0.0016479997 -0.0043974947 -0.00820004 0.0026954622
0.0018847326 0.00030462124 0.012644801 -0.0004409694 0.004491245 0.004656398 0.0019479941 0.0062846704
0.006375511 0.002882989 0.002680421 0.0028604248 0.0018990835 -0.003555277 -0.0027069596 -0.0008628125
0.006617908 -0.003134225 0.001006543 0.00015108648 0.0062135034 -0.0032213046 -0.0015477164 0.0016729503
-0.0077424017 0.0008616589 -0.005851908 0.0016278601 -0.0014802992 0.006099568 0.0014327938 0.00084409525
-0.0030221413 0.0029130157 -0.004263509 0.0038749678 -0.012376083 0.0052517336 0.00026702884 0.0017840157
-0.003217425 0.0049282108 -0.0016176067 -0.0047645005 -0.0023308517 -0.0015098322 0.0075356313 3.3278935e-05
0.007527267 0.0025370717 0.011089479 0.002628641 0.00080279727 -0.0036826546 -0.0062535363 0.0062054195
0.0010162788 -0.0005429931 -0.0007469832 -0.003967401 0.002713521 -0.006821856 0.0017329147 0.008343336
-0.010262474 0.009120449 0.003598163 -0.0033412375 -0.0009870639 -0.0016948407 0.0048248568 0.006704349
-0.0022444532 0.0026110911 0.005636165 0.00026840644 0.00030560626 0.007929353 -0.00340783 0.0059609297
-0.010385747 0.00278615 0.0020968188 -0.00025440732 0.00015303193 0.011278097 0.0018086903 0.0101138605
-0.0068635843 -0.003427961 -0.0015699161 -0.0037571725 -0.0035900483 0.00063428347 0.0032564474 0.0035115343
0.00780255 0.016991898 0.0001795401 0.0024946777 -0.0010632402 0.004488104 -0.0020739923 0.0007276482
-8.310266e-05 0.00041148262 0.0238773 0.009601713 0.012593471 0.0033475494 -0.0004028315 -0.0016718942
0.0017922265 -0.00023205907 2.5702977e-05 0.0016472301 0.0010289619 0.033193994 0.0033042626 0.020254755
0.0010903563 0.00122622 -0.00470671 -0.00021931769 0.0021288467 -0.0052160313 -0.007215033 0.0003675071

lstm.bias_hh_l0 f4 [512]
00000000: e6ab 5c3b e742 6e3a db52 753c b81f d537
00000010: 6046 963b 8c90 813a 16d5 5e3b a866 213c
00000020: 3c7e 173c 6497 7c3b ace3 4d3b c839 5b3b
00000030: d5d3 213b 2824 5abb 8b06 35bc 22ab f8b9
00000040: dbeb 143c d5fa 9ebb 3232 4b3a 47e4 9fb9
00000050: 1dc5 043c 6694 1abb 746f 9cba 879b 62ba
00000060: d889 12bc cdaf 6f3a 4e3e f8bb 7315 1d3b
00000070: 9bf4 5eba bdfc cf3b b4b6 413b 33e1 143b
00000080: 6cb0 a7bb 2dda 603b 529e c0bb 7678 a23b
00000090: d4bf 08bc d467 ee3b 8cbf fa3a 3c79 ec3a
000000a0: 4377 0bbb fc3a bf3a a17a 9aba 6666 bbbb
000000b0: c180 20bb 807a 36bb 4729 5a3c b0e7 483a
000000c0: e7db 0e3c 7dd1 333b 00f8 d53c df71 1f3b
000000d0: 4a90 e337 bbcc 70bb f920 e2bb 0064 ed3b
000000e0: 5e0b fe3a 9592 7f39 f502 c8ba 125d 2bbb
000000f0: eff3 423b b907 b9bb 99ae f73a 422f 023c
00000100: a043 15bc 21d2 2f3c 59d3 803b 5c5c 5fbb
00000110: 9aa2 87ba 3223 c5ba d2b2 9d3b b368 2e3c
00000120: d079 eeba a48a 2b3b 7e6e df3b f39f 873a
00000130: f516 483a 74fc 0e3c 15de 2abb e29a 593c
00000140: 53be 4bbc 36ab 563b a342 093b 7aa1 bf39
00000150: 45f7 96b9 be52 ef3b 54d9 bf3a 92fe f03b
00000160: d483 e2bb d7a0 2fbb 206b 7239 4024 2ebb
00000170: 455f 6ebb 30d1 d73a a107 6d3b 33d5 863b
00000180: d4bc 023c 0d54 b13c fce1 dc3a 447a 7a3b
00000190: e069 29ba 73e5 a93b 39f3 f6ba 030d 173a
000001a0: bcd8 61ba 4e05 8939 8c1d dd3c f6f5 e33c
000001b0: d3a4 3d3c 8938 c63b c158 92bb 1660 b6ba
000001c0: de43 453b 2de9 053a 533f c939 ed3d 363b
000001d0: 154f 493a b20b 0f3d d51a 563b 1682 a93c
000001e0: 0a24 0b3b dc64 063a 1a56 08bc 8497 42ba
000001f0: b201 d83a dc18 90bb 7659 06bc 5aa6 303b
00000200: 2209 f73a 92b5 9f39 242c 4f3c e931 e7b9
00000210: 4b2b 933b b394 983b d653 ff3a a3ef cd3b
00000220: aae9 d03b 87f0 3c3b 01aa 2f3b f775 3b3b
00000230: abea f83a a6ff 68bb 3f67 31bb 5e2e 62ba
00000240: 09db d83b 9267 4dbb fbed 833a f86c 1e39
00000250: a59a cb3b 861c 53bb bfdc caba e646 db3a
00000260: f9b3 fdbb f3e0 613a 5dc1 bfbb ec5d d53a
00000270: 9906 c2ba e3de c73b 95cc bb3a 4646 5d3a
00000280: 1e0f 46bb 4be8 3e3b e8b4 8bbb 2cf3 7d3b
00000290: 0ec5 4abc bc16 ac3b 0100 8c39 a2d5 e93a
000002a0: 6fdb 52bb d47c a13b e005 d4ba 871f 9cbb
000002b0: 34c1 18bb 90e5 c5ba 75ed f63b fc94 0b38
000002c0: 4ba7 f63b 0045 263b a5b0 353c 4745 2c3b
000002d0: d072 523a b158 71bb 77ea ccbb d556 cb3b
000002e0: a834 853a a657 0eba 32d1 43ba f900 82bb
000002f0: 54d5 313b e089 dfbb f822 e33a 7db2 083c
00000300: f023 28bc f06d 153c 28cf 6b3b aaf8 5abb
00000310: 5e60 81ba 6b25 deba d519 9e3b 28b0 db3b
00000320: ad17 13bb d71e 2b3b 94af b83b e7b8 8c39
00000330: c739 a039 1eea 013c e655 5fbb e753 c33b
00000340: fb28 2abc d797 363b c86a 093b f961 85b9
00000350: 3277 2039 c4c7 383c 9311 ed3a 9bb4 253c
00000360: ebe7 e0bb a4a7 60bb a5c5 cdba e53a 76bb
00000370: 0447 6bbb 0b46 263a 1f6a 553b c521 663b
00000380: 89ac ff3b 9832 8b3c ee42 3c39 bf7d 233b
00000390: 6c5c 8bba f210 933b d1eb 07bb a5bf 3e3a
000003a0: 6747 aeb8 43bc d739 549a c33c 8150 1d3c
000003b0: d954 4e3c 8f62 5b3b 2133 d3b9 7623 dbba
000003c0: 24e9 ea3a e254 73b9 b99c d737 dfe7 d73a
000003d0: 3bde 863a 6df6 073d 548c 583b 4ded a53c
000003e0: 49ea 8e3a 1eb9 a03a bf3a 9abb a5f8 65b9
000003f0: 1f84 0b3b 3eeb aabb 156c ecbb f8ad c039
0.0033671795 0.0009088949 0.014973368 2.5406349e-05 0.004586026 0.0009884997 0.003400152 0.009851135
0.009246405 0.0038542384 0.003141622 0.0033451188 0.0024692912 -0.003328571 -0.011048923 -0.0004742975
0.009089435 -0.004851679 0.0007751315 -0.00030496923 0.008103636 -0.0023586988 -0.0011935071 -0.0008644391
-0.008943997 0.0009143323 -0.0075757867 0.0023969084 -0.0008505077 0.0063472674 0.0029558362 0.0022717237
-0.0051174667 0.003430973 -0.0058782483 0.0049582077 -0.008346517 0.007275561 0.0019130572 0.0018041502
-0.0021280802 0.0014589722 -0.0011785814 -0.005718994 -0.0024490806 -0.0027844012 0.013315505 0.00076639187
0.008719421 0.0027438097 0.026119232 0.0024329347 2.7127699e-05 -0.0036743123 -0.0069009033 0.007244587
0.001938205 0.00024373301 -0.001525967 -0.0026148004 0.0029747447 -0.0056466726 0.0018896639 0.007945837
-0.009110361 0.010731251 0.0039314446 -0.003408215 -0.0010348142 -0.0015040396 0.004812577 0.010645079
-0.0018194262 0.0026175166 0.0068185916 0.0010347351 0.00076328154 0.008727182 -0.0026072313 0.013281556
-0.012435514 0.0032755858 0.002094426 0.00036550668 -0.0002879446 0.007303565 0.0014636912 0.007354566
-0.006912688 -0.002679875 0.00023118826 -0.00265719 -0.0036372703 0.0016465541 0.0036167877 0.004114771
0.00797959 0.021646524 0.0016852017 0.0038219849 -0.0006462615 0.005184823 -0.0018840797 0.0005762132
-0.0008615365 0.0002613463 0.026991628 0.027827244 0.011574942 0.00604922 -0.0044661467 -0.0013914134
0.0030100266 0.0005108293 0.00038384888 0.0027807907 0.00076793256 0.034923263 0.0032669802 0.020691913
0.0021231198 0.00051267236 -0.008321309 -0.000742309 0.0016479997 -0.0043974947 -0.00820004 0.0026954622
0.0018847326 0.00030462124 0.012644801 -0.0004409694 0.004491245 0.004656398 0.0019479941 0.0062846704
0.006375511 0.002882989 0.002680421 0.0028604248 0.0018990835 -0.003555277 -0.0027069596 -0.0008628125
0.006617908 -0.003134225 0.001006543 0.00015108648 0.0062135034 -0.0032213046 -0.0015477164 0.0016729503
-0.0077424017 0.0008616589 -0.005851908 0.0016278601 -0.0014802992 0.006099568 0.0014327938 0.00084409525
-0.0030221413 0.0029130157 -0.004263509 0.0038749678 -0.012376083 0.0052517336 0.00026702884 0.0017840157
-0.003217425 0.0049282108 -0.0016176067 -0.0047645005 -0.0023308517 -0.0015098322 0.0075356313 3.3278935e-05
0.007527267 0.0025370717 0.011089479 0.002628641 0.00080279727 -0.0036826546 -0.0062535363 0.0062054195
0.0010162788 -0.0005429931 -0.0007469832 -0.003967401 0.002713521 -0.006821856 0.0017329147 0.008343336
-0.010262474 0.009120449 0.003598163 -0.0033412375 -0.0009870639 -0.0016948407 0.0048248568 0.006704349
-0.0022444532 0.0026110911 0.005636165 0.00026840644 0.00030560626 0.007929353 -0.00340783 0.0059609297
-0.010385747 0.00278615 0.0020968188 -0.00025440732 0.00015303193 0.011278097 0.0018086903 0.0101138605
-0.0068635843 -0.003427961 -0.0015699161 -0.0037571725 -0.0035900483 0.00063428347 0.0032564474 0.0035115343
0.00780255 0.016991898 0.0001795401 0.0024946777 -0.0010632402 0.004488104 -0.0020739923 0.0007276482
-8.310266e-05 0.00041148262 0.0238773 0.009601713 0.012593471 0.0033475494 -0.0004028315 -0.0016718942
0.0017922265 -0.00023205907 2.5702977e-05 0.0016472301 0.0010289619 0.033193994 0.0033042626 0.020254755
0.0010903563 0.00122622 -0.00470671 -0.00021931769 0.0021288467 -0.0052160313 -0.007215033 0.0003675071

lstm.weight_ih_l1 f4 [512, 128]
00000000: c392 793d 1d40 c83c 1b46 71bd 55e7 143d
00000010: 9b13 6f3d 039d a83d 287d b53d 9417 5e3d
00000020: 649e afbc c303 89bd 2ced 7abd fc8d f93c
00000030: 69ea cb3d 4fa1 b5bd 0920 9e3c 4143 b4bd
00000040: be19 e03c ba92 c23d 03c5 6c3c 38c9 9b3c
00000050: 40f6 a93d 5e12 49bc 3f5f 3fbd eab7 b43d
00000060: fe09 e1bc 48ba c23c bd3d 5ebd 2851 cd3d
00000070: 7410 9abd 39a1 07bd 3c68 113d 3232 85bd
00000080: 1494 0abd 8557 3c3d dd4b d9bc 3a72 8abc
00000090: 073d e8bc c050 dcbd 6d3d 73bd 110e 55bd
000000a0: 261e 9ebc 5978 56bd b9ae 203d e98e 513d
000000b0: 10a7 633d 7114 9a3d 0425 44bd 8084 c1bd
000000c0: 7e13 71bd 00a0 e03b 1d85 cc3d a4b0 8e3c
000000d0: 9cb4 86bd 5d57 babc 77c3 273d 71f7 8fbd
000000e0: 9d98 73bd 763a 59ba 092d 85bd 9fd3 bd3d
000000f0: e5e9 76bc b714 52bd 6bd7 78bd 01a6 d63c
00000100: aa84 bb3b d207 013d 36d4 b1bd fb18 1a3d
00000110: 9b8b 953d 86ed 5cbd a0cd c33d 4ae0 793c
00000120: b292 8cbd d933 b3bd 35bf 8ebd eb95 cdbd
00000130: 435e 98bd a388 c93d b846 babd 9264 4d3d
00000140: f2bb 3f3c 5373 54bd 38db e03b ac4f 583d
00000150: 45d8 80bd 028d 743d 8ae1 abbb 7e07 723d
00000160: 64f5 96bd 3015 923c aa2b 363d 4184 2cbd
00000170: 9ac9 42bd 9ca6 663d f44f 633d 42fc 0a3d
00000180: 2dbc cdbd 4a71 a3bc 29b1 84bd 417a ce3d
00000190: 12a7 7a3d 47c9 5fbd 07ec 12bd 6d05 793d
000001a0: a9ec 18bd d08a 373d 31db ad3c 1322 0dbd
000001b0: 1c7f 6dbc fd33 dabd 31ea 46bd 80eb fd3b
000001c0: 9d7a 91bd 5796 a5bc 9c2d 99bc a86f afbc
000001d0: 775b dabb 863e bebd 87ec 13bd 26c7 74bc
000001e0: 08fc 90bd 6ca9 33bc efa0 623d 257f 67bc
000001f0: 84cb 9f3d 9012 b83d 5878 97bc 839a fb3c
00000200: 9324 a33b f2db 4d3c b293 8fbc eaf6 413d
00000210: 8d99 3e3b bb5a 0fbc 7b68 c9bd b1c4 46bd
00000220: 82e4 5cbd a681 9d3d 403f 3c3c f0be 283d
00000230: d05e 71bc b24b 863d 592d 573d d3d3 01bd
00000240: 4483 4bbc e6d7 6d3c 7731 863c 036c 793d
00000250: 3be2 df3c e842 9cbd cc79 cfbc a183 4fbd
00000260: 7013 f13c bcbf 08bd e2e3 cbbc ae5d 6f3d
00000270: c5dc abbd 9087 9dbd eab9 01bd 2fa4 84bd
00000280: 2551 33bd 17d9 bc3d f25b 25bd b28b a7bd
00000290: 4623 55bd 8027 e5ba 35d2 ec3c 8be6 5d3d
000002a0: f465 57bd 93e8 093c 2935 40bc 8f4c 523d
000002b0: 6ee2 02bd ab96 c03d b10a 83bc 60f8 19bb
000002c0: 02f2 ba3d d9a8 89bd 0034 cc3d 6d41 1fbd
000002d0: 8c1b 4b3b 7eb2 79bd c74f 603d 48a6 61bd
000002e0: 42b2 69bd 5198 1fbd 736a a2bd 926e a2bd
000002f0: 5db5 acbd a8ee 5dbd d942 bcbd c503 a8bd
00000300: 8ddb a13d f44e f0bc 8a02 abbd 8b4b 96bd
00000310: e76b 36bd 3ea8 4abd 92d8 b03d e603 9dbd
00000320: 5f5d 6cbd c2b2 bb3d 75aa 5e3d 08f4 0f3c
00000330: 2d7c cc3c 47ab 0ebd 11c7 f6bb 41b1 6dbd
00000340: 118a 48bd 8319 bebc eb70 aabd 8abb bd3c
00000350: d6d6 a2bd 593c bb3b 86f3 c4bd da99 8abc
00000360: e629 843d 629f d1bc 3950 febc 1e1b 033d
00000370: 09f9 85bd faaf 94bd d4a6 5abb 6f2c 1f3d
00000380: 413c 1abd 35e3 7e3d bf36 33bd 1bba 8bbd
00000390: fd94 fe3b 55aa b9bc 1a84 c63c 2c0b 0d3c
000003a0: 5cca c83d 106d b33d a4df afbd aaf9 c03c
000003b0: 75b4 4c3d c5da fbbc f97c c03d 5d82 28bd
000003c0: 24e0 b73b 2227 9e3b 7b2f 13bc 54a4 1e3d
000003d0: 5ae2 3d3d da7c d33c 7e10 92bd 9b9b 983d
000003e0: 5ab8 f53c 0de7 b13d 778c 05bd f601 003d
000003f0: 0821 583b fd5e 7d3c 7ff0 a3bd 6aeb 8bbd
0.06093098 0.024444634 -0.05890475 0.036353428 0.058368307 0.082330726 0.08861762 0.054221705
-0.021437831 -0.066901706 -0.06126134 0.030463211 0.099568196 -0.08868658 0.019302385 -0.0880189
0.027356025 0.09500642 0.014451268 0.019016847 0.082989216 -0.0122724455 -0.046721693 0.08824141
-0.027470585 0.023770466 -0.054258097 0.10025245 -0.075226694 -0.03311274 0.035499796 -0.065037146
-0.033832625 0.045981903 -0.026525432 -0.01690017 -0.028349413 -0.10757589 -0.059384752 -0.052015368
-0.019301485 -0.052360866 0.03922913 0.05116168 0.055579245 0.0752343 -0.047886863 -0.094491005
-0.05885648 0.006855011 0.09986327 0.017418213 -0.06577417 -0.022746736 0.040957894 -0.070296176
-0.059471715 -0.00082866044 -0.065027304 0.09268879 -0.015070413 -0.051289286 -0.060752314 0.026202204
0.005722602 0.0315016 -0.08683054 0.03762148 0.07302018 -0.053937458 0.09560704 0.015251229
-0.068639174 -0.087501235 -0.069700636 -0.1003836 -0.07439854 0.098405145 -0.0909552 0.05014474
0.0117025245 -0.051867794 0.0068620704 0.052810356 -0.0629125 0.059704788 -0.005245392 0.059089176
-0.07371023 0.017832369 0.044475235 -0.042118315 -0.047555543 0.056311235 0.05549617 0.033931978
-0.10045657 -0.019951481 -0.06479103 0.10081912 0.061194487 -0.054635312 -0.035869624 0.06079619
-0.03733507 0.044810116 0.021222683 -0.034456324 -0.014495637 -0.10654447 -0.048563186 0.007749021
-0.07103465 -0.02021329 -0.018698506 -0.021415547 -0.0066637355 -0.09289269 -0.036114242 -0.014940059
-0.07079321 -0.010965686 0.05532926 -0.014129435 0.078024894 0.089879155 -0.018490002 0.030713325
0.004978725 0.012564646 -0.017526481 0.047354616 0.0029083223 -0.008749659 -0.09834381 -0.048527423
-0.05392886 0.07690744 0.011489689 0.041197717 -0.014732078 0.065574065 0.05253348 -0.031696152
-0.012421433 0.014516806 0.016381009 0.060894024 0.027329555 -0.07629949 -0.025326632 -0.05066264
0.029428214 -0.033385977 -0.024888936 0.05843895 -0.08391718 -0.07691872 -0.031671442 -0.06476628
-0.043778557 0.09221094 -0.04037089 -0.08180942 -0.052035592 -0.0017483085 0.028908828 0.05417494
-0.052587464 0.008417266 -0.011731424 0.051342543 -0.03195422 0.09403738 -0.015996309 -0.002349399
0.091281906 -0.06721658 0.09970856 -0.038880754 0.003099176 -0.06096124 0.05476358 -0.05509022
-0.057054766 -0.03896362 -0.0793046 -0.07931246 -0.0843303 -0.05418268 -0.09192438 -0.08203844
0.07903204 -0.029334523 -0.08350094 -0.073386274 -0.044536497 -0.049476855 0.086350575 -0.07666759
-0.057706233 0.09164955 0.05436178 0.008786209 0.024961555 -0.03483131 -0.007531055 -0.05803037
-0.048959795 -0.023205524 -0.08322319 0.023160715 -0.07951133 0.005713981 -0.09616761 -0.016919065
0.06453304 -0.025588695 -0.031044113 0.032008283 -0.0654164 -0.07260127 -0.0033363597 0.038860735
-0.03765512 0.0622284 -0.04375338 -0.06822606 0.0077692256 -0.022664228 0.024232913 0.008608621
0.09804222 0.087610364 -0.08587578 0.02355655 0.049976785 -0.030743966 0.09398837 -0.04113995
0.0056114364 0.0048264423 -0.008983488 0.038730934 0.046358444 0.02581637 -0.07132052 0.074515544
0.029995132 0.086866476 -0.03260466 0.03125187 0.0032978673 0.0154645415 -0.08004855 -0.06832011

lstm.weight_hh_l1 f4 [512, 128]
00000000: 6887 75bd 17ab 5dbd 0116 b53d b834 243d
00000010: 4b8f b13a 2328 b23d 6c19 493b d03a 183b
00000020: a2af 2c3d ee70 abbc 5a2e dd39 5960 0f3d
00000030: e04a 08bc a141 b8bd 9b7e e53b 56a2 84bd
00000040: bb03 31bd 08b2 243c bd0e 67bd d818 913d
00000050: 823f 72bd 1582 7f3d 0257 97bd 9d25 923d
00000060: 2401 e23c b3f6 8bbc 4e8a 8a3d 96e5 783d
00000070: 0343 a43d 119c 433c 9a38 543d fa0a 143d
00000080: 4702 c03d 5057 83bd dc52 6e3d 897a 623d
00000090: a085 8fbd 93cd a63c 78cf a03c 1922 71bd
000000a0: dea1 37bd fac3 41bc 2825 3e3d 7f9e 0f3d
000000b0: b9c2 02bb 249e 343d 036d 8dbb a892 84bd
000000c0: 5e0e cabc c584 583d ef62 b4bd 11fd 883d
000000d0: 8664 77bd dd16 efbc ccce c43d 3288 7c3d
000000e0: e937 c5bc c6ee 4d3d 5b3c 6dbd 8635 d7bd
000000f0: 1f3d a03d ed18 c4bc 623a 99bd 8a67 b5bd
00000100: f386 6b3c eabb 213d 889d c7bd 2b0c 8dbd
00000110: 686c 83bb ced5 f23c 44ba 823d 136a 0dbd
00000120: 58a0 44bd b8d4 a83d d061 853d 5a31 acbc
00000130: f539 55bc 04dd be3d e6ab 533d 832e 22bc
00000140: 5253 943d 2db6 b3bd d57f a03c e141 dd3c
00000150: 523a 9a3d 699e 523c ccdf 8b3c 63df 70bd
00000160: 3c84 04bd 6553 b6bd fe72 7bbd 23c2 a23c
00000170: 2a60 cfbc fe30 44bd 4448 bb3d 2ef5 d53d
00000180: 213d ffbc 6680 373d 34ea 3e3b 0042 febc
00000190: 44ed 953c f2d0 afbc c2a0 7e3d b637 8fbd
000001a0: fa5e 453c 369b adbd 367f 92bd 4364 17bd
000001b0: d63b 6abd 1b7f a6bd d306 1b3d 6a24 a13c
000001c0: 8370 093d 33a0 babd d675 b4bd 19ab 5fbd
000001d0: 41a0 01bd f360 96bd ffe8 173d 3514 4c3b
000001e0: 0c54 a83c 5880 a2bd 8e55 4cbd 207a dbbb
000001f0: bbfe 5fbd 9250 773d e4c0 643b f28d aebd
00000200: cba0 553b f8e0 71bc 1b14 6abc 297a bf3c
00000210: 68ab 013b 1815 2abd dd2f 193c 77ac 21bd
00000220: 163a b7bd 723c 9d3c 1968 eabb e8d4 a23d
00000230: 9dbc b63d 69fe 7d3d a2dd 8b3d 27f5 c1bb
00000240: 6a42 88bd a443 c9bd 0b50 ea3c 7862 543d
00000250: 3e05 05bd 76d9 8cbc 4004 01bd cf6b 56bd
00000260: d848 c03c 5dc1 673d 7e97 3e3c 99a8 ce3c
00000270: dfbb 6f3d 4d71 3b39 71b7 c7bd 1662 4ebd
00000280: 7c1a 8cbc 1712 a3bd d45b c73d 7488 80bd
00000290: 2216 5abd bd8f 23bd 69fe fb39 b351 bbbd
000002a0: 7535 8b3d 9545 ab3d 66cc bc3d 5ddc 90bd
000002b0: 444e 21bd ee82 a73c 9e52 043b c882 88bb
000002c0: 3b40 143d dfe0 3fbd 6083 6a3d fca5 1dbd
000002d0: 5901 873b a836 b93c 6fdf d8bc ad65 033d
000002e0: b0bf 2a3d 66cd c0bd ac7a c2bd 0ea4 92ba
000002f0: 6804 3dbc 1962 a23c 2871 8abd 3a07 603d
00000300: 4a05 483c 8bc7 95bd fd53 b5bd 0a0a 97bd
00000310: 11be 28bd c7c2 93bd e4c6 c13d e548 013d
00000320: aca6 2fbd fe7e b43d bff3 91bd 205e f7bb
00000330: 2749 f53c df9a 3dbd 1d6b 87bc 41fe 83bb
00000340: de0b 3c3d 9a03 e8bb 42b7 8a3d 9b94 97bc
00000350: 792e 953d dbeb 993d 393d fdbc 59c2 c53d
00000360: 6307 053c 4a11 65bd b188 9cbd 4d66 2bbd
00000370: 8aad 34bd ef94 aa3d 591c 133d b006 ab3d
00000380: 4f07 663d fd25 79bc a956 b23c 9674 55bd
00000390: 561c a8bc 9306 40bd 6d7f 023b dfb4 07bd
000003a0: f3f9 21bd eb5b af3d 82b9 c4bc b1a2 e93c
000003b0: bf73 3cbd 37aa a1bc c0ff b43d 3b41 3c3d
000003c0: 1fb0 a4bd 8f9c 01bd 3fb3 9a3c 8e6c 81bc
000003d0: b5da 743d f213 853d 0752 1d3d d1de fa3b
000003e0: 33e3 2e3d b07c 2abb 386f ac3d 3e7f f7bc
000003f0: 8e0e 51bd ffc6 02bd 7ac3 973c becf 88bc
-0.059943587 -0.054118242 0.088420875 0.04008934 0.0013546733 0.08699062 0.0030685319 0.0023228414
0.042159684 -0.020927873 0.0004218694 0.035003994 -0.008318633 -0.08996893 0.007003618 -0.064762756
-0.04321645 0.010052212 -0.05641054 0.07084817 -0.059142597 0.062379915 -0.07389642 0.071360804
0.027588435 -0.017085409 0.06764661 0.060765825 0.08020594 0.011939065 0.051811792 0.03614328
0.09375434 -0.06413138 0.05818449 0.05529264 -0.07007909 0.020361697 0.019630179 -0.05887041
-0.044832103 -0.01182651 0.046422154 0.035063263 -0.001995249 0.044096127 -0.0043159737 -0.06473285
-0.024665054 0.052860994 -0.088079326 0.066888936 -0.0603986 -0.029185707 0.09609756 0.061653323
-0.024074512 0.05027654 -0.057918888 -0.10508256 0.07824158 -0.023937667 -0.07481839 -0.08857639
0.014375436 0.03948585 -0.097468436 -0.068870865 -0.0040107258 0.029642966 0.063831836 -0.03452499
-0.04800448 0.08243698 0.06512797 -0.021019626 -0.013014306 0.09319499 0.051677607 -0.009898785
0.072424546 -0.08774982 0.019592205 0.027008953 0.07530655 0.012855151 0.017074488 -0.05880679
-0.03235267 -0.08902625 -0.061388962 0.019867962 -0.02531441 -0.047898285 0.09144643 0.10447155
-0.031157078 0.044800185 0.0029131295 -0.03103733 0.018301614 -0.021461938 0.06216503 -0.06993048
0.01204657 -0.0847687 -0.0715317 -0.03696085 -0.05718597 -0.08129712 0.037848305 0.019670684
0.033554565 -0.09112587 -0.08811538 -0.05460653 -0.03164697 -0.0734271 0.037087437 0.0031139974
0.02054789 -0.07934636 -0.04988628 -0.006697908 -0.05468629 0.060379572 0.003490501 -0.08523168
0.003259706 -0.014763109 -0.01428702 0.02337368 0.0019786004 -0.041524023 0.00934979 -0.039471116
-0.08946626 0.019193862 -0.0071535227 0.07950765 0.08922694 0.062010203 0.068293825 -0.005919117
-0.066532925 -0.098273546 0.02860262 0.05185172 -0.032475702 -0.017193537 -0.031498194 -0.052348908
0.023472235 0.05658089 0.011632798 0.025226878 0.058528777 0.00017875918 -0.097517855 -0.05038651
-0.017102472 -0.07962435 0.09734312 -0.06276026 -0.053243764 -0.039932 0.00048064 -0.09146442
0.067973055 0.08362881 0.092186734 -0.07073281 -0.03938128 0.020448174 0.0020190845 -0.004165981
0.036194067 -0.046845313 0.057254195 -0.038488373 0.0041200337 0.02260907 -0.026473729 0.032079387
0.041686714 -0.09414177 -0.09496054 -0.0011187808 -0.011536695 0.019822167 -0.06759864 0.05469439
0.012208292 -0.073134504 -0.0885391 -0.07374962 -0.041196886 -0.07214885 0.094617635 0.03156366
-0.04288356 0.08813284 -0.07126569 -0.0075490624 0.029942108 -0.046290275 -0.016530568 -0.004028112
0.045909755 -0.0070805075 0.06773235 -0.018503478 0.072842546 0.07515689 -0.030912982 0.096562095
0.008119437 -0.05592469 -0.07643259 -0.04184561 -0.044110812 0.08329188 0.035915706 0.08350885
0.056159314 -0.015206811 0.021769838 -0.05211314 -0.020521324 -0.04688127 0.0019912377 -0.033131476
-0.03954501 0.08562454 -0.024014238 0.02851996 -0.04600882 -0.019734485 0.08837843 0.045960646
-0.08041405 -0.031643447 0.0188843 -0.015798833 0.059778888 0.06497945 0.038408305 0.0076559563
0.042697143 -0.002601426 0.08419651 -0.030212041 -0.05103927 -0.03192806 0.018525828 -0.016700622
