checkpoints/bpm_regressor.pt (torch, 954447 bytes, 17 tensors)

conv1d.0.weight f4 [64, 7, 3]
0.7497393 0.17579594 -0.096832864 -0.0068732654 0.092706576 0.21903558 -0.43757635 -0.030919664
0.078630544 -0.32131916 -0.026383324 -0.06855413 -0.3275492 0.33574513 -0.51387274 -0.066633895
0.34296814 0.3205221 -0.43620637 -0.11093223 -0.15514109 -0.045248013 0.23908348 0.35521507
0.14676537 -0.013498962 0.5516687 -0.14882056 -0.5519633 -0.45864218 -0.23994714 0.22780931
-0.33641928 -0.40949306 -0.1493479 -0.5651382 -0.17217416 0.060256828 -0.2667077 0.47831014
0.19383122 0.25644135 0.20853737 0.32644632 0.10223842 -0.33159074 0.27079144 -0.027085574
0.015191073 -0.31601653 -0.012892891 0.29702592 -0.12622988 -0.18991436 0.11031605 0.023367511
-0.007862307 -0.14430635 -0.26094243 0.012248807 -0.14296857 0.369963 0.15246639 0.28241616
-0.038903497 0.06098752 -0.25933933 -0.43115258 0.09925703 -0.37462988 0.23822664 -0.05116848
-0.35830435 -0.2635259 0.12341514 -0.6816746 -0.097249426 -0.21570404 -0.101261586 -0.42275178
-0.079789594 -0.27875325 -0.021400137 -0.2668196 0.0463913 -0.5484397 0.28828764 -0.24205652
-0.39512408 -0.22107519 -0.092918105 0.009824551 0.15674101 -0.17218184 -0.388789 0.65546554
-0.12679538 0.46456474 -0.02605084 0.07158713 0.16129324 -0.9205471 0.013084901 -0.11018361
0.4207449 -0.061825056 -0.22878624 0.14510705 0.10899616 -0.44756517 -0.6196293 -0.0016366212
-0.02423389 -0.14817671 0.12255355 -0.19925787 0.013684601 0.0071627996 -0.29743135 -0.0841072
0.35029367 -0.31072882 0.40000388 0.23075303 -0.28268406 0.6662896 0.23311785 -0.21998814
-0.04023947 0.18175314 0.26636925 0.10352722 0.38002446 -0.29526913 0.03924073 0.005419252
0.051679146 0.09742653 -0.052667264 -0.88155174 -0.14931293 -0.2125712 -0.46677038 0.3237772
0.3149713 0.010588555 -0.4406315 0.35208178 -0.09519968 -0.27756357 0.030776156 0.11729877
0.31052968 -0.05747966 0.057793785 0.07523352 -0.14752874 0.03686001 -0.049450625 -0.19134285
0.39549956 0.093286306 -0.23122282 0.32029745 0.1239557 0.008607927 -0.51938826 -0.14979587
0.14128941 0.7119761 -0.72446 -0.41665724 0.04385499 0.115454465 0.05713841 -0.43162483
-0.09577679 -0.30375037 0.41605613 0.064454086 0.13945298 -0.40808773 -0.06582965 0.23084274
-0.15505493 0.12758128 -0.7878401 -0.03017928 0.69008285 -0.033261586 -0.16347505 -0.09293773
-0.63449365 0.69415694 0.26198477 0.41805354 0.25111738 0.25824907 -0.5500711 0.16287121
0.18875127 0.4709809 0.34659156 0.2257113 -0.26188272 0.4003166 0.13651705 0.3113426
0.55527407 -0.17130372 0.49415368 -0.14507915 0.025678556 -0.11670087 0.6362599 -0.3526113
0.08680017 0.32122487 0.34542006 -0.15041156 0.26458502 0.11442774 0.12061449 -0.13642381
0.25947383 0.09532459 -0.121798106 -0.53479075 -0.31308848 0.06392956 -0.057978142 0.19204786
0.05221575 0.008429828 0.4462638 -0.31747043 0.2852602 -0.146276 -0.26674914 0.21551506
-0.01896171 0.13390636 0.19324775 0.40395164 0.26068297 0.31617975 -0.08792058 -0.115272656
-0.0041850433 0.14124058 -0.25931314 -0.65777844 -0.39334676 0.53658974 0.054758813 0.22398959
00000000: eaee 3f3f da03 343e 4f50 c6bd 2139 e1bb
00000010: f2dc bd3d dd4a 603e 020a e0be 3c4b fdbc
00000020: 0d09 a13d f283 a4be d721 d8bc 1c66 8cbd
00000030: 87b4 a7be c9e6 ab3e 2a8d 03bf 5a77 88bd
00000040: 8599 af3e 791b a43e 7156 dfbe 7030 e3bd
00000050: 4edd 1ebe fb55 39bd 4dd2 743e c0de b53e
00000060: a949 163e c02a 5dbc 293a 0d3f 6b64 18be
00000070: 784d 0dbf 26d3 eabe b4b4 75be d846 693e
00000080: 263f acbe 13a9 d1be a8ee 18be e6ac 10bf
00000090: 6c4e 30be ddcf 763d e98d 88be 11e5 f43e
000000a0: b17b 463e 484c 833e d28a 553e f923 a73e
000000b0: 6062 d13d 43c6 a9be 2da5 8a3e 91e2 ddbc
000000c0: fae3 783c ebcc a1be b43c 53bc c813 983e
000000d0: 6842 01be e978 42be 62ed e13d 396d bf3c
000000e0: e8d0 00bc 0bc5 13be 3f9a 85be 38af 483c
000000f0: 5a66 12be ca6b bd3e 2620 1c3e da98 903e
00000100: 4659 1fbd 0dce 793d 20c8 84be 08c0 dcbe
00000110: 4547 cb3d 7dcf bfbe aff1 733e 0a96 51bd
00000120: ab73 b7be deec 86be 14c1 fc3d 3a82 2ebf
00000130: b52a c7bd 85e1 5cbe 3c62 cfbd ec72 d8be
00000140: ba68 a3bd bfb8 8ebe 574f afbc 949c 88be
00000150: ce04 3e3d 8b66 0cbf 709a 933e aadd 77be
00000160: b44d cabe 8961 62be d94b bebd 27f7 203c
00000170: b780 203e 7050 30be 5a0f c7be 97cc 273f
00000180: a6d6 01be 6edb ed3e 9268 d5bc 469c 923d
00000190: 0e2a 253e faa8 6bbf 0d62 563c f2a7 e1bd
000001a0: e06b d73e 453c 7dbd f146 6abe f196 143e
000001b0: 6139 df3d 4327 e5be 07a0 1ebf e583 d6ba
000001c0: 2786 c6bc a3bb 17be 5bfd fa3d 410a 4cbe
000001d0: 6035 603c ebb5 ea3b ec48 98be 6540 acbd
000001e0: b159 b33e d917 9fbe 4fcd cc3e 864a 6c3e
000001f0: f7bb 90be f591 2a3f 72b6 6e3e 9244 61be
00000200: 24d2 24bd 7f1d 3a3e 8d61 883e 1406 d43d
00000210: 9192 c23e 842d 97be e3ba 203d fb93 b13b
00000220: 83ad 533d 9087 c73d a1b9 57bd 60ad 61bf
00000230: 7de5 18be 44ac 59be 87fc eebe 20c6 a53e
00000240: eb43 a13e 9e7b 2d3c 749a e1be 1044 b43e
00000250: 0df8 c2bd d01c 8ebe 471e fc3c 563a f03d
00000260: bffd 9e3e cb6f 6bbd 2db9 6c3d 0814 9a3d
00000270: c611 17be 86fa 163d bd8c 4abd 61ef 43be
00000280: eb7e ca3e e40c bf3d adc5 6cbe 07fe a33e
00000290: 7cdc fd3d 4308 0d3c a1f6 04bf 1764 19be
000002a0: 2cae 103e 1144 363f 3676 39bf 1954 d5be
000002b0: 4aa1 333d 6473 ec3d f709 6a3d eefd dcbe
000002c0: 9f26 c4bd 2b85 9bbe 4f05 d53e 8100 843d
000002d0: c3cc 0e3e e0f0 d0be b2d1 86bd 0a62 6c3e
000002e0: b8c6 1ebe aba4 023e e4af 49bf 8a3a f7bc
000002f0: 45a9 303f 4d3d 08bd 0166 27be 2356 bebd
00000300: 2d6e 22bf 45b4 313f de22 863e 1d0b d63e
00000310: 7592 803e 3939 843e 76d1 0cbf b6c7 263e
00000320: 0348 413e 6924 f13e 7374 b13e dd20 673e
00000330: 7e15 86be 4cf6 cc3e 20cb 0b3e 4c68 9f3e
00000340: 7126 0e3f 3e6a 2fbe b601 fd3e a18f 14be
00000350: d65b d23c de00 efbd eee1 223f 7889 b4be
00000360: 4ac4 b13d 9677 a43e e6da b03e 7d05 1abe
00000370: b077 873e 1759 ea3d bb04 f73d afb2 0bbe
00000380: c1d9 843e 8a39 c33d 4971 f9bd 0ce8 08bf
00000390: 224d a0be 80ed 823d 7d7a 6dbd 32a8 443e
000003a0: 2fe0 553d 431d 0a3c b07c e43e 7c8b a2be
000003b0: a00d 923e 60c9 15be 5893 88be fbaf 5c3e
000003c0: 9755 9bbc c01e 093e bde2 453e c0d2 ce3e
000003d0: 3d78 853e 50e2 a13e b40f b4bd 1214 ecbd
000003e0: b022 89bb 5fa1 103e b1c4 84be 2b64 28bf
000003f0: bf64 c9be f25d 093f c74a 603d 875d 653e

conv1d.0.bias f4 [64]
-0.010854314 0.0454453 0.0030497022 -0.028097805 -0.012624966 0.016221646 0.01972941 0.015963187
-0.01600569 -0.0032806844 0.011744219 -0.014338258 0.0067520565 0.017643075 0.003986856 -0.023701351
-0.019791547 -0.012303442 0.0014803841 -0.010514435 -0.007587043 -0.02295086 0.00705753 0.01642256
-0.025518093 0.013063008 0.027566079 -0.018136108 -0.023538958 0.024199272 0.018339518 0.0037944308
0.023248384 0.015978806 -0.024992151 0.018905347 -0.016092235 -0.0127088055 0.021609157 0.023799198
0.02993392 -0.0036521622 0.007983488 0.017948596 -0.0001708758 -0.023073232 0.021557601 0.0048331944
0.016658772 0.01579752 -0.015889907 -0.0060116625 -0.01762704 0.009517488 -0.010571236 -0.011155473
-0.0054943077 0.018514458 0.004473667 -0.020670185 -0.045931816 0.0075772917 -0.0046831053 0.022490963
00000000: 4bd6 31bc da24 3a3d 83dd 473b 5e2d e6bc
00000010: f2d8 4ebc 42e3 843c 929f a13c 3bc5 823c
00000020: 5d1e 83bc c000 57bb d36a 403c 03eb 6abc
00000030: 5b40 dd3b 3688 903c 2ca4 823b 5629 c2bc
00000040: e221 a2bc 6094 49bc 7309 c23a bd44 2cbc
00000050: bb9c f8bb 7103 bcbc da42 e73b 9b88 863c
00000060: 520b d1bc 3a06 563c 42d2 e13c 2d92 94bc
00000070: c6d4 c0bc 8d3d c63c c23c 963c fcab 783b
00000080: 6573 be3c fce5 823c 57bc ccbc 63df 9a3c
00000090: ddd3 83bc 9838 50bc b005 b13c 89f6 c23c
000000a0: fb37 f53c 1d59 6fbb 2dcd 023c ef08 933c
000000b0: 202d 33b9 1304 bdbc 9199 b03c c65f 9e3b
000000c0: fa77 883c cd69 813c 8d2b 82bc 7bfd c4bb
000000d0: 9566 90bc 3def 1b3c fa32 2dbc 72c5 36bc
000000e0: 9809 b4bb a2ab 973c d797 923b 8554 a9bc
000000f0: 0023 3cbd ee4a f83b bc74 99bb f83e b83c

conv1d.4.weight f4 [64]
1.0051771 1.0092728 1.007136 0.99906373 1.0220433 1.0091285 1.0239905 1.0034277
1.0159265 1.0091136 1.0078629 1.0089078 1.0068737 1.004674 1.0017906 1.008778
1.0144224 1.0065235 1.0059298 1.0036963 1.0044963 1.010383 1.0108839 1.0061026
1.0039642 1.0046571 1.0043395 0.99857384 1.0037382 1.0119458 1.0162222 1.0388045
1.0047219 1.0082214 1.0086693 1.0085454 1.0018194 1.0051216 1.00474 0.99940145
1.00907 1.0145081 1.0029719 1.0429133 1.0129316 0.9979576 1.0019943 1.0054978
1.0139056 1.0062915 1.0095135 1.0085635 1.0030749 1.03067 1.0141904 1.0145954
1.0047433 1.0029505 1.0032204 1.0039687 1.0045016 1.0076565 1.0189246 1.0080138
00000000: a5a9 803f da2f 813f d5e9 803f a4c2 7f3f
00000010: 51d2 823f 1f2b 813f 1f12 833f 5270 803f
00000020: e109 823f a22a 813f a701 813f e423 813f
00000030: 3de1 803f 2899 803f ad3a 803f a31f 813f
00000040: 98d8 813f c3d5 803f 4fc2 803f 1f79 803f
00000050: 5693 803f 3b54 813f a564 813f f8c7 803f
00000060: e681 803f 9b98 803f 328e 803f 89a2 7f3f
00000070: 7e7a 803f 7187 813f 9213 823f 8cf7 843f
00000080: ba9a 803f 660d 813f 131c 813f 0418 813f
00000090: 9e3b 803f d3a7 803f 529b 803f c6d8 7f3f
000000a0: 3529 813f 67db 813f 6261 803f 2f7e 853f
000000b0: bea7 813f 267a 7f3f 5941 803f 27b4 803f
000000c0: a9c7 813f 29ce 803f bd37 813f 9c18 813f
000000d0: c264 803f ffec 833f fed0 813f 43de 813f
000000e0: 6e9b 803f af60 803f 8769 803f 0c82 803f
000000f0: 8293 803f e3fa 803f 1f6c 823f 9906 813f

conv1d.4.bias f4 [64]
-0.004038667 -0.0040573385 -0.0033598056 0.0025035853 0.003126801 0.0006401851 -0.005281525 -0.0030242763
-0.0030312892 -0.0041077486 0.002015798 -0.005654857 -0.005180987 -0.00021293767 -0.0015452058 -0.007852819
-0.003590455 0.0041917632 -0.0038326224 0.00287312 0.004314584 -0.0065205777 -0.0067125903 -0.0023772023
-0.0034530095 -0.0009620638 -0.0052319877 -0.0009903713 0.002507748 0.0075475946 -0.0059342585 0.00095703447
0.006385465 -0.007137383 -0.0067437766 0.0060080215 -7.985039e-05 0.0012398645 -0.0023904655 -1.7246632e-05
-0.0063457135 0.002948485 -0.0036765228 -0.0031926401 -0.004792491 -0.006715305 -0.0014164837 -0.0033416348
-0.000675835 0.004592288 -0.00728271 -0.007228478 0.0016497184 -0.0005083753 0.0056339796 0.0026728103
-0.006308207 0.004346931 0.0009283935 0.0016675902 -0.004155556 -0.007891545 0.0041498155 0.0070605376
00000000: cb56 84bb 6cf3 84bb 2f30 5cbb 3113 243b
00000010: 04eb 4c3b 18d2 273a a510 adbb f032 46bb
00000020: 98a8 46bb 4b9a 86bb 7a1b 043b 614c b9bb
00000030: 45c5 a9bb 0548 5fb9 8188 caba 1ca9 00bc
00000040: d74d 6bbb 0f5b 893b bc2c 7bbb f44a 3c3b
00000050: 5b61 8d3b 92aa d5bb 4af5 dbbb d6ca 1bbb
00000060: e34b 62bb 0233 7cba 1871 abbb 59cf 81ba
00000070: 0859 243b d051 f73b 2b74 c2bb 7fe1 7a3a
00000080: 2a3d d13b b5e0 e9bb e6fa dcbb f0de c43b
00000090: 5a75 a7b8 f382 a23a 5ba9 1cbb dcac 90b7
000000a0: b4ef cfbb 5f3b 413b d1f1 70bb 9d3b 51bb
000000b0: 540a 9dbb 100c dcbb 4ea9 b9ba 54ff 5abb
000000c0: 852a 31ba e77a 963b cda3 eebb dedc ecbb
000000d0: 5d3b d83a 7d44 05ba 3f9d b83b 512a 2f3b
000000e0: 13b5 cebb b370 8e3b 6f5f 733a 0b93 da3a
000000f0: 552b 88bb 8a4b 01bc 2dfb 873b 155c e73b

lstm.weight_ih_l0 f4 [512, 64]
0.020004947 0.046108287 0.0012219284 -0.0824199 0.07002941 -0.042967536 0.00206404 -0.006606436
0.05439924 0.049518973 0.11117644 0.05174307 -0.062936276 -0.020813154 -0.028534133 0.08643473
-0.09117806 0.0586041 -0.028191226 0.061899304 -0.019813411 -0.040132232 0.007772669 -0.08704514
0.022279466 0.01210717 -0.07578191 -0.068683125 -0.03891082 0.057827696 -0.079023495 0.04757349
-0.02535146 -0.011513811 0.0027616285 0.06596442 -0.10290349 -0.04883635 0.0030376278 -0.12073307
0.02059027 0.01676415 -0.02727323 0.0027103554 -0.04621826 0.044887826 -0.0026686033 -0.04014985
-0.09505483 -0.053983238 0.0057011927 -0.023551887 -0.07672035 0.041823223 -0.015525097 0.052660413
-0.09277293 0.04600227 0.028916463 0.018939408 -0.058833946 0.09377048 -0.044893242 0.076176226
0.025470477 -0.024830531 0.078087926 0.032581866 0.0009968979 -0.07037405 -0.03048924 -0.09785572
-0.11769703 -0.040894836 0.042640034 0.12328165 0.040734347 -0.034990482 -0.024004932 -0.058644406
-0.04825853 0.10202998 -0.08807469 0.11768437 -0.050719682 0.043017864 -0.040667843 0.06604642
-0.0033772187 -0.050124165 0.069531135 0.078728355 0.035320014 0.07063466 0.03825928 -0.040849417
0.11368832 -0.070633925 -0.09868103 -0.06664465 0.051039398 0.008235702 0.009605732 0.013415077
-0.07302958 -0.07662137 -0.0187635 -0.037314195 -0.050880015 0.06774741 0.09823693 0.041206125
0.0073070703 0.12025692 0.043271933 -0.08842498 -0.022394834 0.002928745 -0.02989052 0.057360217
0.027719343 -0.065299205 0.008405386 0.05949282 -0.007523211 -0.05595441 0.07931664 -0.0081345625
0.01387912 0.0077903923 -0.0955317 -0.022024557 0.096993096 -0.045133155 -0.08054215 -0.085065864
0.008965214 0.026479071 0.06204829 0.087959714 0.06314488 0.07962899 0.019590704 -0.022046387
0.0513777 0.07247705 -0.009249699 0.083098434 -0.016581416 -0.08753724 0.030912278 -0.023923969
-0.022482852 -0.028325913 -0.0020764307 0.015577026 0.064559504 0.05916707 -0.045799676 0.03717828
-0.05798189 -0.012498958 -0.08372887 -0.07439288 -0.06639257 0.08982835 0.0037942852 0.068531714
-0.050819334 -0.05789734 0.031961598 -0.0027462137 0.048178166 0.004215819 0.098497935 0.08324976
0.0034470775 -0.008472517 0.06730567 0.029744636 -0.048814636 0.014229519 -0.079996035 0.011939545
-0.08077639 -0.012167201 -0.06748965 0.08009454 0.10165732 -0.07701978 0.027500805 0.06630819
-0.0528965 0.04712145 0.0880349 -0.10923886 -0.015641445 -0.022108482 0.05107019 -0.07695952
0.067800954 -0.087803945 0.017203547 0.09106026 0.0050054677 0.0016251105 0.06953914 -0.01186664
0.0913559 0.041370843 -0.076979615 -0.06151952 0.005931729 0.019861653 -0.051647462 -0.060861
-0.03466905 0.057477757 -0.026557613 0.052948546 -0.021647364 -0.0753922 -0.0518356 0.07182493
0.04293777 -0.1015257 0.011714228 -0.015471994 -0.00036494317 -0.05959457 0.01465819 0.046594005
-0.07054854 0.052358784 -0.009773675 0.08104392 -0.09746457 -0.0031097098 0.02872559 0.02672145
-0.0787155 -0.033732813 0.05256555 -0.021263897 -0.012425348 0.06628002 -0.074578 -0.0020620849
0.08942197 0.0035480869 0.046248972 0.037741248 -0.04830235 -0.09247879 0.016646499 -0.03309265
00000000: 6ae1 a33c 0bdc 3c3d 1d29 a03a c4cb a8bd
00000010: 946b 8f3d bafe 2fbd d844 073b cd7a d8bb
00000020: bdd1 5e3d 68d4 4a3d 79b0 e33d 8bf0 533d
00000030: bce4 80bd 5980 aabc 6ac0 e9bc b104 b13d
00000040: 90bb babd da0a 703d 49f1 e6bc 208a 7d3d
00000050: bc4f a2bc b261 24bd e0b1 fe3b b944 b2bd
00000060: 6d83 b63c 275d 463c 8c33 9bbd bda9 8cbd
00000070: f460 1fbd bcdc 6c3d 12d7 a1bd 6bdc 423d
00000080: ddad cfbc 6ca4 3cbc 70fc 343b 5b18 873d
00000090: 11bf d2bd a008 48bd f012 473b e642 f7bd
000000a0: edac a83c f854 893c 1c6c dfbc 38a0 313b
000000b0: 5c4f 3dbd 4cdc 373d bce3 2ebb 2b74 24bd
000000c0: 1bac c2bd 871d 5dbd 12d1 ba3b e3ef c0bc
000000d0: 8f1f 9dbd d44e 2b3d fa5c 7ebc 72b2 573d
000000e0: bcff bdbd e06c 3c3d 38e2 ec3c d126 9b3c
000000f0: ddfb 70bd bd0a c03d fae1 37bd 4802 9c3d
00000100: 76a7 d03c 6669 cbbc 90ec 9f3d 9074 053d
00000110: 58aa 823a 4520 90bd 92c4 f9bc 9468 c8bd
00000120: 240b f1bd 5881 27bd 51a7 2e3d 177b fc3d
00000130: 0fd9 263d 2e52 0fbd fea5 c4bc 1e35 70bd
00000140: bdaa 45bd 18f5 d03d 8160 b4bd 8104 f13d
00000150: 71bf 4fbd 8033 303d 5393 26bd 5843 873d
00000160: 5454 5dbb ff4e 4dbd 5766 8e3d 553c a13d
00000170: b8ab 103d e8a8 903d c3b5 1c3d b851 27bd
00000180: 6cd5 e83d 85a8 90bd 4819 cabd fe7c 88bd
00000190: b00e 513d 0aef 063c 5c61 1d3c e9ca 5b3c
000001a0: 8890 95bd aaeb 9cbd e9b5 99bc c5d6 18bd
000001b0: 9067 50bd 27bf 8a3d 7230 c93d c1c7 283d
000001c0: 2670 ef3b 4349 f63d e93d 313d 2818 b5bd
000001d0: 5f75 b7bc 30f0 3f3b f7dc f4bc 8cf2 6a3d
000001e0: ad13 e33c 97bb 85bd beb6 093c beae 733d
000001f0: 4585 f6bb 7430 65bd c370 a23d d446 05bc
00000200: 4065 633c 8c46 ff3b 20a6 c3bd d86c b4bc
00000210: 51a4 c63d 8bdd 38bd 48f3 a4bd 0337 aebd
00000220: d5e2 123c a3ea d83c 5926 7e3d 3924 b43d
00000230: 1a52 813d 8614 a33d af7c a03c a09a b4bc
00000240: 6c71 523d d96e 943d 0d8c 17bc 832f aa3d
00000250: c0d5 87bc b946 b3bd bf3b fd3c 33fc c3bc
00000260: f52d b8bc bf0b e8bc ba14 08bb c836 7f3c
00000270: c637 843d 2b59 723d 7198 3bbd 4148 183d
00000280: 6b7e 6dbd 6ec8 4cbc 0b7a abbd 4b5b 98bd
00000290: d4f8 87bd edf7 b73d 8ba9 783b 5b5a 8c3d
000002a0: ef27 50bd c325 6dbd 2aea 023d d2f9 33bb
000002b0: 7856 453d da24 8a3b 49b9 c93d da7e aa3d
000002c0: 5de8 613b 50d0 0abc 8ed7 893d 06ab f33c
000002d0: dbf1 47bd ee22 693c f6d4 a3bd 159e 433c
000002e0: 186e a5bd f158 47bc 0338 8abd 9b08 a43d
000002f0: b731 d03d 8cbc 9dbd 5e49 e13c 97cc 873d
00000300: 00aa 58bd 6c02 413d a44b b43d a0b8 dfbd
00000310: 7d22 80bc d91c b5bc fa2e 513d f49c 9dbd
00000320: 3adb 8a3d 8ed2 b3bd 74ee 8c3c cd7d ba3d
00000330: e804 a43b a901 d53a 896a 8e3d 4c6c 42bc
00000340: cd18 bb3d 7974 293d 7da7 9dbd e4fb 7bbd
00000350: f35e c23b e8b4 a23c 4a8c 53bd 6249 79bd
00000360: 2201 0ebd cc6d 6b3d 5a8f d9bc 93e0 583d
00000370: d055 b1bc 3a67 9abd 9151 54bd f318 933d
00000380: 84df 2f3d b5ec cfbd 09ed 3f3c 3f7e 7dbc
00000390: d855 bfb9 7019 74bd e828 703c 5bd9 3e3d
000003a0: c17b 90bd 2a76 563d c421 20bc 5bfa a53d
000003b0: 819b c7bd 46cc 4bbb ee51 eb3c f1e6 da3c
000003c0: 9835 a1bd 6b2b 0abd f94e 573d a031 aebc
000003d0: b093 4bbc d2bd 873d 5abc 98bd 0b24 07bb
000003e0: de22 b73d 0587 683b 906f 3d3d 9196 1a3d
000003f0: afd8 45bd 8565 bdbd 3d5e 883c 298c 07bd

lstm.weight_hh_l0 f4 [512, 128]
0.035825167 0.02062268 -0.08365279 -0.047668487 -0.013790592 0.09012851 0.013495227 0.09097992
-0.03446941 0.05449637 -0.03473326 0.08466459 -0.06257378 0.063495606 -0.08234516 -0.08728985
0.03618797 -0.04184112 0.075043514 -0.043007646 -0.03295843 0.08117656 0.06812848 -0.08355416
-0.0917926 0.04053843 -0.036701363 -0.07312934 0.08778857 -0.007770469 -0.053380758 0.04624118
-0.025176058 0.0015012566 -0.055431124 0.0067679053 -0.053297505 0.0032950593 -0.08008859 0.050482363
-0.034767687 -0.018722763 0.032850727 -0.017689297 0.09946965 0.03729978 -0.01498647 -0.07492959
-0.09015084 -0.06197215 -0.009957708 -0.044642277 -0.016971773 -0.07435434 -0.070413984 -0.032976285
0.014717308 0.030676294 0.103376344 0.06581739 0.021026438 -0.018492607 -0.04334791 0.038850073
-0.0506205 -0.035921745 0.043684583 0.059792113 0.056273557 -0.08243257 -0.051306423 -0.074667536
0.07893168 -0.056293815 -0.08651047 -0.0914874 0.04751207 0.066549405 0.049245853 0.0056685437
-0.060795665 -0.00084393984 0.06461057 -0.016220136 -0.0067311972 0.014099212 0.052641757 -0.051954273
-0.030961528 -0.07794707 0.032180816 -0.05603707 -0.0020086116 -0.0046070484 -0.07875802 -0.031525396
0.036211934 0.047832396 0.07145305 -0.06907758 0.04549606 0.08726333 0.03058473 -0.05764283
0.04170997 -0.074763425 -0.013425078 0.005797331 -0.10438945 0.052471273 -0.02377351 -0.030103311
0.022268461 -0.02351385 -0.068254046 0.071381286 -0.095828556 0.04658122 0.07100112 -0.018955905
0.06957055 0.0578811 0.055647172 0.07670665 0.085692294 -0.008774423 0.05941356 0.00069947063
-0.02614689 -0.0441327 -0.08147428 0.019718723 -0.030735852 -0.05404696 -0.036296036 -0.022707397
-0.026998097 0.020472724 0.00903315 0.002155265 -0.06630608 0.0846647 0.0017267098 -0.026461579
0.029858658 0.0651546 0.12919798 -0.07156633 0.009885938 0.044685587 0.11020924 0.046530977
0.07634254 0.017697267 0.1029211 -0.11857194 -0.018621342 -2.4341669e-05 -0.083467975 0.11534728
-0.10097341 0.04361529 0.119468145 0.028009528 -0.027761849 0.020208176 0.046732068 0.093048096
-0.07011457 -0.023948697 0.0380816 -0.016686564 0.13341615 -0.008101133 0.0006117544 0.05243566
0.11966888 -0.04827569 0.05641437 0.061208297 -0.10888193 -0.002578225 -0.08434613 0.095370375
-0.05752496 -0.051064055 -0.02878247 0.04824027 -0.060408287 0.1108238 -0.0015374181 -0.0091948
0.038980268 -0.05385163 0.07787445 0.05248158 -0.02524044 0.1291079 0.00012792532 -0.011052191
-0.1195699 -0.032981236 -0.047630727 -0.031057248 -0.010494821 0.06199011 -0.078950085 0.05507365
-0.057125118 0.035829082 0.023589404 -0.06686357 -0.03842312 -0.05865409 0.07542776 0.048147704
-0.0166369 0.124031715 0.0677263 -0.067128316 -0.01608746 -0.09376176 0.069018066 -0.014706213
-0.055249367 -0.09963121 -0.09226262 -0.07453165 -0.030484812 0.014808005 -0.05591285 0.01774817
-0.051547322 0.102398455 -0.053125508 -0.013609407 -0.10791394 -0.08281579 -0.050397202 0.03359845
0.023935053 0.08166048 0.089453444 -0.02999106 0.10081563 0.029737586 -0.06523769 0.05862102
0.010650712 -0.06314697 0.12269801 -0.025256407 0.11171999 0.019610139 -0.0374709 0.038576014
00000000: 69bd 123d e5f0 a83c 2752 abbd 0840 43bd
00000010: eff1 61bc 4c95 b83d 161b 5d3c ae53 ba3d
00000020: cc2f 0dbd 9637 5f3d 7644 0ebd a164 ad3d
00000030: af26 80bd fc09 823d 94a4 a8bd 05c5 b2bd
00000040: d639 143d 9861 2bbd 6ab0 993d c928 30bd
00000050: 6bff 06bd e53f a63d f286 8b3d 721e abbd
00000060: c2fd bbbd a00b 263d 2b54 16bd d6c4 95bd
00000070: 7eca b33d 6b9f febb c8a5 5abd 6467 3d3d
00000080: 053e cebc d0c5 c43a bf0b 63bd 4ec5 dd3b
00000090: 7c4e 5abd ecf1 573b 7d05 a4bd 98c6 4e3d
000000a0: 9068 0ebd 7b60 99bc 7c8e 063d 25e9 90bc
000000b0: beb6 cb3d a7c7 183d d089 75bc af74 99bd
000000c0: 01a1 b8bd 82d6 7dbd a825 23bc d2da 36bd
000000d0: 6308 8bbc 1747 98bd 3535 90bd 2412 07bd
000000e0: dd20 713c da4c fb3c fab6 d33d 45cb 863d
000000f0: a33f ac3c cf7d 97bc 948d 31bd 4121 1f3d
00000100: 7157 4fbd ae22 13bd 9bee 323d 93e8 743d
00000110: 1a7f 663d 68d2 a8bd af26 52bd 4beb 98bd
00000120: efa6 a13d 5894 66bd 672c b1bd bf5d bbbd
00000130: 049c 423d 0e4b 883d 05b6 493d 31bf b93b
00000140: e004 79bd d83b 5dba 8c52 843d 17e0 84bc
00000150: 6091 dcbb 6200 673c e29e 573d 01ce 54bd
00000160: 08a3 fdbc b7a2 9fbd 08d0 033d 2087 65bd
00000170: e9a2 03bb b9f6 96bb e34b a1bd c620 01bd
00000180: f752 143d e7eb 433d fa55 923d 8c78 8dbd
00000190: 145a 3a3d 1eb7 b23d d48c fa3c e31a 6cbd
000001a0: 13d8 2a3d 911d 99bd dcf4 5bbc 8af7 bd3b
000001b0: 23ca d5bd 1eec 563d aac0 c2bc 389b f6bc
000001c0: 596c b63c 1ea0 c0bc c7c8 8bbd 5a30 923d
000001d0: c341 c4bd f3cb 3e3d 0969 913d 6a49 9bbc
000001e0: 017b 8e3d bb14 6d3d 4aee 633d 6018 9d3d
000001f0: 717f af3d 99c2 0fbc a25b 733d ae5c 373a
00000200: 0132 d6bc 7dc4 34bd fddb a6bd 2989 a13c
00000210: c1c9 fbbc 5860 5dbd 27ab 14bd dd04 babc
00000220: 1d2b ddbc 6ab6 a73c c7ff 133c 593f 0d3b
00000230: 7bcb 87bd b064 ad3d c452 e23a f4c5 d8bc
00000240: 259a f43c c66f 853d 7a4c 043e 5e91 92bd
00000250: a1f8 213c 3c08 373d 62b5 e13d 4497 3e3d
00000260: 7a59 9c3d dcf9 903c 4cc8 d23d d8d5 f2bd
00000270: c98b 98bc 5631 ccb7 42f1 aabd 323b ec3d
00000280: 26cb cebd f2a5 323d b7ab f43d 3d74 e53c
00000290: d16c e3bc 9e8b a53c 206a 3f3d 0090 be3d
000002a0: 3a98 8fbd 0f30 c4bc 74fb 1b3d 43b2 88bc
000002b0: 3e9e 083e 9dba 04bc 255e 203a c6c6 563d
000002c0: f514 f53d bbbc 45bd c112 673d 8db5 7a3d
000002d0: 7dfd debd 70f7 28bb aabd acbd 8b51 c33d
000002e0: 4b9f 6bbd 8b28 51bd 37c9 ebbc 9797 453d
000002f0: ae6e 77bd 97f7 e23d 3183 c9ba c9a5 16bc
00000300: c6a9 1f3d 8793 5cbd a47c 9f3d edf6 563d
00000310: 0ac5 cebc dd34 043e b123 0639 4014 35bc
00000320: 10e1 f4bd 5517 07bd 7018 43bd c56b febc
00000330: 78f2 2bbc 57e9 7d3d 95b0 a1bd e894 613d
00000340: 07fc 69bd 84c1 123d 913e c13c c4ef 88bd
00000350: 9061 1dbd 453f 70bd df79 9a3d 8736 453d
00000360: 1c4a 88bc 5704 fe3d 16b4 8a3d 927a 89bd
00000370: d9c9 83bc 2a06 c0bd 5859 8d3d 54f2 70bc
00000380: 294d 62bd 730b ccbd 2ff4 bcbd 0da4 98bd
00000390: 49bb f9bc 469d 723c df04 65bd 9c64 913c
000003a0: 4923 53bd 48b6 d13d 229a 59bd fdf9 5ebc
000003b0: fc01 ddbd 539b a9bd 4c6d 4ebd 879e 093d
000003c0: 7213 c43c 9c3d a73d 5e33 b73d d0af f5bc
000003d0: 6d78 ce3d 3d9c f33c 579b 85bd 981c 703d
000003e0: 5380 2e3c 3353 81bd 1849 fb3d 86e6 cebc
000003f0: 73cd e43d 71a5 a03c 167b 19bd e201 1e3d

lstm.bias_ih_l0 f4 [512]
0.004113307 0.020462217 0.0048739566 0.0099726925 0.008166901 0.0034875616 0.006059711 0.010028747
0.0136946095 0.004778161 0.012937375 0.013179956 0.0019152333 0.0009927787 0.0057502007 0.0077199987
-0.0034273881 0.005756131 0.00672332 0.0065584844 0.0022459673 0.0015744104 0.0049027666 0.018470263
0.0020021347 0.006124647 0.0037634668 0.0058521573 -0.004973982 0.0011957543 0.0051586735 0.004823196
0.004646284 0.002596653 0.004491018 0.027691664 -0.0027542762 0.0093917 0.0064687394 0.0048803324
0.0028302737 0.0013500057 0.009582641 -0.0014554816 0.010102141 0.014672725 0.0066149887 0.02047647
0.0053342516 0.006952931 0.00081447966 0.0018554593 -9.025318e-05 -0.00043004824 0.010789118 0.019906925
0.0066066263 0.01334611 0.0003786951 0.0030598287 0.0047225244 0.0062058833 0.016978094 0.011307891
0.00401112 0.0032060414 0.006445977 0.008760455 0.005509596 0.012684083 0.0047715628 0.0018300129
0.00641898 0.0012426786 0.0018883812 0.0035528296 0.0011532936 0.019687803 0.013414975 0.020190347
0.01788667 0.011449656 0.0058981283 0.014394621 0.00042833242 0.0024690214 0.003952741 0.012879452
0.0038659081 -0.0009337259 0.0051717116 0.004199986 0.0023008843 0.007026704 0.002113298 0.0017758631
0.0019206085 0.005774257 0.00599725 0.0069348267 0.020072497 0.012393958 0.005156803 0.013823142
0.0058449963 -0.00022022869 0.006725017 0.009975798 0.024870658 -0.0005682512 -0.0012694155 0.0058125267
0.03475679 0.01146575 0.01577979 0.004167779 0.026625393 -0.00414909 0.018906044 0.0014494694
0.00047034136 0.028703818 0.004824068 0.0067803166 0.0060889246 0.019190839 0.009410682 0.003528433
0.004807501 0.011039832 0.006143763 0.0130168935 0.010629375 0.004133244 0.006799893 0.014468872
0.012175051 0.0061419304 0.014819912 0.015211674 0.006823462 0.00090330816 0.007140139 0.0072351717
0.014907249 0.01679279 0.009629797 0.007032712 0.0047295326 0.0008893216 0.008934176 0.015807236
0.008719039 0.0052760043 0.004589379 0.006330626 -0.0016809958 0.0065324125 0.00725853 0.0044181705
0.007035917 0.0033954752 0.004994879 0.010934184 0.001804288 0.011382236 0.0061401827 0.0040561105
0.0030180104 0.0031384407 0.010588206 -0.0021307992 0.012367253 0.02648985 0.008053779 0.015901953
0.004196112 0.0070676487 0.002435623 0.0036067932 4.778504e-05 -0.00066360465 0.014187543 0.01837563
0.004144264 0.0080189565 0.0005364091 0.0040456094 0.0046123965 0.0057942723 0.0081939595 0.01792802
0.006693708 0.0020752242 0.01233651 0.007442767 0.007894557 0.013549592 0.003285633 0.0048708813
0.005590582 0.0016473011 0.004805397 0.0060911286 0.0029192232 0.014319928 0.021468028 0.019003984
0.008120231 0.008589379 0.005671948 0.021688042 0.000744715 0.0048200972 0.0041321763 0.015493741
0.0035827013 -0.0013905237 0.0044589136 0.0051260195 0.0027071764 0.008265661 -0.0009963274 0.0017000738
0.0036644402 0.006470049 0.008207393 0.008271122 0.014610383 0.01372955 0.006759737 0.009634481
0.008387107 -3.66502e-05 0.009501781 0.008606338 0.016857216 0.0018374175 -0.0007284425 0.006933022
0.028319933 0.013232948 0.023311635 0.0046397047 0.036445744 -0.0021971476 0.013422659 0.007449007
0.00016519989 0.022726381 0.005805149 0.008926426 0.00758257 0.011356325 0.007994775 0.0047009387
00000000: ecc8 863b 61a0 a73c b6b5 9f3b 8164 233c
00000010: 77ce 053c 938f 643b 8a90 c63b 9d4f 243c
00000020: 5b5f 603c 1f92 9c3b 49f7 533c bef0 573c
00000030: 9108 fb3a 2020 823a 2e6c bc3b 0bf8 fc3b
00000040: 089e 60bb ed9d bc3b 4c4f dc3b 8ee8 d63b
00000050: 1431 133b 725c ce3a 63a7 a03b f34e 973c
00000060: 3f36 033b 43b1 c83b 7fa4 763b 74c3 bf3b
00000070: c9fc a2bb dbba 9c3a 170a a93b e70b 9e3b
00000080: db3f 983b 9c2c 2a3b 6429 933b a1d9 e23c
00000090: 1681 34bb a5df 193c b8f7 d33b 32eb 9f3b
000000a0: 1d7c 393b adf2 b03a 8200 1d3c dcc5 beba
000000b0: 7383 253c df65 703c 8cc2 d83b 45be a73c
000000c0: f2ca ae3b 6ad5 e33b ce82 553a e232 f33a
000000d0: 4f46 bdb8 1978 e1b9 d7c4 303c d913 a33c
000000e0: 667c d83b a4a9 5a3c 998b c639 6887 483b
000000f0: 68bf 9a3b b95a cb3b a515 8b3c bc44 393c
00000100: b76f 833b 731c 523b c638 d33b 0388 0f3c
00000110: d789 b43b e6d0 4f3c c55a 9c3b 0bdd ef3a
00000120: 4f56 d23b 60e1 a23a 8f83 f73a 97d6 683b
00000130: 1d2a 973a 5148 a13c 7cca 5b3c 3a66 a53c
00000140: 1187 923c 5797 3b3c 1645 c13b 6bd7 6b3c
00000150: ce91 e039 4ecf 213b ff85 813b 5604 533c
00000160: 2d5b 7d3b 49c5 74ba 7677 a93b 09a0 893b
00000170: 6fca 163b 4440 e63b 427f 0a3b 14c4 e83a
00000180: edbc fb3a fa35 bd3b 9484 c43b 8b3d e33b
00000190: 146f a43c 0710 4b3c 66fa a83b 767a 623c
000001a0: 6287 bf3b 30ed 66b9 885d dc3b 8871 233c
000001b0: 8dbd cb3c b1f6 14ba 8462 a6ba 0277 be3b
000001c0: 235d 0e3d d7da 3b3c 9e44 813c dd91 883b
000001d0: 7f1d da3c 17f5 87bb d9e0 9a3c 1ffc bd3a
000001e0: 2698 f639 4524 eb3c 3713 9e3b 6b2d de3b
000001f0: 9a85 c73b 1b36 9d3c 432f 1a3c 483d 673b
00000200: 3e88 9d3b 69e0 343c 9f51 c93b cf44 553c
00000210: d526 2e3c 2a70 873b a3d1 de3b d90e 6d3c
00000220: dd79 473c 3f42 c93b 37cf 723c 633a 793c
00000230: 5997 df3b fccb 6c3a d4f7 e93b 0515 ed3b
00000240: 893d 743c 0891 893c 4cc6 1d3c aa72 e63b
00000250: 32fa 9a3b 5d21 693a a660 123c 2d7e 813c
00000260: 4dda 0e3c 55e2 ac3b 8062 963b 2471 cf3b
00000270: dc54 dcba d90d d63b f6d8 ed3b 4dc6 903b
00000280: 8d8d e63b 9f86 5e3b 15ac a33b 4b25 333c
00000290: dc7d ec3a 8f7c 3a3c 9633 c93b 1fe9 843b
000002a0: d0c9 453b 4cae 4d3b 287a 2d3c e1a4 0bbb
000002b0: 05a0 4a3c 3e01 d93c fff3 033c d044 823c
000002c0: 8a7f 893b bc97 e73b f99e 1f3b f35f 6c3b
000002d0: cc6c 4838 c1f5 2dba de72 683c 7d88 963c
000002e0: 9bcc 873b f161 033c ce9d 0c3a 0891 843b
000002f0: 9623 973b e1dd bd3b f53f 063c c8dd 923c
00000300: e456 db3b 7c00 083b 131f 4a3c 74e2 f33b
00000310: 2c58 013c 1cff 5d3c c653 573b ea9b 9f3b
00000320: 3331 b73b 41ea d73a 9776 9d3b 1798 c73b
00000330: 7050 3f3b 229e 6a3c b8dd af3c 3eae 9b3c
00000340: b80a 053c 77ba 0c3c c0db b93b 1fab b13c
00000350: fa38 433a e8f1 9d3b 3567 873b 76d9 7d3c
00000360: c1cb 6a3b 3c42 b6ba 141c 923b 2bf8 a73b
00000370: e26a 313b b26c 073c 3397 82ba 03d5 de3a
00000380: 1b27 703b b402 d43b 4d78 063c 9a83 073c
00000390: 6360 6f3c e8f1 603c c980 dd3b f1d9 1d3c
000003a0: 146a 093c dab8 19b8 5cad 1b3c 9901 0d3c
000003b0: 2518 8a3c 80d5 f03a f3f4 3eba 672e e33b
000003c0: 34ff e73c 02cf 583c 0bf8 be3c aa08 983b
000003d0: 2248 153d 05fe 0fbb b6ea 5b3c cd16 f43b
000003e0: 8239 2d39 ad2c ba3c 1f39 be3b 2540 123c
000003f0: 3577 f83b e10f 3a3c 84fc 023c 550a 9a3b

lstm.bias_hh_l0 f4 [512]
0.004113307 0.020462217 0.0048739566 0.0099726925 0.008166901 0.0034875616 0.006059711 0.010028747
0.0136946095 0.004778161 0.012937375 0.013179956 0.0019152333 0.0009927787 0.0057502007 0.0077199987
-0.0034273881 0.005756131 0.00672332 0.0065584844 0.0022459673 0.0015744104 0.0049027666 0.018470263
0.0020021347 0.006124647 0.0037634668 0.0058521573 -0.004973982 0.0011957543 0.0051586735 0.004823196
0.004646284 0.002596653 0.004491018 0.027691664 -0.0027542762 0.0093917 0.0064687394 0.0048803324
0.0028302737 0.0013500057 0.009582641 -0.0014554816 0.010102141 0.014672725 0.0066149887 0.02047647
0.0053342516 0.006952931 0.00081447966 0.0018554593 -9.025318e-05 -0.00043004824 0.010789118 0.019906925
0.0066066263 0.01334611 0.0003786951 0.0030598287 0.0047225244 0.0062058833 0.016978094 0.011307891
0.00401112 0.0032060414 0.006445977 0.008760455 0.005509596 0.012684083 0.0047715628 0.0018300129
0.00641898 0.0012426786 0.0018883812 0.0035528296 0.0011532936 0.019687803 0.013414975 0.020190347
0.01788667 0.011449656 0.0058981283 0.014394621 0.00042833242 0.0024690214 0.003952741 0.012879452
0.0038659081 -0.0009337259 0.0051717116 0.004199986 0.0023008843 0.007026704 0.002113298 0.0017758631
0.0019206085 0.005774257 0.00599725 0.0069348267 0.020072497 0.012393958 0.005156803 0.013823142
0.0058449963 -0.00022022869 0.006725017 0.009975798 0.024870658 -0.0005682512 -0.0012694155 0.0058125267
0.03475679 0.01146575 0.01577979 0.004167779 0.026625393 -0.00414909 0.018906044 0.0014494694
0.00047034136 0.028703818 0.004824068 0.0067803166 0.0060889246 0.019190839 0.009410682 0.003528433
0.004807501 0.011039832 0.006143763 0.0130168935 0.010629375 0.004133244 0.006799893 0.014468872
0.012175051 0.0061419304 0.014819912 0.015211674 0.006823462 0.00090330816 0.007140139 0.0072351717
0.014907249 0.01679279 0.009629797 0.007032712 0.0047295326 0.0008893216 0.008934176 0.015807236
0.008719039 0.0052760043 0.004589379 0.006330626 -0.0016809958 0.0065324125 0.00725853 0.0044181705
0.007035917 0.0033954752 0.004994879 0.010934184 0.001804288 0.011382236 0.0061401827 0.0040561105
0.0030180104 0.0031384407 0.010588206 -0.0021307992 0.012367253 0.02648985 0.008053779 0.015901953
0.004196112 0.0070676487 0.002435623 0.0036067932 4.778504e-05 -0.00066360465 0.014187543 0.01837563
0.004144264 0.0080189565 0.0005364091 0.0040456094 0.0046123965 0.0057942723 0.0081939595 0.01792802
0.006693708 0.0020752242 0.01233651 0.007442767 0.007894557 0.013549592 0.003285633 0.0048708813
0.005590582 0.0016473011 0.004805397 0.0060911286 0.0029192232 0.014319928 0.021468028 0.019003984
0.008120231 0.008589379 0.005671948 0.021688042 0.000744715 0.0048200972 0.0041321763 0.015493741
0.0035827013 -0.0013905237 0.0044589136 0.0051260195 0.0027071764 0.008265661 -0.0009963274 0.0017000738
0.0036644402 0.006470049 0.008207393 0.008271122 0.014610383 0.01372955 0.006759737 0.009634481
0.008387107 -3.66502e-05 0.009501781 0.008606338 0.016857216 0.0018374175 -0.0007284425 0.006933022
0.028319933 0.013232948 0.023311635 0.0046397047 0.036445744 -0.0021971476 0.013422659 0.007449007
0.00016519989 0.022726381 0.005805149 0.008926426 0.00758257 0.011356325 0.007994775 0.0047009387
00000000: ecc8 863b 61a0 a73c b6b5 9f3b 8164 233c
00000010: 77ce 053c 938f 643b 8a90 c63b 9d4f 243c
00000020: 5b5f 603c 1f92 9c3b 49f7 533c bef0 573c
00000030: 9108 fb3a 2020 823a 2e6c bc3b 0bf8 fc3b
00000040: 089e 60bb ed9d bc3b 4c4f dc3b 8ee8 d63b
00000050: 1431 133b 725c ce3a 63a7 a03b f34e 973c
00000060: 3f36 033b 43b1 c83b 7fa4 763b 74c3 bf3b
00000070: c9fc a2bb dbba 9c3a 170a a93b e70b 9e3b
00000080: db3f 983b 9c2c 2a3b 6429 933b a1d9 e23c
00000090: 1681 34bb a5df 193c b8f7 d33b 32eb 9f3b
000000a0: 1d7c 393b adf2 b03a 8200 1d3c dcc5 beba
000000b0: 7383 253c df65 703c 8cc2 d83b 45be a73c
000000c0: f2ca ae3b 6ad5 e33b ce82 553a e232 f33a
000000d0: 4f46 bdb8 1978 e1b9 d7c4 303c d913 a33c
000000e0: 667c d83b a4a9 5a3c 998b c639 6887 483b
000000f0: 68bf 9a3b b95a cb3b a515 8b3c bc44 393c
00000100: b76f 833b 731c 523b c638 d33b 0388 0f3c
00000110: d789 b43b e6d0 4f3c c55a 9c3b 0bdd ef3a
00000120: 4f56 d23b 60e1 a23a 8f83 f73a 97d6 683b
00000130: 1d2a 973a 5148 a13c 7cca 5b3c 3a66 a53c
00000140: 1187 923c 5797 3b3c 1645 c13b 6bd7 6b3c
00000150: ce91 e039 4ecf 213b ff85 813b 5604 533c
00000160: 2d5b 7d3b 49c5 74ba 7677 a93b 09a0 893b
00000170: 6fca 163b 4440 e63b 427f 0a3b 14c4 e83a
00000180: edbc fb3a fa35 bd3b 9484 c43b 8b3d e33b
00000190: 146f a43c 0710 4b3c 66fa a83b 767a 623c
000001a0: 6287 bf3b 30ed 66b9 885d dc3b 8871 233c
000001b0: 8dbd cb3c b1f6 14ba 8462 a6ba 0277 be3b
000001c0: 235d 0e3d d7da 3b3c 9e44 813c dd91 883b
000001d0: 7f1d da3c 17f5 87bb d9e0 9a3c 1ffc bd3a
000001e0: 2698 f639 4524 eb3c 3713 9e3b 6b2d de3b
000001f0: 9a85 c73b 1b36 9d3c 432f 1a3c 483d 673b
00000200: 3e88 9d3b 69e0 343c 9f51 c93b cf44 553c
00000210: d526 2e3c 2a70 873b a3d1 de3b d90e 6d3c
00000220: dd79 473c 3f42 c93b 37cf 723c 633a 793c
00000230: 5997 df3b fccb 6c3a d4f7 e93b 0515 ed3b
00000240: 893d 743c 0891 893c 4cc6 1d3c aa72 e63b
00000250: 32fa 9a3b 5d21 693a a660 123c 2d7e 813c
00000260: 4dda 0e3c 55e2 ac3b 8062 963b 2471 cf3b
00000270: dc54 dcba d90d d63b f6d8 ed3b 4dc6 903b
00000280: 8d8d e63b 9f86 5e3b 15ac a33b 4b25 333c
00000290: dc7d ec3a 8f7c 3a3c 9633 c93b 1fe9 843b
000002a0: d0c9 453b 4cae 4d3b 287a 2d3c e1a4 0bbb
000002b0: 05a0 4a3c 3e01 d93c fff3 033c d044 823c
000002c0: 8a7f 893b bc97 e73b f99e 1f3b f35f 6c3b
000002d0: cc6c 4838 c1f5 2dba de72 683c 7d88 963c
000002e0: 9bcc 873b f161 033c ce9d 0c3a 0891 843b
000002f0: 9623 973b e1dd bd3b f53f 063c c8dd 923c
00000300: e456 db3b 7c00 083b 131f 4a3c 74e2 f33b
00000310: 2c58 013c 1cff 5d3c c653 573b ea9b 9f3b
00000320: 3331 b73b 41ea d73a 9776 9d3b 1798 c73b
00000330: 7050 3f3b 229e 6a3c b8dd af3c 3eae 9b3c
00000340: b80a 053c 77ba 0c3c c0db b93b 1fab b13c
00000350: fa38 433a e8f1 9d3b 3567 873b 76d9 7d3c
00000360: c1cb 6a3b 3c42 b6ba 141c 923b 2bf8 a73b
00000370: e26a 313b b26c 073c 3397 82ba 03d5 de3a
00000380: 1b27 703b b402 d43b 4d78 063c 9a83 073c
00000390: 6360 6f3c e8f1 603c c980 dd3b f1d9 1d3c
000003a0: 146a 093c dab8 19b8 5cad 1b3c 9901 0d3c
000003b0: 2518 8a3c 80d5 f03a f3f4 3eba 672e e33b
000003c0: 34ff e73c 02cf 583c 0bf8 be3c aa08 983b
000003d0: 2248 153d 05fe 0fbb b6ea 5b3c cd16 f43b
000003e0: 8239 2d39 ad2c ba3c 1f39 be3b 2540 123c
000003f0: 3577 f83b e10f 3a3c 84fc 023c 550a 9a3b

lstm.weight_ih_l1 f4 [512, 128]
0.0041187713 0.061582033 -0.10199954 0.04027948 0.0535692 -0.1146021 -0.009853928 -0.037340496
-0.026475705 0.057236757 -0.06088182 0.04228654 -0.08678824 -0.050993595 0.019728689 -0.047195565
-0.05865623 -0.071681045 -0.0051829307 -0.0051875683 -0.016966581 0.07016688 -0.05084145 -0.06613656
0.10939926 0.06368467 -0.07006148 -0.06118568 -0.0325568 -0.08479435 -0.022530759 -0.030692503
0.019009784 0.07162584 -0.06578535 0.0542096 0.07071941 -0.108208425 0.014848762 0.07777503
0.048521124 -0.07179532 -0.06519309 0.021488748 -0.036922336 -0.11088109 0.06016766 -0.011892683
-0.040127803 -0.11628542 0.050006676 -0.00253788 0.051633157 0.046511583 0.043427955 -0.08072453
-0.060737126 0.029331513 0.009396541 -0.0025825955 0.06706029 -0.0069885845 0.057481486 0.04866468
0.056262825 -0.09712336 -0.047951635 0.027820224 -0.11757902 -0.06795833 0.08140058 -0.069627136
0.065537125 0.055845592 0.017236326 -0.056570206 -0.07316163 0.07099664 -0.039028443 0.030365495
-0.0719861 -0.051996246 -0.032440856 0.04836214 -0.04888583 -0.03443024 0.054835163 -0.064695984
0.056778945 0.09401452 0.055728655 0.115699925 -0.077511005 0.03370794 -0.09206482 0.055850975
0.011120076 -0.036025193 -0.024506215 0.0062262802 -0.026704835 -0.060676225 -0.05942296 0.11470687
-0.022639867 -0.011566123 -0.022354338 -0.012808292 0.041509464 0.018236525 -0.03273976 0.11820838
-0.105368234 0.11028786 -0.06522146 -0.0048653786 -0.023901753 0.049289342 -0.008982105 0.0033508162
-0.09867719 -0.066987365 -0.003435294 0.05991291 -0.054137684 -0.005010167 0.041013397 -0.11117829
-0.013792154 0.048652068 0.03984828 0.03132957 -0.06485086 -0.09167868 -0.037455242 0.05761497
0.019161476 -0.04001538 0.096328825 0.026747234 -0.0115507115 -0.029969238 -0.05811644 0.0018993132
0.07539118 0.046147592 0.09724738 0.0374206 0.059091352 -0.09979404 0.05651148 0.070472166
-0.056475323 0.060338978 -0.020340743 0.016412364 0.05748828 0.055520788 0.06651964 0.056299992
-0.0866835 0.046691176 -0.04319382 -0.012630611 0.07812624 -0.036460377 0.037054535 -0.07044055
-0.0665704 -0.016763136 0.02460482 0.09551875 0.03706762 -0.04225671 -0.07513729 -0.10411985
-0.07305441 -0.02990092 -0.070554785 -0.08697043 -0.035368413 0.030755188 0.0070865266 -0.04056832
0.08732693 -0.010893368 -0.020019403 0.014092844 0.07835226 -0.07002402 0.0076075867 0.0513158
0.06562807 0.008422594 -0.056513824 -0.072456345 -0.031125689 0.02907306 0.05528532 0.060368396
-0.108731076 0.0230604 -0.06756645 -0.020297261 -0.0049309414 -0.05538538 0.029068884 0.0664379
0.039527763 -0.073698096 0.07669542 -0.041246377 0.09407566 -0.09124713 0.09778178 -0.01898854
-0.057314783 -0.009037579 0.036390685 0.050228678 0.025670996 0.072689265 0.043352425 -0.035362843
-0.000552848 -0.09946392 -0.10109065 -0.03946402 0.09069577 0.0153389685 0.06492621 0.08543489
-0.019829957 -0.06901816 0.01372333 0.045468893 -0.06333286 -0.07199362 -0.034571126 -0.041665785
0.013796946 -0.052615397 0.042202637 -0.08445769 0.022881007 0.072032645 -0.048312597 0.06762474
0.042933367 0.09034475 -0.057966 0.079706766 -0.035916492 -0.031235347 -0.06852073 -0.10627332
00000000: c2f6 863b 713d 7c3d 23e5 d0bd 19fc 243d
00000010: 616b 5b3d 81b4 eabd 5f72 21bc 59f2 18bd
00000020: 94e3 d8bc 1771 6a3d 375f 79bd a734 2d3d
00000030: 08be b1bd a9de 50bd 0f9e a13c 2350 41bd
00000040: 8441 70bd 83cd 92bd 93d5 a9bb 7afc a9bb
00000050: 80fd 8abc a7b3 8f3d 203f 50bd 9b72 87bd
00000060: b80c e03d 1c6d 823d 657c 8fbd d69d 7abd
00000070: 475a 05bd a9a8 adbd 6d92 b8bc d86e fbbc
00000080: 68ba 9b3c 92b0 923d 78ba 86bd e30a 5e3d
00000090: 57d5 903d 619c ddbd 3948 733c 8448 9f3d
000000a0: 16be 463d 6d09 93bd f483 85bd 2c09 b03c
000000b0: e03b 17bd a015 e3bd 5d72 763d 87d9 42bc
000000c0: 0d5d 24bd 0d27 eebd cdd3 4c3d 9052 26bb
000000d0: 4a7d 533d ee82 3e3d 83e1 313d e752 a5bd
000000e0: 7ec7 78bd a448 f03c f3f3 193c c340 29bb
000000f0: e856 893d 7f00 e5bb b571 6b3d 9e54 473d
00000100: d973 663d 9de8 c6bd ef68 44bd 3de7 e33c
00000110: 45cd f0bd bd2d 8bbd 59b5 a63d ac98 8ebd
00000120: 5438 863d 59be 643d 3233 8d3c 29b6 67bd
00000130: c4d5 95bd b066 913d 4adc 1fbd 0fc1 f83c
00000140: 736d 93bd 04fa 54bd b4e0 04bd 6117 463d
00000150: 823c 48bd b906 0dbd d69a 603d 547f 84bd
00000160: 0a91 683d af8a c03d bb43 643d 15f4 ec3d
00000170: 17be 9ebd 5611 0a3d 7b8c bcbd fec3 643d
00000180: fb30 363c 278f 13bd 42c1 c8bc d305 cc3b
00000190: 19c4 dabc a287 78bd 7d65 73bd 6feb ea3d
000001a0: 3e77 b9bc d67f 3dbc 7220 b7bc dfd9 51bc
000001b0: d405 2a3d c464 953c 201a 06bd 3c17 f23d
000001c0: 4dcb d7bd 9ade e13d d492 85bd c16d 9fbb
000001d0: 9ccd c3bc 9fe3 493d ae29 13bc 5e99 5b3b
000001e0: 4417 cabd ac30 89bd ab22 61bb 3d67 753d
000001f0: 7abf 5dbd 542c a4bb aafd 273d 71b1 e3bd
00000200: 7df8 61bc 6447 473d f337 233d 6f53 003d
00000210: 87d0 84bd 08c2 bbbd ab6a 19bd adfd 6b3d
00000220: 87f8 9c3c 2be7 23bd 0c48 c53d 041d db3c
00000230: 323f 3dbc 0c82 f5bc 810b 6ebd 60f2 f83a
00000240: b166 9a3d 4205 3d3d a229 c73d 5846 193d
00000250: c609 723d d160 ccbd 9578 673d b653 903d
00000260: ab52 67bd 0126 773d a1a1 a6bc 3973 863c
00000270: d578 6b3d c469 633d 733b 883d d29a 663d
00000280: 1e87 b1bd 3f3f 3f3d 01ec 30bd 9ff0 4ebc
00000290: a600 a03d 7a57 15bd 7fc6 173d 2343 90bd
000002a0: 1056 88bd d852 89bc 0c90 c93c 569f c33d
000002b0: 37d4 173d 5f15 2dbd 94e1 99bd ca3c d5bd
000002c0: 8d9d 95bd c6f2 f4bc 077f 90bd 8e1d b2bd
000002d0: 78de 10bd 4ef2 fb3c 1836 e83b f72a 26bd
000002e0: 76d8 b23d 197a 32bc bbff a3bc ace5 663c
000002f0: 2677 a03d c168 8fbd 1049 f93b 8430 523d
00000300: 0268 863d ebfe 093c 0a7b 67bd fe63 94bd
00000310: 4dfb febc a02a ee3c dc72 623d da44 773d
00000320: 66ae debd 2ae9 bc3c 4760 8abd 7146 a6bc
00000330: bc93 a1bb c8db 62bd de21 ee3c 9810 883d
00000340: dde7 213d 07ef 96bd 7d12 9d3d f6f1 28bd
00000350: bdaa c03d c6df babd d041 c83d db8d 9bbc
00000360: e8c2 6abd 5b12 14bc 660e 153d 96bc 4d3d
00000370: fb4b d23c 1cde 943d 5092 313d a1d8 10bd
00000380: 00ed 10ba bdb3 cbbd 9d08 cfbd 06a5 21bd
00000390: b4be b93d 4c50 7b3c 08f8 843d 7df8 ae3d
000003a0: 6f72 a2bc 6559 8dbd d1d7 603c 973d 3a3d
000003b0: a9b4 81bd 6471 93bd 749a 0dbd bea9 2abd
000003c0: 960c 623c 3e83 57bd acdc 2c3d 27f8 acbd
000003d0: f370 bb3c da85 933d 6ee3 45bd d77e 8a3d
000003e0: e6da 2f3d ab06 b93d c26d 6dbd 4d3d a33d
000003f0: 2c1d 13bd 45e1 ffbc 9954 8cbd d4a5 d9bd

lstm.weight_hh_l1 f4 [512, 128]
-0.05643175 -0.039304633 -0.063018695 0.07930915 0.029165417 0.089154795 -0.015669862 -0.017302345
0.01662856 -0.012264016 -0.040085405 0.038744424 0.08336067 -0.044543747 0.02469576 0.002716877
-0.009206233 -0.01481049 -0.0617953 -0.07726513 0.034031756 -0.03714161 0.056245904 -0.074451014
-0.073403865 0.017091768 -0.07163484 0.044393912 -0.077708796 -0.0965574 0.009268609 -0.03958928
0.051320717 0.038753416 0.067131795 -0.041297067 -0.010170814 0.0004006093 0.08384682 0.060784254
0.033452705 0.011437633 0.02919703 0.075231105 -0.004433674 0.019345999 0.029945776 0.023204936
0.023905508 -0.05080855 -0.12207565 -0.073891506 0.12048673 0.100671664 -0.00888597 -0.050269004
0.07910156 -0.015995095 -0.044115197 0.017877866 -0.07080314 -0.012803945 0.019513847 0.054929618
-0.11623631 -0.105249785 0.050850723 0.0035299968 -0.049784806 -0.09326255 0.020351574 0.043735944
-0.0012766661 0.087786965 -0.018094366 0.034754153 0.038846333 -0.026579909 -0.087297246 -0.09937211
-0.040691722 -0.0038638196 0.02418724 0.03633055 -0.056765758 -0.013086687 0.02173302 0.010429734
-0.104716934 -0.0644243 -0.09817538 -0.013318787 -0.043033134 -0.05803246 -0.032648735 -0.010276234
0.08971825 -0.06311919 0.08922348 -0.029495468 0.04806716 -0.033405244 -0.07963061 0.08615794
0.056672554 -0.018971497 0.11345953 0.092926756 -0.07443808 -0.0332051 0.094816595 -0.12116281
-0.010743269 -0.032267176 -0.084370315 -0.06546134 0.08685198 -0.037966847 -0.04962386 -0.027451769
0.03212656 0.077476196 0.06665601 0.10879651 0.017166179 -0.07755039 0.026412146 -0.02926048
-0.07560373 -0.0035716712 0.007280021 0.028796881 0.005107849 0.06468415 0.02677063 0.032751687
-0.041330628 0.007640473 0.035896312 0.078674234 0.064218365 0.055372197 0.036078557 0.055266287
-0.06470193 0.03716804 0.062817656 0.08335053 0.016048921 -0.08150331 -0.067441985 -0.08462584
0.06211967 -0.07112746 -0.09322686 -0.08711547 0.05572343 -0.055228032 0.085417576 -0.0022324233
0.044749264 -0.020578958 -0.00835465 -0.049322642 0.07801237 0.104222804 -0.02703252 -0.045873992
0.070958234 -0.05149705 -0.014714539 0.017389482 -0.033249673 0.010568727 -0.03341075 -0.0737517
0.09896096 0.045023024 0.04438776 -0.094048336 -0.007708083 0.08015508 -0.079399236 0.010023962
-0.0101260105 -0.00232441 -0.043985084 0.063950546 0.07659171 0.06233474 -0.073903576 0.0017015919
0.015010837 0.07996009 0.09051993 -0.06353661 -0.07186921 -0.0138166 -0.057075396 0.0028794203
0.055851575 -0.05561611 0.108869605 -0.08028311 0.013570823 0.06041293 -0.013519712 0.054011498
0.047961242 0.057785008 -0.06538151 0.08090508 0.041146643 0.030518254 -0.066343546 0.035142664
-0.0344832 0.095101744 -0.11376214 -0.05608824 0.052234653 0.037410416 0.06597637 -0.05986546
-0.05474183 0.07445454 0.062841445 0.082113765 -0.0035717953 -0.05495553 0.036658634 -0.03402056
0.0935309 -0.06792414 0.10022524 -0.07390558 0.018405166 -0.027099237 0.025745362 0.030857194
-0.050630275 -0.0026829622 0.07228007 0.072867945 0.016857445 0.03958267 -0.041674886 0.060418867
-0.025592774 -0.084154844 -0.03533144 0.049345173 0.07304749 -0.026036251 0.037085798 0.06536386
00000000: fb24 67bd e5fd 20bd f20f 81bd d66c a23d
00000010: 50ec ee3c ca96 b63d 155e 80bc a6bd 8dbc
00000020: 9e38 883c 03ef 48bc 9830 24bd 79b2 1e3d
00000030: 00b9 aa3d 8173 36bd c34e ca3c a20d 323b
00000040: bdd5 16bc b3a7 72bc 121d 7dbd 2e3d 9ebd
00000050: e264 0b3d cd21 18bd 1b62 663d c679 98bd
00000060: c454 96bd 0904 8c3c 49b5 92bd 64d6 353d
00000070: ca25 9fbd e3bf c5bd 5ddb 173c 5e28 22bd
00000080: ac35 523d e7bb 1e3d 657c 893d 1d27 29bd
00000090: 7ca3 26bc df08 d239 e2b7 ab3d e9f8 783d
000000a0: b405 093d e964 3b3c 9c2e ef3c c412 9a3d
000000b0: 5a48 91bb 807b 9e3c d850 f53c 4718 be3c
000000c0: 7cd5 c33c a01c 50bd cc02 fabd 6e54 97bd
000000d0: bfc1 f63d f22c ce3d 7696 11bc dfe6 4dbd
000000e0: 0000 a23d 2508 83bc 23b2 34bd 9a74 923c
000000f0: 3d01 91bd a3c7 51bc 81db 9f3c e1fd 603d
00000100: 4d0d eebd 338d d7bd d948 503d 8557 673b
00000110: 27eb 4bbd 7000 bfbd 58b8 a63c 7624 333d
00000120: ce55 a7ba a7c9 b33d a33a 94bc 5f5a 0e3d
00000130: 551d 1f3d 1cbe d9bc e6c8 b2bd 9b83 cbbd
00000140: 5dac 26bd 2338 7dbb 5224 c63c 58cf 143d
00000150: 3683 68bd 8b69 56bc 7209 b23c 7ae1 2a3c
00000160: d575 d6bd e3f0 83bd 2c10 c9bd 0b37 5abc
00000170: 8343 30bd 72b3 6dbd aeba 05bd a65d 28bc
00000180: 34be b73d a244 81bd cdba b63d 7ba0 f1bc
00000190: 12e2 443d f0d3 08bd 6015 a3bd 9373 b03d
000001a0: 7b21 683d 1d6a 9bbc 785d e83d 6250 be3d
000001b0: fe72 98bd 1202 08bd 342f c23d 3524 f8bd
000001c0: 8904 30bc 962a 04bd 58ca acbd 9810 86bd
000001d0: 73df b13d 2083 1bbd 6342 4bbd 88e2 e0bc
000001e0: 2497 033d d7ab 9e3d f282 883d b4d0 de3d
000001f0: 16a0 8c3c bdd2 9ebd 495e d83c adb3 efbc
00000200: 21d6 9abd b312 6abb 3e8d ee3b 70e7 eb3c
00000210: be5f a73b 2079 843d 154e db3c a226 063d
00000220: 4e4a 29bd ef5c fa3b 0308 133d f51f a13d
00000230: eb84 833d f5cd 623d 1cc7 133d e75e 623d
00000240: 7282 84bd 843d 183d 8ba6 803d afb3 aa3d
00000250: 0779 833c 35eb a6bd 061f 8abd 5050 adbd
00000260: 3271 7e3d 46ab 91bd b9ed bebd 9869 b2bd
00000270: 403e 643d ca36 62bd 69ef ae3d d94d 12bb
00000280: 014b 373d 3495 a8bc f1e1 08bc 8a06 4abd
00000290: f3c4 9f3d c472 d53d 4e73 ddbc 5ee6 3bbd
000002a0: 8d52 913d 92ee 52bd 4015 71bc 6374 8e3c
000002b0: cf30 08bd 7428 2d3c b6d9 08bd 220b 97bd
000002c0: 0bac ca3d 106a 383d f1cf 353d 6a9c c0bd
000002d0: 1694 fcbb 5928 a43d 119c a2bd 8b3b 243c
000002e0: 91e7 25bc 2155 18bb b429 34bd 81f8 823d
000002f0: 1ddc 9c3d b652 7f3d c25a 97bd f307 df3a
00000300: 04f0 753c 1ec2 a33d 8362 b93d 7b1f 82bd
00000310: 2a30 93bd 055f 62bc e4c7 69bd a8b4 3c3b
00000320: 9fc4 643d b8cd 63bd 07f7 de3d 796b a4bd
00000330: 2858 5e3c 8c73 773d c881 5dbc 293b 5d3d
00000340: 0273 443d f9af 6c3d bee6 85bd 90b1 a53d
00000350: 6289 283d 6b01 fa3c 20df 87bd c1f1 0f3d
00000360: 423e 0dbd b4c4 c23d 20fc e8bd c8bc 65bd
00000370: 01f4 553d aa3b 193d 9e1e 873d 7c35 75bd
00000380: f838 60bd 9f7b 983d 04b3 803d 432b a83d
00000390: c814 6abb 0d19 61bd 5d27 163d 2559 0bbd
000003a0: 218d bf3d d01b 8bbd e442 cd3d cf5b 97bd
000003b0: 6ec6 963c 38ff ddbc f0e7 d23c 3ac8 fc3c
000003c0: b161 4fbd a3d4 2fbb 9307 943d ca3b 953d
000003d0: a018 8a3c 7021 223d 49b3 2abd c679 773d
000003e0: f0a7 d1bc 6059 acbd b3b7 10bd 2a1e 4a3d
000003f0: ec99 953d fa49 d5bc 47e7 173d 7ddd 853d
