checkpoints/hr_binary_classifier.pt (torch, 366600 bytes, 19 tensors)

conv1d.0.weight f4 [32, 1, 5]
000000 da ea 47 3c f2 c8 7a bd 53 66 71 be 7b 16 cd 3d
       0.012201989 -0.061226793 -0.2357419 0.100140534
000010 1c be 6f 3c a0 de 70 be d4 f5 1b 3e 53 6b b8 3e
       0.014632728 -0.23522425 0.15230495 0.36019382
000020 56 09 b2 3e 75 9c 7b bc 7e 0d 5b 3d 12 e4 a6 be
       0.34772748 -0.0153571265 0.053479664 -0.3259588
000030 75 df be be 95 31 9a bd 5f 77 90 bc 09 2f 5f be
       -0.3727986 -0.07528988 -0.017635046 -0.21795286
000040 41 82 76 3d c5 af ad bd 38 d6 89 be 12 36 4e 3e
       0.060182814 -0.08480791 -0.26921248 0.20137814
000050 1c 21 ab 3e 0f 76 0f be 9f fc a3 be 35 36 dd bc
       0.33423698 -0.1400988 -0.32028672 -0.027003387
000060 c4 d4 90 3e c1 23 c8 3d 90 16 89 be 08 01 b7 be
       0.28287327 0.097724445 -0.26775026 -0.35742974
000070 df 39 a4 be 92 ad c7 3e 85 d5 a6 3d f0 8c cc be
       -0.32075402 0.3899961 0.08146194 -0.39951277
000080 57 4f 3d 3e 60 ce b2 bd c6 26 ba 3e 77 ef af bd
       0.18487297 -0.08730769 0.36357707 -0.08590596
000090 3e 90 ef 3c a5 e5 1d bd 52 12 a5 be 18 8a 75 3e
       0.029243585 -0.038549084 -0.3224054 0.2397846
0000a0 fc 08 37 bd 54 b2 22 be 12 f8 7e 3e 36 03 2e bc
       -0.044686303 -0.1588834 0.24899319 -0.010620883
0000b0 45 2f c8 3e 88 45 16 3e 59 29 91 3e 8c ed 85 3e
       0.39098564 0.14674962 0.28351858 0.26157796
0000c0 1c 2d 35 be fd 87 66 be 1c 68 a6 be a9 c0 61 3e
       -0.17692989 -0.22512813 -0.32501304 0.2204615
0000d0 77 3f 99 be f2 56 ca bd c5 53 81 be 3d 88 02 3e
       -0.29931232 -0.09879865 -0.25259224 0.12747283
0000e0 04 83 da be 3c 37 23 3e d4 8d d5 3e 57 a8 a6 bc
       -0.42678082 0.15939039 0.4170977 -0.020343943
0000f0 28 4d 5e 3e c8 37 79 3e fb b8 96 3e 8b dc 1b be
       0.2170912 0.24337685 0.29438004 -0.15220849
000100 d0 82 8b 3e ad e7 e5 be e7 4e d9 be a3 3b 63 bd
       0.2724824 -0.44903317 -0.4244301 -0.055476796
000110 50 fe b9 3e 89 aa 28 be 00 39 ce 3e d4 4e 81 be
       0.36326838 -0.16471304 0.40277863 -0.25255454
000120 6e b9 b8 bd 2f c0 db 3e 5d af a5 3e 0c 10 e0 be
       -0.09019743 0.42920062 0.32360354 -0.43762243
000130 96 48 c7 38 1a c9 59 3e 24 36 bb 3b e1 bb 49 3e
       9.5025796e-05 0.2126812 0.005713241 0.19700576
000140 42 92 47 3e 7f 4e c0 be c2 20 8b 3e 99 31 31 3e
       0.19489387 -0.37559888 0.2717343 0.17304076
000150 68 e8 83 3e 25 90 4a 3e bf df 99 3e c9 d4 de be
       0.2576325 0.1978155 0.30053517 -0.43521717
000160 32 44 ca 3e 22 c9 89 3d c2 1a cb be 4e a3 16 be
       0.39505154 0.06727816 -0.39668852 -0.14710733
000170 84 d2 a5 be b6 70 d2 3e 7f b2 5e 3e cc 46 55 be
       -0.32387173 0.41101617 0.21747778 -0.20827788
000180 8b 7d 61 3d 88 0f 4d be 60 48 4d 3e 90 cc 79 3e
       0.055051368 -0.20025456 0.2004714 0.2439444
000190 af df c2 3e 17 e4 46 be 28 bc e2 3e 10 37 4a be
       0.38061282 -0.19422947 0.44284177 -0.19747567
0001a0 74 b9 a3 be f9 2b 8a bc 70 64 1e 3e f0 8a 7c be
       -0.31977427 -0.01686667 0.15468001 -0.24662375
0001b0 30 b4 dc bc 4b 50 9c 3d 27 ba 80 3e c4 dc a3 be
       -0.026941389 0.07632502 0.25142023 -0.32004368
0001c0 87 78 db bb f3 2d 06 3e 08 86 e0 be b2 c0 5a be
       -0.0066977176 0.13103466 -0.43852258 -0.2136257
0001d0 90 1c 79 be d3 26 66 be f9 a5 37 3e 26 4d 33 be
       -0.24327302 -0.22475748 0.17934407 -0.17509899
0001e0 5f ce d5 3e e0 0e f5 3e 7e 21 82 be df e0 de 3d
       0.4175901 0.4786291 -0.25416178 0.108827345
0001f0 bc 48 84 3e ae 60 94 be 5b c0 e3 3d ec 13 63 3e
       0.25836742 -0.2898001 0.11120673 0.22175568
000200 96 b8 ee bd 57 e6 8c 3e e0 eb 90 bd ec 96 6e 3e
       -0.11656301 0.27519485 -0.070762396 0.2329976
000210 9c e4 42 be 45 30 6c be 3c 01 20 3d aa cd c8 bd
       -0.1903252 -0.23065288 0.039063677 -0.09804852
000220 89 0f 0e be fe 5e 7d 3e c8 31 da 3e 9b 73 0c be
       -0.13873114 0.24743268 0.42616105 -0.13715975
000230 e1 46 26 3e 71 b8 d5 be 9d 5d b4 be dc 3e c2 3e
       0.16237976 -0.4174228 -0.3522767 0.37938583
000240 f4 57 19 3e 21 a3 12 3d 2b 5e d6 3e e1 d2 8d be
       0.14974958 0.035800103 0.4186872 -0.2769995
000250 7a cc ce bd a5 ae 2a be 70 e8 08 3e 61 4b cd be
       -0.100975946 -0.16668184 0.13369918 -0.40096572
000260 52 28 04 be a4 0e 00 be 44 06 15 bd 2f c2 a1 be
       -0.12906006 -0.12505585 -0.03638293 -0.31593463
000270 48 e3 aa 3e cd 62 cc be ef 4c fd bd bf 78 a1 be
       0.33376527 -0.3991913 -0.123681895 -0.31537434

conv1d.0.bias f4 [32]
000000 09 b6 4b be b7 61 a4 be 7a dc fa bd b3 95 30 be
       -0.1989366 -0.321058 -0.12249084 -0.17244606
000010 eb ba 98 3e 69 87 38 3c 8d 14 b9 3e 11 ce c1 3e
       0.29830107 0.011262753 0.36148492 0.3785253
000020 43 5a 6d 3b e2 fb 59 3b 56 24 2a be 9a ac cb 3e
       0.003621713 0.0033261706 -0.16615424 0.39780122
000030 1a 2d 17 3e 51 6c 92 be 65 a1 4c be b0 a3 3b 3e
       0.14763299 -0.28598264 -0.19983442 0.1832416
000040 49 ce 01 be 77 fe a3 3e d0 29 8f 3e 8c 48 42 bc
       -0.12676348 0.3203008 0.27961588 -0.011858117
000050 6f e6 eb bd 44 31 bb 3e 18 e0 28 be 0c 70 03 3e
       -0.11518561 0.36561024 -0.16491735 0.12835711
000060 17 de 8a 3e a4 d8 e1 be 36 e4 57 bd 4d f9 a4 3e
       0.27122566 -0.44110596 -0.052707873 0.3222145
000070 f2 45 de 3e 0b 26 41 bd da 38 b0 bd de 3e 9c be
       0.4341274 -0.04715542 -0.086045936 -0.30516714

conv1d.2.weight f4 [32]
000000 6f 01 81 3f 45 8e 86 3f 88 26 80 3f 9a cc 7d 3f
       1.0078562 1.0512167 1.0011759 0.9914032
000010 45 6b 7f 3f b0 af 7d 3f e3 db 80 3f 4f e4 7c 3f
       0.99773055 0.990962 1.0067104 0.9878587
000020 6a e8 7c 3f 4d 87 82 3f 1a 07 81 3f 4c c2 80 3f
       0.98792136 1.019754 1.0080292 1.0059295
000030 82 4c 7f 3f ba 64 7f 3f 55 fa 7c 3f 7b 7f 82 3f
       0.99726117 0.9976307 0.98819476 1.0195154
000040 8f 65 79 3f 58 89 7c 3f fa bc 80 3f a5 0a 84 3f
       0.9742059 0.9864707 1.0057671 1.0315748
000050 1d 05 80 3f 7c 73 7b 3f 36 e7 7e 3f e6 56 7d 3f
       1.000156 0.9822309 0.9957155 0.9896072
000060 59 e6 80 3f 84 a5 83 3f e0 4d 7c 3f c2 a5 74 3f
       1.0070297 1.0284886 0.9855633 0.95565426
000070 48 72 80 3f 36 10 7c 3f 1e 95 7f 3f fe 48 7c 3f
       1.0034876 0.98462236 0.9983691 0.9854888

conv1d.2.bias f4 [32]
000000 81 27 93 bc 56 48 b0 bc 2d 4b 81 3b 5e e4 13 3c
       -0.017963173 -0.021518867 0.003945729 0.009026615
000010 ae ab a5 bb 23 18 be 3c fc 6f 1d bb c2 67 8d bc
       -0.005055866 0.023204869 -0.0024023047 -0.01726139
000020 f2 62 80 3c 0b 6f 6c bc 18 77 37 3c 1c 0b e6 bc
       0.01567218 -0.014430772 0.011197828 -0.02808147
000030 09 a6 ef 3c 02 34 df 3b 4c a0 dc bc 45 13 29 bc
       0.029253976 0.0068116197 -0.026931904 -0.010319536
000040 0c 81 92 38 d5 80 16 3c c6 bb 08 bc 7c 33 d8 3c
       6.985859e-05 0.009185989 -0.00834555 0.026391737
000050 cb 0c 78 3c 2f 49 11 bc 49 7e ae 3c e3 1f 16 3d
       0.015139769 -0.008867546 0.021300452 0.036651503
000060 07 82 6a bc 16 9b 41 bc bd b1 8d 3c 37 03 d5 3c
       -0.0143132275 -0.0118167605 0.017296666 0.02600251
000070 3b 92 7f 3c a1 d2 bf 3c ba d8 31 3b 88 cb 03 bc
       0.015598829 0.023415865 0.0027137236 -0.008044131

conv1d.2.running_mean f4 [32]
000000 31 8a bd 3c ac f8 e9 3d 58 3e 6e 3e 79 2e 7d 3d
       0.023137184 0.114243835 0.2326597 0.061811898
000010 73 a1 a3 3e e0 fd 6f 3e f3 6e c3 3e 68 19 c0 3e
       0.31959113 0.2343669 0.38170585 0.37519383
000020 70 aa 3f 3e 26 a9 4c 3e c1 ce 3a 3e 24 26 dc 3e
       0.1871736 0.199864 0.18242933 0.4299785
000030 73 15 cb 3e c3 79 34 3e 3c ce 3c 3e 26 49 73 3e
       0.39664802 0.17624573 0.18438047 0.23758373
000040 1e bd 0b 3e 37 8e cb 3e 3e 36 be 3e 4d f2 e7 3d
       0.13646361 0.3975694 0.37150759 0.11325512
000050 e4 13 f1 3d b8 03 bc 3e a7 bc cf 3d 31 55 96 3e
       0.11771372 0.36721587 0.101434045 0.2936187
000060 a9 c4 04 3f e5 fd 16 3c 9b c5 9c 3d 7d cd c2 3e
       0.5186258 0.009215807 0.07654878 0.380474
000070 d0 c4 e5 3e 39 af db 3d c4 d1 37 3e ed 26 27 3e
       0.4487672 0.107267804 0.17951113 0.16323443

conv1d.2.running_var f4 [32]
000000 87 c9 d2 3b 67 f1 1f 3d 34 df 2f 3e a8 57 9f 3c
       0.0064327153 0.03904858 0.17174989 0.019450977
000010 4a 12 5a 3d 62 6c 2f 3e 1d 29 8e 3d 87 fc 45 3d
       0.053240098 0.17131189 0.069414355 0.048336532
000020 9a 73 5b 3d 8f 52 84 3d d8 a3 d2 3d 3f b7 98 3d
       0.053577043 0.06461059 0.10285157 0.074568264
000030 9d 15 42 3e ba c3 20 3e 53 ae 94 3d 3c 3a af 3d
       0.18953557 0.15699664 0.07259812 0.08556029
000040 31 ff 1b 3d 95 9c de 3d 1d 86 60 3e ee 80 ed 3c
       0.038085166 0.108697094 0.2192616 0.028992143
000050 74 36 50 3d f1 e8 56 3c 49 d2 32 3d 1d c4 34 3e
       0.05083318 0.013117061 0.043657575 0.17652936
000060 be be 8e 3e 5b f6 32 3b d7 ce cb 3c dd b5 a0 3d
       0.278799 0.0027307484 0.024878902 0.07847188
000070 21 db 05 3e fe 1f 19 3d 0a 03 ca 3d c4 6f db 3d
       0.13071872 0.037384026 0.09863861 0.10714677

conv1d.3.weight f4 [64, 32, 3]
000000 b6 df a5 3d 6c 79 75 3d ee 42 05 bc a0 56 0d 3e
       0.0809931 0.05993025 -0.008133633 0.13802576
000010 2e 8a 42 bd c4 5c 9c 3c dc 87 ea bb 9b c1 d0 3c
       -0.04749506 0.019087203 -0.007157309 0.025482943
000020 1c 6b a1 bd 91 90 70 3c 3e 36 0e bd f3 c2 6f bd
       -0.078817576 0.014682905 -0.034719698 -0.058535527
000030 20 13 a3 bd 0f ce 57 3d 7e 1d a8 3d 1b d9 79 bd
       -0.07962632 0.052686747 0.0820875 -0.060998064
000040 df a0 88 bd f5 1f 5b 3d 87 eb 10 3d 0b 89 e7 3b
       -0.06671309 0.053497273 0.035380866 0.0070658973
000050 23 a8 b3 bd c1 1b 52 3d ed 3d d6 3c bc c5 d5 bc
       -0.08772304 0.051296 0.026152575 -0.026095264
000060 d5 e5 f9 3c 17 05 14 bc 9a bd b1 3c 22 47 89 3d
       0.0305051 -0.009034417 0.021696854 0.06703021
000070 d6 b1 bd 3d cc 71 ab 3d a3 dc ba bd f6 1b 68 3d
       0.09262435 0.083713144 -0.09124114 0.05666729
000080 4b fe 78 bd 27 65 e2 3d 45 de 70 bd af 5f ad bc
       -0.060789388 0.110544495 -0.058805723 -0.02116379
000090 0e 40 d1 bc 97 2d 80 39 2d 3e 4d 3d ee b1 8a 3d
       -0.025543239 0.0002444803 0.050108124 0.06772219
0000a0 fc 42 a2 bd 7b 7f d9 bc 2b d9 b9 3d df 4f a8 3d
       -0.079229325 -0.026550045 0.09074625 0.08218359
0000b0 a3 4d ab bd c9 80 bd 3c 8b 88 cd 3d 00 80 d9 3d
       -0.083644174 0.023132699 0.10035809 0.10620117
0000c0 4d db cc 3c f0 98 ec 3c 19 c5 90 bd 87 ae 81 bd
       0.025006915 0.02888152 -0.070688434 -0.063321166
0000d0 40 0b b4 3c fe 68 9d bd b3 ad 92 3c 7c e0 6a 3d
       0.02197802 -0.07686041 0.017905092 0.05734299
0000e0 bb 4a be 3d 43 59 50 3d 14 5a 42 bc 3b 10 4f 3d
       0.092915975 0.050866377 -0.011862297 0.050552588
0000f0 9c 27 8f bd 36 96 9b 3d e6 f1 b5 3c 60 99 ee 3b
       -0.06989977 0.0759701 0.022210073 0.0072814673
000100 0a f6 17 bd 2d 07 19 3b dd 25 6b bd 96 f2 a7 bd
       -0.037099876 0.0023350224 -0.057409156 -0.082005665
000110 f0 e9 83 3d c5 2d 8a bd c3 7c e3 3b 04 55 eb 3c
       0.064411044 -0.06747011 0.006942363 0.028727062
000120 96 fa 8b 3d c8 bd e5 3d cd e2 a5 3d 49 8b 62 3d
       0.06834905 0.112178385 0.080998994 0.055308614
000130 da fa 52 3c b3 d5 45 3d 0d c0 89 3c b4 67 45 bd
       0.0128771905 0.048299503 0.01681521 -0.048194602
000140 be 02 4d 3c 6b 80 02 bd 91 77 b5 bc 00 29 5f 3d
       0.012512861 -0.03186075 -0.02215174 0.05448246
000150 2b 49 90 bd d3 84 91 bd 14 c6 27 bd 78 a0 48 bd
       -0.07045206 -0.07105412 -0.040960386 -0.04898116
000160 cf 4e 9a bd 25 d8 b9 3d 9d e7 d3 3d d0 9a b5 bd
       -0.07534563 0.090744294 0.10346911 -0.08867419
000170 7f 3d bd bd 1d 42 6d 3d 56 c4 46 bd 34 3e 20 3d
       -0.09240245 0.05792438 -0.048527084 0.03912182
000180 30 33 31 bc 58 ba b1 bd 2c 6f 55 3d f8 ff cb 3c
       -0.010815427 -0.086781204 0.052107975 0.024902329
000190 a4 4a a4 bd 1b bc 59 bd c8 42 5d 3c 9e 4c 80 3d
       -0.08022049 -0.053157907 0.013504691 0.062646136
0001a0 e8 74 95 3c 68 b7 0d bd e8 d6 6c bd c0 4f c1 bc
       0.018244222 -0.034598738 -0.057822138 -0.023597598
0001b0 72 59 0d bd d4 81 76 3d ba 6e 3a bd 8a 10 16 bd
       -0.03450913 0.060182407 -0.045515753 -0.036636867
0001c0 28 e7 91 bd ac ca c1 bd 52 de af 3d a8 e9 03 3d
       -0.07124168 -0.09462485 0.08587326 0.032205254
0001d0 a0 1e c6 bc 24 a4 1f bd 2e 99 96 3d c8 ef 4a bc
       -0.024184525 -0.038974896 0.073534355 -0.01238627
0001e0 0a 40 b8 bd 76 15 c1 bd d2 06 6a bd 41 22 44 bd
       -0.089965895 -0.094279215 -0.05713541 -0.04788423
0001f0 f0 76 69 bc 2b b3 69 bd a4 35 bb 3d f0 0d ff bc
       -0.014249548 -0.057055634 0.091410905 -0.031134576
000200 87 e1 b3 bd b0 33 83 bc 98 80 ab bd 51 d6 6d bd
       -0.0878325 -0.016015857 -0.08374137 -0.058065716
000210 c4 f6 0c bd 88 46 a0 3d 70 2d c5 3d d4 f8 11 bd
       -0.03441502 0.07825953 0.09627807 -0.03563769
000220 e5 45 4b bd b4 3e a9 3d d0 95 e2 bc 0c 2c e4 bc
       -0.049627203 0.08263913 -0.027659327 -0.027853034
000230 e0 bf 93 3d 28 15 8f 3d 20 ec 19 bb 2c e1 91 3d
       0.072143316 0.06986457 -0.0023486689 0.07123026
000240 81 5c be bd 4c 63 77 3d 58 b5 2d 3d 68 57 d4 bc
       -0.092949875 0.06039743 0.04240927 -0.025920585
000250 5a 3c cb bd d4 7d 61 3d 4c 35 c1 3d 6c a5 90 3c
       -0.099236205 0.05505164 0.09433994 0.017657004
000260 ad f4 b1 bd b7 d3 76 bd 14 98 27 3d 1a c5 c5 3d
       -0.08689246 -0.0602605 0.040916517 0.09656735
000270 00 9b cc bb 57 7e 3f bd 85 36 79 bd 9c e1 16 3d
       -0.0062440634 -0.046751346 -0.06084301 0.03683625
000280 9c b9 ab bc ee b3 af bd bc 71 47 3d 58 22 13 3d
       -0.020962529 -0.08579241 0.04869245 0.035921425
000290 54 bf d4 bc 56 77 76 bd 1e a5 81 bd 20 6e b6 3c
       -0.025970139 -0.0601724 -0.06330322 0.022269309
0002a0 9c a4 4d 3d 20 c9 5a 3c 70 14 a4 bd e0 11 d8 bc
       0.05020581 0.013353616 -0.08011711 -0.026375711
0002b0 80 af 7a bc f6 45 04 bd b0 0b 08 3d b8 1c cc bc
       -0.0153006315 -0.032293282 0.03321427 -0.024916038
0002c0 a8 01 1a 3d 58 e7 20 bc 22 58 87 3d 70 c3 79 3d
       0.037599236 -0.009820782 0.06608607 0.0609774
0002d0 6a d3 b8 3d b8 f0 12 3d 40 aa 5f 3c 70 5a fc bc
       0.09024699 0.0358741 0.013651431 -0.030804843
0002e0 7e 08 b9 3d ec 8f 11 bd 6f 20 c5 bd 47 15 a1 bd
       0.09034823 -0.035537645 -0.09625327 -0.078653865
0002f0 a0 ce 53 bc 7c ca 83 3c a8 e3 4f bc fa 6f 89 3d
       -0.012927681 0.016087763 -0.012688555 0.06710811
000300 98 69 85 3c 80 40 41 bb 8f 70 b8 bd 66 3d 7c bd
       0.016285703 -0.0029487908 -0.09005844 -0.06158199
000310 8a 3f a1 3d a6 d7 b1 3d d2 31 43 bd 4c c0 24 bd
       0.07873447 0.0868371 -0.047654934 -0.04022245
000320 60 f5 38 3d b8 53 60 3c b4 96 fe bc 98 b5 fb 3c
       0.045155883 0.013691835 -0.03107772 0.03072624
000330 60 54 34 3c f0 dd 88 3b 20 e6 87 3c 78 5e f9 3c
       0.011006445 0.0041768476 0.016589224 0.030440554
000340 70 be c8 3c 34 31 53 3d e4 39 28 3d 68 bf 11 bd
       0.02450487 0.051560596 0.041070834 -0.03558293
000350 5c 35 a5 bd fc 7d a5 3d be d5 c4 3d a0 5b b5 bb
       -0.08066818 0.0808067 0.096110806 -0.005534604
000360 80 31 4d 3b 68 bd 8a 3c c8 be 98 3d 44 12 9b bc
       0.0031310022 0.016936019 0.07458264 -0.018929608
000370 9c 31 2c 3d dc 37 c9 bd 64 19 58 3d 12 49 b0 bd
       0.0420395 -0.098251075 0.05275859 -0.08607687
000380 64 16 2f 3d 3c 26 8e 3d b8 be 5f 3d c0 e2 03 bb
       0.042745963 0.069408864 0.054625243 -0.0020124167
000390 0c ec 43 3d ac 92 3b 3d 88 3b e0 bc dc d2 ba 3d
       0.047832534 0.045794174 -0.027372137 0.091222495
0003a0 18 26 f3 3c cc 31 bf 3d ee 33 9a 3d 54 c6 db bc
       0.02968125 0.0933567 0.07529436 -0.026827969
0003b0 b8 89 95 3c 33 77 a5 bd c8 cc b0 bd a8 64 68 3d
       0.018254146 -0.08079376 -0.08632809 0.05673662
0003c0 fa fc bd 3d 62 f0 3b bd 85 10 73 bd 10 eb dc bb
       0.09276767 -0.045883544 -0.059341926 -0.006741889
0003d0 54 8b 9c 3d 80 22 28 3d e0 0e a7 bb a1 29 56 bd
       0.07643762 0.041048527 -0.005098209 -0.052285794
0003e0 84 bf 71 3d 98 d7 f2 bc 38 58 b0 bc a4 51 81 bc
       0.059020534 -0.029643819 -0.021526441 -0.015786
0003f0 8f 8a b1 bd b8 e5 53 3d d4 65 b9 bc f0 69 a4 bc
       -0.08669006 0.05173275 -0.022631563 -0.020070046

conv1d.3.bias f4 [64]
000000 06 71 ec bc 50 f1 b5 3d bc b9 fd bc 80 bb 29 bd
       -0.028862488 0.08883917 -0.030972354 -0.04143858
000010 78 ed b0 bc a4 5a c1 bd aa e4 9c 3d a0 38 5d 3b
       -0.021597609 -0.094411165 0.07660802 0.0033755675
000020 c0 35 8b bb 2a b3 19 bd 44 e1 39 3d 38 4c 1a bd
       -0.004248351 -0.03752438 0.045380846 -0.037670344
000030 ff 02 8c bd cc f8 b9 3d e2 f6 8c 3d 60 ab d5 3c
       -0.06836509 0.09080657 0.06883027 0.026082695
000040 a6 c4 69 bd 9a 98 a8 3d d4 2f 3e 3d 42 cb 1c bd
       -0.057072304 0.082322314 0.04643233 -0.03827978
000050 a8 e2 b6 3c 38 58 e9 3c 5a f5 af bd 73 60 28 bd
       0.022324875 0.028484449 -0.08591719 -0.041107606
000060 64 f0 92 3d ac 9d c7 bc ad 94 6a bd 64 04 94 3d
       0.07174757 -0.024367176 -0.057270695 0.072274
000070 02 03 aa bd 2c b1 a6 3d 48 6b 29 3d 84 d9 82 bc
       -0.08301355 0.081392616 0.041362077 -0.01597286
000080 20 a0 3f bc 39 79 c2 bd 08 d0 93 3d 26 01 00 bd
       -0.011695892 -0.09495778 0.07217413 -0.031251095
000090 ee 10 ce 3d f2 b1 91 3d 00 70 5b 3d a6 e7 b6 bd
       0.10061823 0.071140185 0.05357361 -0.08930902
0000a0 e0 16 c5 3b a3 7a 88 bd 74 22 a0 3d 6a 6f 69 bd
       0.00601469 -0.06664016 0.078190714 -0.05699102
0000b0 94 13 3a 3d 32 f6 8c 3d 48 dc 9a 3d 42 33 8e 3d
       0.045428827 0.068828955 0.075615466 0.069433704
0000c0 20 d1 48 bc 20 4b 1b 3d 34 76 86 3c a0 b4 6b bc
       -0.012256891 0.03791344 0.016413786 -0.014386326
0000d0 b4 20 86 3d f9 d0 44 bd f2 6e b6 3d d1 5d 41 bd
       0.065492064 -0.048050854 0.0890788 -0.04720861
0000e0 68 9d 8f 3d 00 21 2b ba 26 df 19 bd 48 b7 c2 3c
       0.07012445 -0.00065280497 -0.037566327 0.023769036
0000f0 7a 73 01 bd 26 f4 89 3d 94 49 5a bd 1c 6a b2 bc
       -0.031604268 0.06736021 -0.053292826 -0.021779113

conv1d.5.weight f4 [64]
000000 84 23 8f 3f 00 00 80 3f 00 00 80 3f 00 00 80 3f
       1.1182714 1.0 1.0 1.0
000010 00 00 80 3f 00 00 80 3f 00 00 80 3f 00 00 80 3f
       1.0 1.0 1.0 1.0
000020 00 00 80 3f 00 00 80 3f 00 00 80 3f 00 00 80 3f
       1.0 1.0 1.0 1.0
000030 00 00 80 3f 00 00 80 3f 00 00 80 3f 00 00 80 3f
       1.0 1.0 1.0 1.0
000040 00 00 80 3f 00 00 80 3f 00 00 80 3f 00 00 80 3f
       1.0 1.0 1.0 1.0
000050 00 00 80 3f 00 00 80 3f 00 00 80 3f 00 00 80 3f
       1.0 1.0 1.0 1.0
000060 00 00 80 3f 00 00 80 3f 00 00 80 3f 00 00 80 3f
       1.0 1.0 1.0 1.0
000070 00 00 80 3f 00 00 80 3f 00 00 80 3f 00 00 80 3f
       1.0 1.0 1.0 1.0
000080 00 00 80 3f 00 00 80 3f 00 00 80 3f 00 00 80 3f
       1.0 1.0 1.0 1.0
000090 00 00 80 3f 00 00 80 3f 00 00 80 3f 00 00 80 3f
       1.0 1.0 1.0 1.0
0000a0 00 00 80 3f 00 00 80 3f 00 00 80 3f 00 00 80 3f
       1.0 1.0 1.0 1.0
0000b0 00 00 80 3f 00 00 80 3f 00 00 80 3f 00 00 80 3f
       1.0 1.0 1.0 1.0
0000c0 00 00 80 3f 00 00 80 3f 00 00 80 3f 00 00 80 3f
       1.0 1.0 1.0 1.0
0000d0 00 00 80 3f 00 00 80 3f 00 00 80 3f 00 00 80 3f
       1.0 1.0 1.0 1.0
0000e0 00 00 80 3f 00 00 80 3f 00 00 80 3f 00 00 80 3f
       1.0 1.0 1.0 1.0
0000f0 00 00 80 3f 00 00 80 3f 00 00 80 3f 00 00 80 3f
       1.0 1.0 1.0 1.0

conv1d.5.bias f4 [64]
000000 00 4a 97 bd 00 00 00 00 00 00 00 00 00 00 00 00
       -0.07387161 0.0 0.0 0.0
000010 00 00 00 00 00 00 00 00 00 00 00 00 00 00 00 00
       0.0 0.0 0.0 0.0
000020 00 00 00 00 00 00 00 00 00 00 00 00 00 00 00 00
       0.0 0.0 0.0 0.0
000030 00 00 00 00 00 00 00 00 00 00 00 00 00 00 00 00
       0.0 0.0 0.0 0.0
000040 00 00 00 00 00 00 00 00 00 00 00 00 00 00 00 00
       0.0 0.0 0.0 0.0
000050 00 00 00 00 00 00 00 00 00 00 00 00 00 00 00 00
       0.0 0.0 0.0 0.0
000060 00 00 00 00 00 00 00 00 00 00 00 00 00 00 00 00
       0.0 0.0 0.0 0.0
000070 00 00 00 00 00 00 00 00 00 00 00 00 00 00 00 00
       0.0 0.0 0.0 0.0
000080 00 00 00 00 00 00 00 00 00 00 00 00 00 00 00 00
       0.0 0.0 0.0 0.0
000090 00 00 00 00 00 00 00 00 00 00 00 00 00 00 00 00
       0.0 0.0 0.0 0.0
0000a0 00 00 00 00 00 00 00 00 00 00 00 00 00 00 00 00
       0.0 0.0 0.0 0.0
0000b0 00 00 00 00 00 00 00 00 00 00 00 00 00 00 00 00
       0.0 0.0 0.0 0.0
0000c0 00 00 00 00 00 00 00 00 00 00 00 00 00 00 00 00
       0.0 0.0 0.0 0.0
0000d0 00 00 00 00 00 00 00 00 00 00 00 00 00 00 00 00
       0.0 0.0 0.0 0.0
0000e0 00 00 00 00 00 00 00 00 00 00 00 00 00 00 00 00
       0.0 0.0 0.0 0.0
0000f0 00 00 00 00 00 00 00 00 00 00 00 00 00 00 00 00
       0.0 0.0 0.0 0.0

conv1d.5.running_mean f4 [64]
000000 8c e0 ae 3e 24 61 50 3e c0 88 0e 3e c2 59 07 3e
       0.3415569 0.20349556 0.13919353 0.13217834
000010 05 0b 41 3e 79 16 1c 3e 1b 17 92 3e 21 33 42 3e
       0.1885186 0.15242948 0.28533253 0.18964817
000020 a0 0c 65 3e b9 65 0c 3e 6a 39 09 3e 40 f2 32 3e
       0.22368097 0.13710679 0.13400808 0.17475224
000030 8d d5 dd 3d 5e eb 97 3e 2b 22 ff 3e 6c 31 56 3e
       0.10831747 0.29671758 0.49830756 0.2091729
000040 0a f6 c0 3e 48 fa 75 3e 4f 77 1e 3e ea ee eb 3d
       0.37687713 0.24021256 0.154752 0.115201786
000050 80 7b 2e 3e aa 54 35 3e 6d 4b 4c 3e 86 46 76 3e
       0.17039299 0.17708078 0.19950648 0.2405034
000060 59 0a 78 3e 9f aa 67 3e b1 4d f7 3d aa 22 a6 3e
       0.24222697 0.2262368 0.12075365 0.32448322
000070 5b de 27 3e 5e a7 d1 3e 42 09 51 3e a8 c4 c1 3e
       0.16393416 0.40948004 0.20413688 0.3784535
000080 a4 54 69 3e ca 38 12 3e 54 71 15 3e 64 cf de 3d
       0.22786194 0.14279476 0.14594012 0.108794
000090 ac ef 73 3e 34 80 39 3e 75 e5 81 3e e5 37 27 3e
       0.23821896 0.18115312 0.25370374 0.16329916
0000a0 67 3b 6b 3e 36 b2 c5 3d cd 68 21 3e 13 5a 11 3e
       0.22971879 0.09653132 0.15762635 0.14194517
0000b0 f5 12 a4 3e 9f 34 ab 3e 48 92 85 3e c7 38 1a 3e
       0.32045713 0.33438584 0.26088166 0.15060721
0000c0 2a fb 4a 3e de 20 4d 3e 95 a5 8b 3e 83 b7 25 3e
       0.19822374 0.20032069 0.27274767 0.16183285
0000d0 a0 c7 57 3e 12 f4 0b 3e a5 30 89 3e 0c d7 38 3e
       0.21072245 0.13667324 0.26794925 0.18050784
0000e0 b6 ca 2b 3e 61 48 56 3e 35 10 af 3e d2 ba 68 3e
       0.16776547 0.20926048 0.34192052 0.22727516
0000f0 3f 2f 39 3e 01 1b 4a 3e cd 15 51 3e 93 f6 58 3e
       0.18084429 0.19736864 0.20418473 0.2118781

conv1d.5.running_var f4 [64]
000000 16 9f 7d 3e 74 5f 65 3d 68 60 a1 3d 87 7d 81 3d
       0.24767718 0.055999234 0.07879716 0.063227706
000010 39 20 3d 3e 9d b4 c9 3d f5 60 02 3e 63 24 b6 3d
       0.18469323 0.098489024 0.12732299 0.08893659
000020 24 fe 3a 3e b8 92 0d 3d f4 a9 e0 3c 8e 27 d9 3d
       0.1826101 0.03456375 0.02742479 0.106032476
000030 b7 46 6c 3d 5d a4 4f 3e 63 77 5f 3f 2d 35 09 3e
       0.057684626 0.20277543 0.87291545 0.13399191
000040 f2 0a ac 3e b6 a4 7b 3d c5 2b 90 3d dd f0 82 3d
       0.336021 0.061436377 0.070395984 0.06393597
000050 b4 e3 aa 3d 26 ee a0 3d aa a2 e4 3d 3f e5 05 3e
       0.08344212 0.07857923 0.11163838 0.13075732
000060 49 21 92 3d 7d 1d 50 3e fc 20 3f 3d d6 30 db 3e
       0.07135255 0.20323749 0.046662316 0.42810696
000070 1d 11 f7 3d ee 86 64 3e 66 8f f0 3d 68 46 e4 3e
       0.12063811 0.22317097 0.11746101 0.44584966
000080 61 b6 43 3e 63 b6 3a 3d f5 4b 84 3d 47 61 c5 3c
       0.19112541 0.045584094 0.064598 0.024094237
000090 b0 90 d0 3d 77 47 20 3d ef 37 dc 3d 3c c4 a5 3d
       0.10183847 0.039130654 0.10752856 0.08094069
0000a0 1c 8c 88 3d 00 76 6f 3d d5 0a 47 3d 9b e5 d3 3d
       0.06667349 0.058462143 0.048594315 0.10346528
0000b0 b1 d6 9e 3e 5d fa 9d 3e c5 55 ea 3d 9f d7 dd 3c
       0.31023172 0.30855075 0.114421405 0.027080355
0000c0 c1 be 79 3d db 2a 61 3d 4f 2a a6 3e fb 13 c8 3d
       0.060972933 0.05497251 0.32454154 0.09769436
0000d0 74 04 e5 3d 52 af 1a 3d e8 9d 10 3e 21 b8 b6 3d
       0.1118249 0.037764855 0.14122736 0.089218386
0000e0 cc f5 76 3d d0 d6 13 3e 93 06 c1 3e 9c 5c 88 3d
       0.060293004 0.14437413 0.37700328 0.06658289
0000f0 91 3e b1 3d 19 16 e0 3d 8f e3 5f 3d 96 84 db 3d
       0.08654512 0.10941715 0.054660376 0.10718648

lstm.weight_ih_l0 f4 [512, 16]
000000 0e 1f 33 3d ad 7a 4b bc 5e 36 dd bd f0 e7 93 bd
       0.043730788 -0.012419385 -0.10801385 -0.07221973
000010 5e 45 21 3d 13 78 bb 3c d8 14 9d 3c 9f 3c ee 3d
       0.039372794 0.022884404 0.019174978 0.11632656
000020 23 9e 7c bd 99 28 58 3c 9e bb bb 3c 04 ef d9 bc
       -0.06167425 0.013193273 0.022916611 -0.02660323
000030 5b 44 fb bd 98 5e df bd 16 6a 24 bd 00 65 22 3d
       -0.12268897 -0.10906714 -0.040140234 0.039647102
000040 27 74 ff 3c 99 7b e1 bd ed e0 0d be 70 70 79 3d
       0.031183315 -0.110099025 -0.13855334 0.060898244
000050 f0 a2 4a 3d 52 5b 64 bd 5e b4 13 bd 81 33 aa 3d
       0.049471796 -0.055751152 -0.036060683 0.08310605
000060 4c 5c f3 bd cf 65 40 3d f0 ba da 3d 8a 97 58 bd
       -0.118828386 0.046972092 0.10680187 -0.052878894
000070 13 a5 11 bd 2a 56 52 bb 08 ef 0a be 5e d1 4f bd
       -0.035557818 -0.0032094815 -0.13567746 -0.050736777
000080 c5 31 28 bd 2d 61 d3 3c a2 83 b9 3b fe f9 ea bc
       -0.04106309 0.025803173 0.005661444 -0.028683659
000090 6c fe c3 3d 03 71 cd bd 40 57 4b 3d f0 9c ee 3c
       0.095700115 -0.10031321 0.049643755 0.029127568
0000a0 73 3e 0d be a3 b1 a2 bc e0 66 84 3d 0e 47 ee 3c
       -0.13793354 -0.019860094 0.06464934 0.029086616
0000b0 05 c1 66 bd e0 29 2a be 44 bc 61 bc 93 f4 0a be
       -0.05633642 -0.16617537 -0.013777796 -0.1356986
0000c0 b1 4f de 3c 87 63 2e 3b 30 8f a1 bc 74 22 3a 3d
       0.02713761 0.0026609616 -0.019721597 0.045443013
0000d0 94 fb 3f bc 17 c9 0b bd b9 9e e1 bd 20 40 38 bc
       -0.011717696 -0.03412732 -0.11016602 -0.011245757
0000e0 66 c2 f1 bd 14 b3 97 bd 08 b5 05 3d cf d1 e9 ba
       -0.11804657 -0.07407203 0.032643348 -0.0017839017
0000f0 62 63 b0 bd 9a 61 b5 3a 07 f3 04 3b 6d e5 94 bd
       -0.08612706 0.0013838292 0.0020286457 -0.07270322
000100 ae 68 48 bd d9 6b 0d bd 14 22 c5 bd ce 63 7f bd
       -0.048927955 -0.03452668 -0.096256405 -0.06235104
000110 c1 f5 92 bc 0c 23 73 bd d8 a3 11 3d 03 3f b8 bc
       -0.01793945 -0.059359595 0.035556644 -0.022490984
000120 80 11 bc bd 67 2c b2 3c 8e 0d 58 3d 85 12 1d 3d
       -0.09183025 0.021749688 0.0527473 0.03834774
000130 c4 da b3 bd 29 05 a6 bd 34 92 3c bd 09 9b 76 bd
       -0.087819606 -0.08106453 -0.046037868 -0.060206447
000140 03 ae 86 3d 26 c9 bb 3d 69 9f 29 bd 4b dd c4 bc
       0.06576159 0.091692254 -0.04141179 -0.024031302
000150 e3 50 ee bc 67 b1 53 3d 82 11 35 bc 2b 2a 2b bd
       -0.029091304 0.051682856 -0.0110515375 -0.04178826
000160 4c 29 94 3d 61 53 3e bd 66 f2 ff 3b a1 55 a5 bd
       0.07234439 -0.046466235 0.0078108786 -0.08072973
000170 41 bb 98 bd cc 8c 43 bc 63 85 89 3d 4a a6 5f 3d
       -0.07457591 -0.011935424 0.067148946 0.054601945
000180 0f 8a b0 bd 08 f5 03 be 2a bc 17 3d 54 5b e6 3c
       -0.086200826 -0.12886441 0.03704468 0.02811972
000190 56 58 82 3d 91 83 e2 bd 9e 0e 88 bd 46 60 e4 3d
       0.06364505 -0.110602506 -0.06643413 0.11151175
0001a0 02 00 e4 bd e7 dc aa 3c 74 42 d1 3d 90 08 99 bc
       -0.11132814 0.020857288 0.10217753 -0.01868084
0001b0 fc ca 77 bd 0e 77 e7 bd ac a1 0d be 81 07 11 be
       -0.060496315 -0.11302005 -0.13831204 -0.14163019
0001c0 fc ee 5b 3d e5 22 d2 bc 32 10 9c bc fa c2 6f bc
       0.05369471 -0.025651405 -0.019050691 -0.014633888
0001d0 05 98 b3 3a 30 fd b4 bd d1 59 87 bd 60 f2 a4 bd
       0.0013701922 -0.08837354 -0.06608928 -0.08054042
0001e0 5c 75 08 3d 72 3e 3f 3d d5 60 6e bd db 84 12 3c
       0.033315048 0.046690412 -0.058197815 0.008942808
0001f0 d4 98 80 3d b3 40 92 bd 3a 7d 6b 3d 80 99 51 3c
       0.0627915 -0.07141247 0.057492472 0.012792945
000200 05 f9 05 be 86 cf 8b bd 4a 2b 8f bd 86 80 7a bc
       -0.13083275 -0.06826691 -0.069906786 -0.015289431
000210 19 1a bf 3d f9 e6 7b bb ab 32 2f bc 72 14 7a 3d
       0.093311496 -0.003843723 -0.0106932325 0.061054654
000220 6c 2f 1d be 61 5b 96 bd 94 77 bf 3c 09 2b bb 3d
       -0.15350121 -0.07341648 0.023372449 0.09139068
000230 28 df c1 bd b2 55 9a 3c dc 51 33 bd 31 ef fa 3c
       -0.09466392 0.01883969 -0.04377924 0.030631633
000240 a4 50 fa bd 33 87 c6 bd 73 96 ef bd d1 e9 97 3d
       -0.12222412 -0.09693756 -0.11698618 0.07417644
000250 c9 c5 0b 3e 40 17 95 bd f4 b9 ed bc d4 ac e8 3d
       0.13649668 -0.07279825 -0.029019333 0.11361089
000260 39 83 93 bd 1f 70 5d bd c7 b7 7a 3d b4 bc 97 3d
       -0.07202763 -0.054062005 0.06121042 0.07409039
000270 47 81 bd 3b 19 cd 0d be c7 a0 55 bd 06 e7 9d bb
       0.0057832333 -0.1384777 -0.052155282 -0.0048188
000280 05 66 8e bd ed 3b 14 be 77 b1 ff bc 5c 69 68 3d
       -0.069530524 -0.14475985 -0.031212552 0.056741104
000290 98 fa 03 bb 08 ec 0e 3d 18 37 3d bd b7 5b a1 3d
       -0.002013838 0.034893066 -0.04619512 0.07878821
0002a0 fd 43 e2 bc 7f 14 97 bd 79 03 76 3d 5c aa f8 bc
       -0.02762031 -0.07376956 0.060061906 -0.030354671
0002b0 e6 c1 d2 bc ce 44 83 bd 76 e2 0f be 97 b7 ce bd
       -0.025727224 -0.06409608 -0.14051232 -0.10093611
0002c0 0d 95 a7 bd 19 19 7f bd 11 9f dc 3c cf 10 bc 3d
       -0.08182726 -0.062279794 0.026931318 0.091828935
0002d0 13 2f a1 3b d4 6d a3 bd 99 73 88 3d 82 a5 6e 3d
       0.0049189418 -0.079799324 0.066626735 0.05826331
0002e0 6a 5a ca bd 5f 98 37 bd e9 f9 a0 3d 08 a8 c5 3d
       -0.09880526 -0.044823047 0.078601666 0.0965119
0002f0 f8 30 10 bd a9 af 07 37 78 f3 2f bb e5 fe 86 bd
       -0.03520295 8.087526e-06 -0.0026848 -0.06591586
000300 ab f7 17 bd 53 7c 87 bd a8 fb fd bc 9c ec b0 3d
       -0.03710143 -0.0661551 -0.031003788 0.0863888
000310 2a 66 21 bc 63 06 8f 3d d8 b1 a9 3c 95 d9 02 bd
       -0.009851018 0.0698364 0.020714685 -0.031945784
000320 b9 08 d3 bd fb 82 4d bc 14 4e 26 bc 63 7c 97 3d
       -0.10304398 -0.012543435 -0.010150451 0.07396772
000330 b9 01 05 be 1d 2e bf bd 5a f0 08 be 40 87 fe bc
       -0.12988938 -0.09334967 -0.13372937 -0.031070352
000340 4d 3a d4 3c bf e3 d2 bc 20 59 16 3c 1c 21 d4 bd
       0.025906706 -0.025743363 0.0091765225 -0.103578776
000350 43 c6 db 3c cd 60 55 3b df 45 3b 3d 86 42 cb bc
       0.026827937 0.0032558918 0.04572093 -0.024811994
000360 05 1f ff 3c 28 e0 21 3c 77 a7 07 3e 19 ee fd 3d
       0.031142721 0.009880103 0.13247477 0.12398929
000370 b0 5f 14 bd 8e dd 79 3b 8f 5d 9f 3d 70 32 92 3c
       -0.036224067 0.0038126442 0.07781517 0.017846316
000380 6c 73 c0 3a d3 a8 a7 3c 3b 51 8d 3c b6 e7 86 3d
       0.0014682836 0.020466244 0.017250648 0.06587164
000390 30 0d 02 bd cc de c2 3b c9 57 00 bd 30 2d 49 bd
       -0.031750858 0.0059469696 -0.03133372 -0.04911536
0003a0 10 1c 28 3d fe 3a 6b bc 1b 7d 45 bd 19 0e 5b 3c
       0.041042387 -0.014357327 -0.048215013 0.01337006
0003b0 90 20 a5 3d 9e d1 ac 3d 04 bf 2b 3c ee 1f 84 bd
       0.080628514 0.08438419 0.010482553 -0.064514026
0003c0 bd 23 3e 3b 04 fd 37 3d 76 e3 f8 bd e4 db 2d bd
       0.0029013 0.04491903 -0.1215276 -0.042446032
0003d0 5e f0 02 3e ab b2 5e 3d 6b 32 84 3d e3 65 ad 3d
       0.12787005 0.05436961 0.06454929 0.08466699
0003e0 38 0c bc 3c e0 ad 8c 3c e8 c8 57 3d 0c c7 2a 3d
       0.022955045 0.017172754 0.052681834 0.041693732
0003f0 6c fa be bc ba 76 07 be 51 7d 44 bd 63 bd 6b bd
       -0.02331277 -0.13228884 -0.047971074 -0.05755366

lstm.weight_hh_l0 f4 [512, 128]
000000 7e a3 04 bd 03 78 be 3c 2d 2a c8 bc c1 58 86 bd
       -0.03238248 0.023250585 -0.024434173 -0.06559897
000010 17 09 9f 3c 4b 52 81 3d 6f 6d 67 3c f5 d3 96 bd
       0.019413514 0.06314524 0.014125212 -0.07364646
000020 7a de 28 3d 70 61 67 3c 18 fa e1 bc 05 b2 dc 3c
       0.041227795 0.014122352 -0.027585074 0.026940355
000030 e1 23 49 3d 45 87 33 bd 76 96 cb bc a1 5b 52 bc
       0.049106482 -0.043830175 -0.024852019 -0.012839229
000040 d8 3f 55 bd 23 12 6e 3d 7d 9b 50 bd 2f 8e 39 3d
       -0.05206284 0.058122765 -0.050929535 0.045301612
000050 4e c2 e9 3b 64 6f a9 bd 36 ec 9a 3d 80 4f 39 bd
       0.0071337586 -0.08273199 0.07564585 -0.045241833
000060 a4 19 18 bd 3b 01 98 bc 4e e2 b2 3d 05 a4 72 bd
       -0.037133828 -0.018555274 0.087345704 -0.059238452
000070 1f 61 9a bd 9c 17 08 bd a6 d1 84 bd 8e a1 52 3d
       -0.07538056 -0.03322564 -0.064853 0.0514236
000080 08 78 b4 3d dd 75 b8 3c 00 51 b9 3d 5a 1f 48 bd
       0.08811957 0.02251714 0.09048653 -0.048858024
000090 fa cf 90 bc 17 cb 8b bd f8 0c 31 3b b1 e4 f2 3c
       -0.017677296 -0.06825846 0.0027015787 0.029650064
0000a0 09 31 15 3d 6b 7b 15 bd a9 83 8d bd c6 89 90 bd
       0.036423717 -0.036494654 -0.06909878 -0.07057528
0000b0 e5 3f 17 3d 13 8d 56 3d 07 92 a6 bd 29 5f 10 bd
       0.03692617 0.052380633 -0.08133321 -0.035247
0000c0 fe 3a 9b bd 63 ca 7a bd 3e 59 33 3a 54 3e 85 bd
       -0.07579611 -0.061228167 0.0006841606 -0.06506029
0000d0 78 78 2c bd 62 f9 18 3d 78 6c ad bb 6b 44 34 3d
       -0.042107075 0.037347205 -0.0052924715 0.04401056
0000e0 cd 50 90 3d 75 f9 fd bc 6d bd 9f bd c2 f0 4c bd
       0.070466615 -0.03100274 -0.07799802 -0.050034292
0000f0 6e 10 ae bd 90 38 ae bd d9 4b 91 bd b4 2e 23 3d
       -0.084992275 -0.08506882 -0.07094545 0.03983946
000100 b7 9b 21 3d d0 0f 67 bd d0 be 31 bd cb d9 20 3d
       0.039455142 -0.056411564 -0.043394864 0.039270204
000110 ca 68 82 bd 79 bd 7c bd bc 8f 23 3d 8e 00 a0 3d
       -0.06367643 -0.061704133 0.039931998 0.07812606
000120 45 ca 53 3c 52 3e f6 3c 53 8d 90 3d 3b 07 24 3d
       0.012926643 0.030059014 0.070582055 0.040045958
000130 40 c9 51 bc 61 ce a5 bd 19 fc ba 3c 4f 25 26 3d
       -0.012804329 -0.08096004 0.022825288 0.040562924
000140 3d 7a 58 3d cd e0 69 bd 99 c4 64 bd 80 0b 0f 3b
       0.05285095 -0.057099152 -0.055851553 0.0021826923
000150 26 9e 72 bd a3 93 0c bd f2 b0 45 bd 89 a8 31 3d
       -0.059232853 -0.034320485 -0.04826445 0.04337362
000160 7b bd 33 bd db d0 29 bd 6c c3 f7 3c 43 89 7d bd
       -0.043881875 -0.041458946 0.030244552 -0.06189848
000170 e9 d6 99 bd af 77 da 3c 25 b9 f6 b9 d1 26 f2 bc
       -0.07511694 0.026668398 -0.0004705872 -0.029559525
000180 ec 6d d3 bc 95 13 b4 3c b3 6c 5b 3c c5 51 e6 b7
       -0.02580925 0.021981994 0.013392615 -2.7456214e-05
000190 8d bb 1f bd 4e bf 23 3d 0e e0 89 bd 72 cb af bc
       -0.03899722 0.039977364 -0.06732188 -0.021459315
0001a0 e4 54 45 3d 28 34 9b 3d fb 00 9f bd e4 19 77 bd
       0.04817666 0.075783074 -0.07763859 -0.060327426
0001b0 41 b8 3a bc 95 0b 6f 3b 23 6b 8e bb 6b c1 74 3c
       -0.011396469 0.003647541 -0.004346268 0.014938693
0001c0 7c 26 cc 3c b4 1b 9f bd 85 24 7f bd 09 e5 b2 bc
       0.024920695 -0.07768956 -0.062290687 -0.021837728
0001d0 45 dc 48 3d 1e 0e e8 3a ad c9 fe bc 9d 9a 6b 3d
       0.04903819 0.0017704403 -0.031102026 0.057520498
0001e0 cd d2 a9 3d c9 28 98 bd 2f d0 84 3c 97 ce 2b bd
       0.0829216 -0.07429654 0.01621255 -0.041945066
0001f0 d5 c8 70 3c 32 d4 3d 3d c9 76 a8 bd a5 76 db 3b
       0.01469632 0.046344943 -0.082257815 0.006697493
000200 4f 1d 95 3d 64 a2 a1 bd 60 65 17 3d 26 24 93 bd
       0.07280981 -0.07892302 0.036961913 -0.07184629
000210 4a d4 82 bb d2 d6 8f 3d 22 90 8b 3d 6c 3a 9b 3d
       -0.003992592 0.070233956 0.068146005 0.075795025
000220 e6 32 df bc 6d 60 fd bd 57 ee 8c bd 04 ff f0 3d
       -0.02724595 -0.123719074 -0.06881397 0.1176739
000230 00 63 a4 3d 91 e4 98 3d 52 89 22 3d a6 78 ff bc
       0.08026695 0.074654706 0.03968174 -0.03118546
000240 ed bf 22 3d 85 14 29 3d 02 36 df bc ca c7 82 bc
       0.039733816 0.041279335 -0.027247433 -0.015964407
000250 3d 6d 24 3c 8d 00 61 3d 99 22 87 3c 18 15 2c bd
       0.01003581 0.054932166 0.01649599 -0.042012304
000260 1b 31 5c bd df ef 3b bd 88 41 e5 bd 96 38 30 3c
       -0.053757768 -0.045883056 -0.1119414 0.010755679
000270 05 64 85 bc cc 67 54 bd 8b 05 e0 3d 77 9e 98 3c
       -0.016283045 -0.0518568 0.10938557 0.01863025
000280 3e d3 0c bd c6 66 ec 3c 4a 6f 6a bd 01 62 d2 3d
       -0.034381144 0.0288576 -0.05723504 0.10272599
000290 92 ae 5d bd 85 47 4a 3d b7 32 c9 3b 20 63 a5 bc
       -0.05412156 0.049384613 0.006140079 -0.020188868
0002a0 33 da 69 bc 5b 01 52 3c 9d d0 0e bd dd 3f 40 bd
       -0.014273214 0.012817706 -0.034866918 -0.046935905
0002b0 60 ec ae 3d b6 48 19 bd 93 de c0 3c ba 28 42 bd
       0.08541179 -0.03742286 0.023543632 -0.04740212
0002c0 5e 66 15 bd 53 68 81 3d cb 59 cd b8 51 1a 2f bd
       -0.036474578 0.063187264 -9.791887e-05 -0.042749707
0002d0 3e 5f 0c 3d 0e b7 d7 bd 27 de fd bd df ee 96 bd
       0.034270518 -0.10532962 -0.12395888 -0.0736978
0002e0 db 09 57 3c a2 21 c5 3d 0b d1 be 3d ea dc 53 3b
       0.013124908 0.096255556 0.093172155 0.003232772
0002f0 a9 8d 01 3d 46 1e a6 bd 47 24 28 3d 74 07 02 3e
       0.03162924 -0.08111243 0.04105022 0.12698156
000300 0d 9b a4 bd 61 7d 75 3c 5c f9 3a bc c3 76 7f bd
       -0.08037386 0.014983506 -0.011411991 -0.06236912
000310 0e e0 69 bc b4 d6 c4 3c 7e 87 e0 bc f3 8c 64 3d
       -0.01427461 0.02402816 -0.027408358 0.055798482
000320 b0 c4 c1 bd 55 09 65 b8 7d 89 0c bd fc c4 bf 3d
       -0.09461343 -5.4606546e-05 -0.034310807 0.09363744
000330 05 9e 8e 3d 82 a9 29 bb 4f 25 cd bc 03 4d ae bc
       0.069637336 -0.0025888388 -0.025042204 -0.021276956
000340 f6 bd 84 3d 92 8c 9c 3b ef 5b 60 bd 54 14 9b 3c
       0.06481545 0.0047774995 -0.054775175 0.018930592
000350 b3 93 2b 3d f5 13 77 3a 34 e9 25 3d 39 4b f8 3c
       0.041888904 0.0009425276 0.040505603 0.030309306
000360 f7 e1 e0 3b 73 8e c4 3d 5d a4 7a bb 96 d0 cc 3a
       0.0068628746 0.095974825 -0.003824494 0.0015626128
000370 67 19 c3 3d a0 94 58 bc 88 2e b4 bc 0e 8d f6 3d
       0.095263295 -0.013219029 -0.021994844 0.12038623
000380 a4 e6 98 bd 3c f7 d1 ba 93 56 db 3c 05 81 55 bd
       -0.07465866 -0.0016019116 0.02677468 -0.052124996
000390 23 eb 57 3c 49 11 7a 3d 5b b0 56 bc 01 03 99 bd
       0.01317862 0.06105164 -0.01310357 -0.07471276
0003a0 32 96 73 3b cc 93 e7 3c b6 ba ab 3d 8f 3d 27 3d
       0.003716838 0.028268717 0.08385222 0.04083019
0003b0 3a 28 47 3d 06 8e 18 bc 40 3b 7e 3d c4 db 01 3d
       0.048622347 -0.009311205 0.062068224 0.031703725
0003c0 83 ee e1 3c eb c7 9a 3d ec d5 fb bc a1 4d c7 bd
       0.027579552 0.075576626 -0.030741654 -0.097316034
0003d0 38 2b 73 3d d3 05 86 3c 93 8e c8 3d c1 72 81 39
       0.05936739 0.0163602 0.09792819 0.00024690296
0003e0 91 3d f3 bc 1b 32 6b 3d 5f da d0 3d 11 cc 9f bd
       -0.029692443 0.05742083 0.10197901 -0.078025945
0003f0 b8 8b 84 3d f7 56 7f bd 49 fa 1d bd d2 0b 8f bd
       0.06471962 -0.062338796 -0.03856877 -0.069846764

lstm.bias_ih_l0 f4 [512]
000000 85 7f 2a bd 28 5c fa bb e8 9a 15 3e 98 48 04 3e
       -0.04162552 -0.0076403804 0.14609873 0.12918317
000010 e4 22 cd 3c 15 12 12 3d 92 52 82 3c e9 d2 bb 3a
       0.025041051 0.035661776 0.015908513 0.0014329824
000020 c7 a2 46 bd f2 eb 29 3d dd ab 0c 3c 0e 7d 01 3e
       -0.04849508 0.04148478 0.008585897 0.12645361
000030 81 94 19 3e ec 9c a2 bd 21 d5 4d bd a5 17 92 3d
       0.14998056 -0.07940087 -0.050252084 0.07133416
000040 42 49 e7 3d c9 a5 c1 bb 4d ec a1 3c b7 47 83 3c
       0.1129327 -0.0059096557 0.019765997 0.016025407
000050 f9 a2 82 bd 8a 07 4f bc 5f 8c 1e 3d f5 c0 18 3d
       -0.06378741 -0.012636075 0.038708087 0.037293393
000060 21 ab a2 3d 39 b3 6d bc 09 b0 1c 3e cb ea 24 3e
       0.079427965 -0.014508062 0.15301527 0.16105191
000070 e6 f7 02 3e 40 4b 7a 3d 06 52 88 3d 12 db c5 3d
       0.12789878 0.06110692 0.0665627 0.09660925
000080 21 aa 0f 3e dd 0b 00 3d 12 98 78 bc 1f 15 21 bb
       0.14029743 0.031261314 -0.015172975 -0.002457924
000090 3c 6a 7d bd 08 d7 f2 3b a2 ca 00 3e 0a dd fe 3c
       -0.06186889 0.0074108876 0.12577298 0.031111259
0000a0 78 37 35 bc e1 2e 2a 3d 66 3d d9 bc 85 3f 11 3e
       -0.011060588 0.041548613 -0.026518535 0.14184387
0000b0 9c c9 7f 3d 6a e7 3d ba a9 9b 20 3d 51 13 6e 3d
       0.06244813 -0.0007244261 0.03921095 0.05812389
0000c0 03 41 1b 3e 51 1b eb 3d 37 e6 92 3d 52 32 55 bd
       0.15161519 0.114798196 0.07172816 -0.052049942
0000d0 c0 44 03 3e e8 95 0d 3d 5c 3f 9a 3b 72 e5 a7 3d
       0.12819195 0.03456679 0.00470726 0.0819806
0000e0 08 bb ee 3d e8 4d 0b 3e 15 07 87 3d 85 8e e7 3c
       0.11656767 0.13603938 0.06593148 0.0282662
0000f0 5c 7e f1 bc 45 00 44 bc 83 af 48 3c c9 bf 24 3e
       -0.029479198 -0.011962955 0.0122488765 0.16088785
000100 81 c5 96 3d ac 2d b7 bb 58 dd 88 3d 1c 24 71 3d
       0.0736189 -0.0055901613 0.06682843 0.058872327
000110 69 ad 57 bc f7 2f 18 bd ee 4a 85 3d 92 59 37 3a
       -0.013163903 -0.037155118 0.06508432 0.0006994243
000120 da 74 68 3d 69 78 80 3d 5e 5b 0a 3e cf c6 b5 3d
       0.056752063 0.062729664 0.13511416 0.0887581
000130 7f a4 2e 3d 0f b3 09 bd 43 48 d3 3c f2 67 90 3d
       0.042637344 -0.03361803 0.025791293 0.07051076
000140 1f d9 f4 3c 68 2f ef b9 ec f7 a9 bc fc 0f 92 3d
       0.029888688 -0.00045620953 -0.020748101 0.07131955
000150 79 f8 ff 3d ba 80 9e 3c 43 cb af 3c e4 4e 27 ba
       0.12498564 0.019348491 0.021459227 -0.00063823
000160 fd 5c 95 bd a8 1f 1d 3d 2c 0f bd 3d 3a f6 cb 3c
       -0.07293127 0.038360268 0.092314094 0.024897683
000170 1d 19 97 3d bf 45 2e 3d ed 85 25 bb e0 cd 39 bc
       0.07377837 0.042546984 -0.0025256828 -0.011340588
000180 05 8e de bb 78 d2 e2 bc ea 6a 6f 3d 25 1e 64 3c
       -0.0067918324 -0.02768825 0.05845157 0.013923203
000190 77 f9 1b 3d a9 3b 06 3d 36 ec 0d 3d 38 1c 15 bd
       0.038079705 0.03277174 0.034649096 -0.036403865
0001a0 e2 3a 94 bb 46 e1 0e 3e 03 29 34 bc 28 31 d5 3c
       -0.004523621 0.13953122 -0.010996106 0.026024416
0001b0 19 f4 0c 3e 11 ea 8a 3d a5 fc 9e 3c db 48 ed 3d
       0.13764991 0.06782926 0.01940758 0.11586162
0001c0 10 46 98 3d 60 2d 5d 3d 4c 53 e0 3d f4 9f 05 bd
       0.07435238 0.05399835 0.109533876 -0.032623246
0001d0 84 c3 85 3c 3b bc 9e 3d 56 24 c7 3d 87 55 ae 3d
       0.01632858 0.07750746 0.097237274 0.08512407
0001e0 c9 c1 5c bd bd 2d 1e 3d 52 1f c8 3d f8 e4 ee 3b
       -0.053895745 0.03861784 0.09771599 0.007290479
0001f0 80 54 06 bc 0d e2 85 3d 16 f5 b2 b9 1f 01 43 3d
       -0.008198857 0.065372564 -0.0003413341 0.04760849
000200 b9 93 aa 3b 69 c1 8c bc d1 88 42 3d a2 84 8f 3d
       0.005205598 -0.017182069 0.04749376 0.070077196
000210 50 3c 29 bd 46 34 2e bd 93 ab cd 3d e0 30 47 bd
       -0.041317284 -0.04253032 0.10042491 -0.048630595
000220 d4 82 dd ba 14 09 60 bd f1 b2 1a bb 7c 54 c0 3d
       -0.0016899952 -0.054696158 -0.0023605193 0.09391114
000230 77 cb 0d 3d 87 0c d3 bc 2e d2 88 3c 7b 22 81 3d
       0.034617867 -0.02576281 0.016701784 0.06305405
000240 5d 6b 70 3c 7e ba c1 3a 65 10 4d 3d 59 46 17 3d
       0.014674035 0.001478031 0.050064463 0.036932323
000250 a0 51 73 bc 94 ac f3 3d 1d 53 94 bd cb 9b c7 3d
       -0.014851004 0.11898151 -0.07242415 0.09746512
000260 4a 75 6d bc a4 41 d8 3c 7c f6 2f 3d ba 6c 16 bd
       -0.014493296 0.026398487 0.042959675 -0.036724783
000270 c8 b8 93 bc 35 42 c8 3d 77 d8 f5 bc 25 7e 42 3d
       -0.018032447 0.09778253 -0.030010445 0.047483582
000280 3c 97 c9 3d 29 3b 68 3d 9b b2 79 3d 20 11 8c 3c
       0.09843299 0.056697045 0.060961347 0.01709801
000290 a1 e5 b1 bd fb 5d 8e bd ce fb 9e 3d 02 b4 06 bd
       -0.08686376 -0.06951519 0.07762872 -0.032886513
0002a0 b5 23 0a bd 2d d6 95 3d 00 30 36 3d 50 b5 85 3d
       -0.03372546 0.073162414 0.04447937 0.06528723
0002b0 e4 26 84 3d 5a ef 80 bd fa 2b 19 bd 20 37 4a bd
       0.0645273 -0.06295653 -0.037395455 -0.049368978
0002c0 5a ad 9f 3d 80 55 83 3d 4b 10 5a 3d 43 11 1c 3d
       0.07796736 0.06412792 0.053238194 0.0381024
0002d0 08 06 d1 bb 4f 70 3b bd dc db 2c 3d b3 73 25 bd
       -0.006378893 -0.045761403 0.04220186 -0.040393542
0002e0 b9 27 65 3d 41 2c 21 bd a7 37 93 3d cb 0f 34 bd
       0.055946086 -0.039348844 0.07188349 -0.043960374
0002f0 93 9e 4e bd 3c d9 18 3c 54 d0 8c bc 5e 7e 0c bd
       -0.050444197 0.009329136 -0.017189182 -0.0343002
000300 21 20 84 3c 83 33 ea 3d fb 80 b9 bc 0f dd b8 3d
       0.016128602 0.11435606 -0.02264451 0.090265386
000310 a7 7d 65 bc 2c 6c 14 3d 7e b8 a6 bd 28 30 a8 3d
       -0.014007009 0.036235973 -0.08140658 0.0821231
000320 08 b6 a9 3d b7 5e 8f 3d 9f e7 17 3c 8d 8b d3 b9
       0.08286673 0.07000487 0.009271531 -0.0004034903
000330 0c b4 01 bd be 00 b6 3d 87 af d8 3b fb 5c 64 3d
       -0.031665847 0.0888686 0.0066127214 0.055752736
000340 be 6c e3 3d a9 9d 5c 3d 0d 89 ce 3c 82 53 83 3d
       0.11104725 0.053861294 0.025211835 0.06412412
000350 fb 11 ef 3c 93 3a bd 3d c2 d5 97 3d 6f 57 1c bd
       0.029183378 0.09239688 0.07413818 -0.03816932
000360 ff 5d 1a 3d f9 19 ca 3c e8 e6 95 3d 5b 67 a0 bd
       0.037687298 0.024670588 0.073194325 -0.078322135
000370 00 f5 9b 3d f0 3c 54 bc 95 3f 27 3d 84 50 66 3d
       0.076150894 -0.012953982 0.04083212 0.05622913
000380 55 fd 31 3d ce 78 88 3d 87 fc 13 3d f7 c7 32 bc
       0.043454487 0.06663667 0.0361295 -0.010911933
000390 a3 60 1e bd 60 79 1a bd d2 b2 43 bd 47 71 9a 3b
       -0.03866638 -0.03771341 -0.04777796 0.0047132107
0003a0 1e 12 cd 3d 08 01 42 bb 4d a0 ba 3d 94 00 53 bd
       0.10013221 -0.0029602665 0.09112606 -0.051514223
0003b0 e4 ea ba 3d a7 a2 89 3d 32 37 9b 3d 22 76 5c 3d
       0.09126833 0.067204766 0.07578887 0.053823598
0003c0 11 95 a1 3d c1 9d 99 3c 5a da 8c bc b5 9e dd bc
       0.0788976 0.01875198 -0.017193962 -0.027053216
0003d0 47 f1 b4 3d b9 d6 f4 bc c3 af 02 3a 40 fd 58 bd
       0.088350825 -0.029887544 0.0004985297 -0.052975893
0003e0 55 ce a0 3d 4b ff 7b 3c 3e 11 12 3d 7e 38 bb 3c
       0.07851855 0.015380691 0.035660975 0.022854086
0003f0 fb 48 6a 3d f7 ab f1 bc ba 51 49 3c 3e 57 31 3d
       0.057198506 -0.029500945 0.012287552 0.04329609
